#composite_of_5952b = #util.composite<5952xi8, [
    dense<"…"> : tensor<32x10xf32>,
    dense<[… > : tensor<32xf32>,
    dense<"…"> : tensor<32x32xf32>,
    dense<[… > : tensor<32xf32>,
    dense<[[… > : tensor<2x32xf32>,
    dense<[0.150014639, -0.112291597]> : tensor<2xf32>,
    dense<0> : vector<56xi8>,
]>
#encoding = #iree_encoding.layout<[#iree_cpu.cpu_encoding_resolver<configuration = {encoding_info = {innerDimsPos = [0, 1], innerTileSizes = [7, 1], outerDimsPerm = [0, 1]}}>]>
#encoding1 = #iree_encoding.layout<[#iree_cpu.cpu_encoding_resolver<configuration = {encoding_info = {innerDimsPos = [0], innerTileSizes = [7], outerDimsPerm = [0]}}>]>
#encoding2 = #iree_encoding.layout<[#iree_cpu.cpu_encoding_resolver<configuration = {encoding_info = {innerDimsPos = [0, 1], innerTileSizes = [2, 1], outerDimsPerm = [0, 1]}}>]>
#encoding3 = #iree_encoding.layout<[#iree_cpu.cpu_encoding_resolver<configuration = {encoding_info = {innerDimsPos = [0], innerTileSizes = [2], outerDimsPerm = [0]}}>]>
#encoding4 = #iree_encoding.layout<[#iree_cpu.cpu_encoding_resolver<configuration = {encoding_info = {innerDimsPos = [0, 1], innerTileSizes = [32, 1], outerDimsPerm = [0, 1]}}>]>
#executable_target_embedded_elf_riscv_64 = #hal.executable.target<"llvm-cpu", "embedded-elf-riscv_64", {cpu = "", cpu_features = "+m,+a,+f,+d,+c,+v,+zvl256b,+zfh,+zba,+zbb,+zbc,+zbs,+zicbom,+zicboz,+zicbop,+zihintpause", data_layout = "e-m:e-p:64:64-i64:64-i128:128-n32:64-S128", iree.encoding.resolver = #iree_cpu.cpu_encoding_resolver<>, loop_vectorization = true, max_stack_allocation_size = 32768 : i64, native_vector_size = 32 : i64, target_abi = "lp64d", target_triple = "riscv64-unknown-unknown-eabi-elf", ukernels = "all"}>
#map = affine_map<(d0, d1, d2) -> (d0, d2)>
#map1 = affine_map<(d0, d1, d2) -> (d1, d2)>
#map2 = affine_map<(d0, d1, d2) -> (d0, d1)>
#map3 = affine_map<(d0, d1) -> (d1)>
#map4 = affine_map<(d0, d1) -> (d0, d1)>
#device_target_local = #hal.device.target<"local", [#executable_target_embedded_elf_riscv_64]> : !hal.device
#encoding5 = #iree_encoding.encoding<operand_index = 0 : index, op_type =  matmul, element_types = [f32, f32, f32], user_indexing_maps = [#map, #map1, #map2], iteration_sizes = [?, 32, 10]>
#encoding6 = #iree_encoding.encoding<operand_index = 1 : index, op_type =  matmul, element_types = [f32, f32, f32], user_indexing_maps = [#map, #map1, #map2], iteration_sizes = [?, 32, 10]>
#encoding7 = #iree_encoding.encoding<operand_index = 2 : index, op_type =  matmul, element_types = [f32, f32, f32], user_indexing_maps = [#map, #map1, #map2], iteration_sizes = [?, 32, 10]>
#encoding8 = #iree_encoding.encoding<operand_index = 0 : index, op_type =  matmul, element_types = [f32, f32, f32], user_indexing_maps = [#map, #map1, #map2], iteration_sizes = [?, 32, 32]>
#encoding9 = #iree_encoding.encoding<operand_index = 1 : index, op_type =  matmul, element_types = [f32, f32, f32], user_indexing_maps = [#map, #map1, #map2], iteration_sizes = [?, 32, 32]>
#encoding10 = #iree_encoding.encoding<operand_index = 2 : index, op_type =  matmul, element_types = [f32, f32, f32], user_indexing_maps = [#map, #map1, #map2], iteration_sizes = [?, 32, 32]>
#encoding11 = #iree_encoding.encoding<operand_index = 0 : index, op_type =  matmul, element_types = [f32, f32, f32], user_indexing_maps = [#map, #map1, #map2], iteration_sizes = [?, 2, 32]>
#encoding12 = #iree_encoding.encoding<operand_index = 1 : index, op_type =  matmul, element_types = [f32, f32, f32], user_indexing_maps = [#map, #map1, #map2], iteration_sizes = [?, 2, 32]>
#encoding13 = #iree_encoding.encoding<operand_index = 2 : index, op_type =  matmul, element_types = [f32, f32, f32], user_indexing_maps = [#map, #map1, #map2], iteration_sizes = [?, 2, 32]>
#encoding14 = #iree_encoding.encoding<operand_index = 2 : index, op_type =  matmul, element_types = [f32, f32, f32], user_indexing_maps = [#map, #map1, [#map2, #map3]], iteration_sizes = [?, 32, 10]>
#encoding15 = #iree_encoding.encoding<operand_index = 2 : index, op_type =  matmul, element_types = [f32, f32, f32], user_indexing_maps = [#map, #map1, [#map2, #map3]], iteration_sizes = [?, 32, 32]>
#encoding16 = #iree_encoding.encoding<operand_index = 2 : index, op_type =  matmul, element_types = [f32, f32, f32], user_indexing_maps = [#map, #map1, [#map2, #map3]], iteration_sizes = [?, 2, 32]>
module attributes {stream.affinity.default = #hal.device.affinity<@__device_0>} {
  util.global private @__device_0 = #device_target_local
  util.global private @__hoisted_tensor_32x10xf32__encoded : !stream.resource<constant>
  stream.executable private @_encoding_0 {
    stream.executable.export public @_encoding_0_encode_32x10xf32_to_32x10xf32 workgroups() -> (index, index, index) {
      %x, %y, %z = iree_tensor_ext.dispatch.workgroup_count_from_slice()
      stream.return %x, %y, %z : index, index, index
    }
    builtin.module {
      func.func @_encoding_0_encode_32x10xf32_to_32x10xf32(%arg0: !stream.binding {stream.alignment = 64 : index}, %arg1: !stream.binding {stream.alignment = 64 : index}) {
        %c0 = arith.constant 0 : index
        %0 = stream.binding.subspan %arg0[%c0] : !stream.binding -> !iree_tensor_ext.dispatch.tensor<readonly:tensor<32x10xf32>>
        %1 = stream.binding.subspan %arg1[%c0] : !stream.binding -> !iree_tensor_ext.dispatch.tensor<writeonly:tensor<32x10xf32, #encoding>>
        %2 = iree_tensor_ext.dispatch.tensor.load %0, offsets = [0, 0], sizes = [32, 10], strides = [1, 1] : !iree_tensor_ext.dispatch.tensor<readonly:tensor<32x10xf32>> -> tensor<32x10xf32>
        %3 = iree_encoding.set_encoding %2 : tensor<32x10xf32> -> tensor<32x10xf32, #encoding>
        iree_tensor_ext.dispatch.tensor.store %3, %1, offsets = [0, 0], sizes = [32, 10], strides = [1, 1] : tensor<32x10xf32, #encoding> -> !iree_tensor_ext.dispatch.tensor<writeonly:tensor<32x10xf32, #encoding>>
        return
      }
    }
  }
  stream.executable private @_encoding_1 {
    stream.executable.export public @_encoding_1_encode_32xf32_to_32xf32 workgroups() -> (index, index, index) {
      %x, %y, %z = iree_tensor_ext.dispatch.workgroup_count_from_slice()
      stream.return %x, %y, %z : index, index, index
    }
    builtin.module {
      func.func @_encoding_1_encode_32xf32_to_32xf32(%arg0: !stream.binding {stream.alignment = 64 : index}, %arg1: !stream.binding {stream.alignment = 64 : index}, %arg2: i32, %arg3: i32) {
        %0 = arith.index_castui %arg2 : i32 to index
        %1 = arith.index_castui %arg3 : i32 to index
        %2:2 = util.assume.int 
            %0[<umin = 1280, umax = 1280, udiv = 1280>, <umin = 5504, umax = 5504, udiv = 5504>], 
            %1[<umin = 1408, umax = 1408, udiv = 1408>, <umin = 6080, umax = 6080, udiv = 6080>]
          : index, index
        %3 = stream.binding.subspan %arg0[%2#0] : !stream.binding -> !iree_tensor_ext.dispatch.tensor<readonly:tensor<32xf32>>
        %4 = stream.binding.subspan %arg1[%2#1] : !stream.binding -> !iree_tensor_ext.dispatch.tensor<writeonly:tensor<32xf32, #encoding1>>
        %5 = iree_tensor_ext.dispatch.tensor.load %3, offsets = [0], sizes = [32], strides = [1] : !iree_tensor_ext.dispatch.tensor<readonly:tensor<32xf32>> -> tensor<32xf32>
        %6 = iree_encoding.set_encoding %5 : tensor<32xf32> -> tensor<32xf32, #encoding1>
        iree_tensor_ext.dispatch.tensor.store %6, %4, offsets = [0], sizes = [32], strides = [1] : tensor<32xf32, #encoding1> -> !iree_tensor_ext.dispatch.tensor<writeonly:tensor<32xf32, #encoding1>>
        return
      }
    }
  }
  stream.executable private @_encoding_2 {
    stream.executable.export public @_encoding_2_encode_32x32xf32_to_32x32xf32 workgroups() -> (index, index, index) {
      %x, %y, %z = iree_tensor_ext.dispatch.workgroup_count_from_slice()
      stream.return %x, %y, %z : index, index, index
    }
    builtin.module {
      func.func @_encoding_2_encode_32x32xf32_to_32x32xf32(%arg0: !stream.binding {stream.alignment = 64 : index}, %arg1: !stream.binding {stream.alignment = 64 : index}) {
        %c1408 = arith.constant 1408 : index
        %c1600 = arith.constant 1600 : index
        %0 = stream.binding.subspan %arg0[%c1408] : !stream.binding -> !iree_tensor_ext.dispatch.tensor<readonly:tensor<32x32xf32>>
        %1 = stream.binding.subspan %arg1[%c1600] : !stream.binding -> !iree_tensor_ext.dispatch.tensor<writeonly:tensor<32x32xf32, #encoding>>
        %2 = iree_tensor_ext.dispatch.tensor.load %0, offsets = [0, 0], sizes = [32, 32], strides = [1, 1] : !iree_tensor_ext.dispatch.tensor<readonly:tensor<32x32xf32>> -> tensor<32x32xf32>
        %3 = iree_encoding.set_encoding %2 : tensor<32x32xf32> -> tensor<32x32xf32, #encoding>
        iree_tensor_ext.dispatch.tensor.store %3, %1, offsets = [0, 0], sizes = [32, 32], strides = [1, 1] : tensor<32x32xf32, #encoding> -> !iree_tensor_ext.dispatch.tensor<writeonly:tensor<32x32xf32, #encoding>>
        return
      }
    }
  }
  stream.executable private @_encoding_3 {
    stream.executable.export public @_encoding_3_encode_2x32xf32_to_2x32xf32 workgroups() -> (index, index, index) {
      %x, %y, %z = iree_tensor_ext.dispatch.workgroup_count_from_slice()
      stream.return %x, %y, %z : index, index, index
    }
    builtin.module {
      func.func @_encoding_3_encode_2x32xf32_to_2x32xf32(%arg0: !stream.binding {stream.alignment = 64 : index}, %arg1: !stream.binding {stream.alignment = 64 : index}) {
        %c5632 = arith.constant 5632 : index
        %c6272 = arith.constant 6272 : index
        %0 = stream.binding.subspan %arg0[%c5632] : !stream.binding -> !iree_tensor_ext.dispatch.tensor<readonly:tensor<2x32xf32>>
        %1 = stream.binding.subspan %arg1[%c6272] : !stream.binding -> !iree_tensor_ext.dispatch.tensor<writeonly:tensor<2x32xf32, #encoding2>>
        %2 = iree_tensor_ext.dispatch.tensor.load %0, offsets = [0, 0], sizes = [2, 32], strides = [1, 1] : !iree_tensor_ext.dispatch.tensor<readonly:tensor<2x32xf32>> -> tensor<2x32xf32>
        %3 = iree_encoding.set_encoding %2 : tensor<2x32xf32> -> tensor<2x32xf32, #encoding2>
        iree_tensor_ext.dispatch.tensor.store %3, %1, offsets = [0, 0], sizes = [2, 32], strides = [1, 1] : tensor<2x32xf32, #encoding2> -> !iree_tensor_ext.dispatch.tensor<writeonly:tensor<2x32xf32, #encoding2>>
        return
      }
    }
  }
  stream.executable private @_encoding_4 {
    stream.executable.export public @_encoding_4_encode_2xf32_to_2xf32 workgroups() -> (index, index, index) {
      %x, %y, %z = iree_tensor_ext.dispatch.workgroup_count_from_slice()
      stream.return %x, %y, %z : index, index, index
    }
    builtin.module {
      func.func @_encoding_4_encode_2xf32_to_2xf32(%arg0: !stream.binding {stream.alignment = 64 : index}, %arg1: !stream.binding {stream.alignment = 64 : index}) {
        %c5888 = arith.constant 5888 : index
        %c6528 = arith.constant 6528 : index
        %0 = stream.binding.subspan %arg0[%c5888] : !stream.binding -> !iree_tensor_ext.dispatch.tensor<readonly:tensor<2xf32>>
        %1 = stream.binding.subspan %arg1[%c6528] : !stream.binding -> !iree_tensor_ext.dispatch.tensor<writeonly:tensor<2xf32, #encoding3>>
        %2 = iree_tensor_ext.dispatch.tensor.load %0, offsets = [0], sizes = [2], strides = [1] : !iree_tensor_ext.dispatch.tensor<readonly:tensor<2xf32>> -> tensor<2xf32>
        %3 = iree_encoding.set_encoding %2 : tensor<2xf32> -> tensor<2xf32, #encoding3>
        iree_tensor_ext.dispatch.tensor.store %3, %1, offsets = [0], sizes = [2], strides = [1] : tensor<2xf32, #encoding3> -> !iree_tensor_ext.dispatch.tensor<writeonly:tensor<2xf32, #encoding3>>
        return
      }
    }
  }
  util.initializer {
    %c6080_i32 = arith.constant 6080 : i32
    %c5504_i32 = arith.constant 5504 : i32
    %c1408_i32 = arith.constant 1408 : i32
    %c1280_i32 = arith.constant 1280 : i32
    %c0 = arith.constant 0 : index
    %c6592 = arith.constant 6592 : index
    %c0_i64 = arith.constant 0 : i64
    %c5952 = arith.constant 5952 : index
    %0 = stream.timepoint.immediate => !stream.timepoint
    %buffer_cst = util.buffer.constant {alignment = 64 : index} : !util.buffer = #composite_of_5952b
    %did_map, %result = stream.resource.try_map on(#hal.device.affinity<@__device_0>) %buffer_cst[%c0] : !util.buffer -> i1, !stream.resource<constant>{%c5952}
    cf.cond_br %did_map, ^bb2(%0, %result : !stream.timepoint, !stream.resource<constant>), ^bb1
  ^bb1:  // pred: ^bb0
    %1 = stream.resource.alloc uninitialized on(#hal.device.affinity<@__device_0>) : !stream.resource<constant>{%c5952}
    %file = stream.file.constant on(#hal.device.affinity<@__device_0>) %buffer_cst[%c0 for %c5952] : !util.buffer{%c5952} -> !stream.file
    %2 = stream.file.read on(#hal.device.affinity<@__device_0>) await(%0) => %file[%c0_i64], %1[%c0], %c5952 : !stream.file -> !stream.resource<constant>{%c5952} => !stream.timepoint
    cf.br ^bb2(%2, %1 : !stream.timepoint, !stream.resource<constant>)
  ^bb2(%3: !stream.timepoint, %4: !stream.resource<constant>):  // 2 preds: ^bb0, ^bb1
    %result_0, %result_timepoint = stream.resource.alloca uninitialized on(#hal.device.affinity<@__device_0>) : !stream.resource<constant>{%c6592} => !stream.timepoint
    %5 = stream.timepoint.join max(%3, %result_timepoint) => !stream.timepoint
    %6 = stream.cmd.execute once on(#hal.device.affinity<@__device_0>) await(%5) => with(%4 as %arg0: !stream.resource<constant>{%c5952}, %result_0 as %arg1: !stream.resource<constant>{%c6592}) {
      stream.cmd.concurrent {
        stream.cmd.dispatch @_encoding_0::@_encoding_0_encode_32x10xf32_to_32x10xf32 {
          ro %arg0[%c0 for %c5952] : !stream.resource<constant>{%c5952},
          wo %arg1[%c0 for %c6592] : !stream.resource<constant>{%c6592}
        }
        stream.cmd.dispatch @_encoding_1::@_encoding_1_encode_32xf32_to_32xf32(%c1280_i32, %c1408_i32 : i32, i32) {
          ro %arg0[%c0 for %c5952] : !stream.resource<constant>{%c5952},
          wo %arg1[%c0 for %c6592] : !stream.resource<constant>{%c6592}
        }
        stream.cmd.dispatch @_encoding_2::@_encoding_2_encode_32x32xf32_to_32x32xf32 {
          ro %arg0[%c0 for %c5952] : !stream.resource<constant>{%c5952},
          wo %arg1[%c0 for %c6592] : !stream.resource<constant>{%c6592}
        }
        stream.cmd.dispatch @_encoding_1::@_encoding_1_encode_32xf32_to_32xf32(%c5504_i32, %c6080_i32 : i32, i32) {
          ro %arg0[%c0 for %c5952] : !stream.resource<constant>{%c5952},
          wo %arg1[%c0 for %c6592] : !stream.resource<constant>{%c6592}
        }
        stream.cmd.dispatch @_encoding_3::@_encoding_3_encode_2x32xf32_to_2x32xf32 {
          ro %arg0[%c0 for %c5952] : !stream.resource<constant>{%c5952},
          wo %arg1[%c0 for %c6592] : !stream.resource<constant>{%c6592}
        }
        stream.cmd.dispatch @_encoding_4::@_encoding_4_encode_2xf32_to_2xf32 {
          ro %arg0[%c0 for %c5952] : !stream.resource<constant>{%c5952},
          wo %arg1[%c0 for %c6592] : !stream.resource<constant>{%c6592}
        }
      }
    } => !stream.timepoint
    %7 = stream.timepoint.await sync %6 => %result_0 : !stream.resource<constant>{%c6592}
    util.global.store %7, @__hoisted_tensor_32x10xf32__encoded : !stream.resource<constant>
    util.return
  }
  stream.executable private @main_graph$async_dispatch_0 {
    stream.executable.export public @main_graph$async_dispatch_0_matmul_like_Dx32x10_f32 workgroups(%arg0: index) -> (index, index, index) {
      %x, %y, %z = iree_tensor_ext.dispatch.workgroup_count_from_slice(%arg0)
      stream.return %x, %y, %z : index, index, index
    }
    builtin.module {
      func.func @main_graph$async_dispatch_0_matmul_like_Dx32x10_f32(%arg0: !stream.binding {stream.alignment = 64 : index}, %arg1: !stream.binding {stream.alignment = 64 : index}, %arg2: !stream.binding {stream.alignment = 64 : index}, %arg3: i32, %arg4: i32, %arg5: i32, %arg6: i32) {
        %c1408 = arith.constant 1408 : index
        %c0 = arith.constant 0 : index
        %cst = arith.constant 0.000000e+00 : f32
        %c32_i64 = arith.constant 32 : i64
        %0 = arith.extui %arg4 : i32 to i64
        %1 = arith.shli %0, %c32_i64 : i64
        %2 = arith.extui %arg3 : i32 to i64
        %3 = arith.ori %2, %1 : i64
        %4 = arith.index_castui %3 : i64 to index
        %5 = arith.extui %arg6 : i32 to i64
        %6 = arith.shli %5, %c32_i64 : i64
        %7 = arith.extui %arg5 : i32 to i64
        %8 = arith.ori %7, %6 : i64
        %9 = arith.index_castui %8 : i64 to index
        %10:2 = util.assume.int 
            %4<umin = 0, umax = 360287970189639680, udiv = 1280>, 
            %9<umin = 0, umax = 9007199254740991>
          : index, index
        %11 = stream.binding.subspan %arg1[%c0] : !stream.binding -> !iree_tensor_ext.dispatch.tensor<readonly:tensor<32x10xf32, #encoding>>
        %12 = stream.binding.subspan %arg1[%c1408] : !stream.binding -> !iree_tensor_ext.dispatch.tensor<readonly:tensor<32xf32, #encoding1>>
        %13 = iree_tensor_ext.dispatch.workload.ordinal %10#1, 0 : index
        %14 = stream.binding.subspan %arg0[%c0] : !stream.binding -> !iree_tensor_ext.dispatch.tensor<readonly:tensor<?x10xf32, #encoding4>>{%13}
        %15 = stream.binding.subspan %arg2[%10#0] : !stream.binding -> !iree_tensor_ext.dispatch.tensor<writeonly:tensor<?x32xf32, #encoding4>>{%13}
        %16 = iree_tensor_ext.dispatch.tensor.load %14, offsets = [0, 0], sizes = [%13, 10], strides = [1, 1] : !iree_tensor_ext.dispatch.tensor<readonly:tensor<?x10xf32, #encoding4>>{%13} -> tensor<?x10xf32, #encoding5>
        %17 = iree_tensor_ext.dispatch.tensor.load %11, offsets = [0, 0], sizes = [32, 10], strides = [1, 1] : !iree_tensor_ext.dispatch.tensor<readonly:tensor<32x10xf32, #encoding>> -> tensor<32x10xf32, #encoding6>
        %18 = iree_tensor_ext.dispatch.tensor.load %12, offsets = [0], sizes = [32], strides = [1] : !iree_tensor_ext.dispatch.tensor<readonly:tensor<32xf32, #encoding1>> -> tensor<32xf32, #encoding14>
        %19 = tensor.empty(%13) : tensor<?x32xf32, #encoding7>
        %20 = linalg.fill ins(%cst : f32) outs(%19 : tensor<?x32xf32, #encoding7>) -> tensor<?x32xf32, #encoding7>
        %21 = linalg.generic {indexing_maps = [#map, #map1, #map2], iterator_types = ["parallel", "parallel", "reduction"]} ins(%16, %17 : tensor<?x10xf32, #encoding5>, tensor<32x10xf32, #encoding6>) outs(%20 : tensor<?x32xf32, #encoding7>) {
        ^bb0(%in: f32, %in_0: f32, %out: f32):
          %25 = arith.mulf %in, %in_0 : f32
          %26 = arith.addf %out, %25 : f32
          linalg.yield %26 : f32
        } -> tensor<?x32xf32, #encoding7>
        %22 = linalg.generic {indexing_maps = [#map4, #map3, #map4], iterator_types = ["parallel", "parallel"]} ins(%21, %18 : tensor<?x32xf32, #encoding7>, tensor<32xf32, #encoding14>) outs(%19 : tensor<?x32xf32, #encoding7>) {
        ^bb0(%in: f32, %in_0: f32, %out: f32):
          %25 = arith.addf %in, %in_0 : f32
          %26 = arith.cmpf ugt, %25, %cst : f32
          %27 = arith.select %26, %25, %cst : f32
          linalg.yield %27 : f32
        } -> tensor<?x32xf32, #encoding7>
        %23 = iree_encoding.unset_encoding %22 : tensor<?x32xf32, #encoding7> -> tensor<?x32xf32>{%13}
        %24 = iree_encoding.set_encoding %23 : tensor<?x32xf32> -> tensor<?x32xf32, #encoding8>
        iree_tensor_ext.dispatch.tensor.store %24, %15, offsets = [0, 0], sizes = [%13, 32], strides = [1, 1] : tensor<?x32xf32, #encoding8> -> !iree_tensor_ext.dispatch.tensor<writeonly:tensor<?x32xf32, #encoding4>>{%13}
        return
      }
    }
  }
  stream.executable private @main_graph$async_dispatch_1 {
    stream.executable.export public @main_graph$async_dispatch_1_matmul_like_Dx32x32_f32 workgroups(%arg0: index) -> (index, index, index) {
      %x, %y, %z = iree_tensor_ext.dispatch.workgroup_count_from_slice(%arg0)
      stream.return %x, %y, %z : index, index, index
    }
    builtin.module {
      func.func @main_graph$async_dispatch_1_matmul_like_Dx32x32_f32(%arg0: !stream.binding {stream.alignment = 64 : index}, %arg1: !stream.binding {stream.alignment = 64 : index}, %arg2: !stream.binding {stream.alignment = 64 : index}, %arg3: i32, %arg4: i32, %arg5: i32, %arg6: i32, %arg7: i32, %arg8: i32) {
        %c6080 = arith.constant 6080 : index
        %c1600 = arith.constant 1600 : index
        %cst = arith.constant 0.000000e+00 : f32
        %c32_i64 = arith.constant 32 : i64
        %0 = arith.extui %arg4 : i32 to i64
        %1 = arith.shli %0, %c32_i64 : i64
        %2 = arith.extui %arg3 : i32 to i64
        %3 = arith.ori %2, %1 : i64
        %4 = arith.index_castui %3 : i64 to index
        %5 = arith.extui %arg6 : i32 to i64
        %6 = arith.shli %5, %c32_i64 : i64
        %7 = arith.extui %arg5 : i32 to i64
        %8 = arith.ori %7, %6 : i64
        %9 = arith.index_castui %8 : i64 to index
        %10 = arith.extui %arg8 : i32 to i64
        %11 = arith.shli %10, %c32_i64 : i64
        %12 = arith.extui %arg7 : i32 to i64
        %13 = arith.ori %12, %11 : i64
        %14 = arith.index_castui %13 : i64 to index
        %15:3 = util.assume.int 
            %4<umin = 0, umax = 360287970189639680, udiv = 1280>, 
            %9<umin = 0, umax = 1513209474796486656>, 
            %14<umin = 0, umax = 9007199254740991>
          : index, index, index
        %16 = stream.binding.subspan %arg1[%c1600] : !stream.binding -> !iree_tensor_ext.dispatch.tensor<readonly:tensor<32x32xf32, #encoding>>
        %17 = stream.binding.subspan %arg1[%c6080] : !stream.binding -> !iree_tensor_ext.dispatch.tensor<readonly:tensor<32xf32, #encoding1>>
        %18 = iree_tensor_ext.dispatch.workload.ordinal %15#2, 0 : index
        %19 = stream.binding.subspan %arg0[%15#0] : !stream.binding -> !iree_tensor_ext.dispatch.tensor<readonly:tensor<?x32xf32, #encoding4>>{%18}
        %20 = stream.binding.subspan %arg2[%15#1] : !stream.binding -> !iree_tensor_ext.dispatch.tensor<writeonly:tensor<?x32xf32, #encoding4>>{%18}
        %21 = iree_tensor_ext.dispatch.tensor.load %19, offsets = [0, 0], sizes = [%18, 32], strides = [1, 1] : !iree_tensor_ext.dispatch.tensor<readonly:tensor<?x32xf32, #encoding4>>{%18} -> tensor<?x32xf32, #encoding8>
        %22 = iree_tensor_ext.dispatch.tensor.load %16, offsets = [0, 0], sizes = [32, 32], strides = [1, 1] : !iree_tensor_ext.dispatch.tensor<readonly:tensor<32x32xf32, #encoding>> -> tensor<32x32xf32, #encoding9>
        %23 = iree_tensor_ext.dispatch.tensor.load %17, offsets = [0], sizes = [32], strides = [1] : !iree_tensor_ext.dispatch.tensor<readonly:tensor<32xf32, #encoding1>> -> tensor<32xf32, #encoding15>
        %24 = tensor.empty(%18) : tensor<?x32xf32, #encoding10>
        %25 = linalg.fill ins(%cst : f32) outs(%24 : tensor<?x32xf32, #encoding10>) -> tensor<?x32xf32, #encoding10>
        %26 = linalg.generic {indexing_maps = [#map, #map1, #map2], iterator_types = ["parallel", "parallel", "reduction"]} ins(%21, %22 : tensor<?x32xf32, #encoding8>, tensor<32x32xf32, #encoding9>) outs(%25 : tensor<?x32xf32, #encoding10>) {
        ^bb0(%in: f32, %in_0: f32, %out: f32):
          %30 = arith.mulf %in, %in_0 : f32
          %31 = arith.addf %out, %30 : f32
          linalg.yield %31 : f32
        } -> tensor<?x32xf32, #encoding10>
        %27 = linalg.generic {indexing_maps = [#map4, #map3, #map4], iterator_types = ["parallel", "parallel"]} ins(%26, %23 : tensor<?x32xf32, #encoding10>, tensor<32xf32, #encoding15>) outs(%24 : tensor<?x32xf32, #encoding10>) {
        ^bb0(%in: f32, %in_0: f32, %out: f32):
          %30 = arith.addf %in, %in_0 : f32
          %31 = arith.cmpf ugt, %30, %cst : f32
          %32 = arith.select %31, %30, %cst : f32
          linalg.yield %32 : f32
        } -> tensor<?x32xf32, #encoding10>
        %28 = iree_encoding.unset_encoding %27 : tensor<?x32xf32, #encoding10> -> tensor<?x32xf32>{%18}
        %29 = iree_encoding.set_encoding %28 : tensor<?x32xf32> -> tensor<?x32xf32, #encoding11>
        iree_tensor_ext.dispatch.tensor.store %29, %20, offsets = [0, 0], sizes = [%18, 32], strides = [1, 1] : tensor<?x32xf32, #encoding11> -> !iree_tensor_ext.dispatch.tensor<writeonly:tensor<?x32xf32, #encoding4>>{%18}
        return
      }
    }
  }
  stream.executable private @main_graph$async_dispatch_2 {
    stream.executable.export public @main_graph$async_dispatch_2_matmul_like_Dx2x32_f32 workgroups(%arg0: index) -> (index, index, index) {
      %x, %y, %z = iree_tensor_ext.dispatch.workgroup_count_from_slice(%arg0)
      stream.return %x, %y, %z : index, index, index
    }
    builtin.module {
      func.func @main_graph$async_dispatch_2_matmul_like_Dx2x32_f32(%arg0: !stream.binding {stream.alignment = 64 : index}, %arg1: !stream.binding {stream.alignment = 64 : index}, %arg2: !stream.binding {stream.alignment = 64 : index}, %arg3: i32, %arg4: i32, %arg5: i32, %arg6: i32) {
        %c0 = arith.constant 0 : index
        %c6528 = arith.constant 6528 : index
        %c6272 = arith.constant 6272 : index
        %cst = arith.constant 0.000000e+00 : f32
        %c32_i64 = arith.constant 32 : i64
        %0 = arith.extui %arg4 : i32 to i64
        %1 = arith.shli %0, %c32_i64 : i64
        %2 = arith.extui %arg3 : i32 to i64
        %3 = arith.ori %2, %1 : i64
        %4 = arith.index_castui %3 : i64 to index
        %5 = arith.extui %arg6 : i32 to i64
        %6 = arith.shli %5, %c32_i64 : i64
        %7 = arith.extui %arg5 : i32 to i64
        %8 = arith.ori %7, %6 : i64
        %9 = arith.index_castui %8 : i64 to index
        %10:2 = util.assume.int 
            %4<umin = 0, umax = 1513209474796486656>, 
            %9<umin = 0, umax = 9007199254740991>
          : index, index
        %11 = stream.binding.subspan %arg1[%c6272] : !stream.binding -> !iree_tensor_ext.dispatch.tensor<readonly:tensor<2x32xf32, #encoding2>>
        %12 = stream.binding.subspan %arg1[%c6528] : !stream.binding -> !iree_tensor_ext.dispatch.tensor<readonly:tensor<2xf32, #encoding3>>
        %13 = iree_tensor_ext.dispatch.workload.ordinal %10#1, 0 : index
        %14 = stream.binding.subspan %arg0[%10#0] : !stream.binding -> !iree_tensor_ext.dispatch.tensor<readonly:tensor<?x32xf32, #encoding4>>{%13}
        %15 = stream.binding.subspan %arg2[%c0] : !stream.binding -> !iree_tensor_ext.dispatch.tensor<writeonly:tensor<?x2xf32>>{%13}
        %16 = iree_tensor_ext.dispatch.tensor.load %14, offsets = [0, 0], sizes = [%13, 32], strides = [1, 1] : !iree_tensor_ext.dispatch.tensor<readonly:tensor<?x32xf32, #encoding4>>{%13} -> tensor<?x32xf32, #encoding11>
        %17 = iree_tensor_ext.dispatch.tensor.load %11, offsets = [0, 0], sizes = [2, 32], strides = [1, 1] : !iree_tensor_ext.dispatch.tensor<readonly:tensor<2x32xf32, #encoding2>> -> tensor<2x32xf32, #encoding12>
        %18 = iree_tensor_ext.dispatch.tensor.load %12, offsets = [0], sizes = [2], strides = [1] : !iree_tensor_ext.dispatch.tensor<readonly:tensor<2xf32, #encoding3>> -> tensor<2xf32, #encoding16>
        %19 = tensor.empty(%13) : tensor<?x2xf32, #encoding13>
        %20 = linalg.fill ins(%cst : f32) outs(%19 : tensor<?x2xf32, #encoding13>) -> tensor<?x2xf32, #encoding13>
        %21 = linalg.generic {indexing_maps = [#map, #map1, #map2], iterator_types = ["parallel", "parallel", "reduction"]} ins(%16, %17 : tensor<?x32xf32, #encoding11>, tensor<2x32xf32, #encoding12>) outs(%20 : tensor<?x2xf32, #encoding13>) {
        ^bb0(%in: f32, %in_0: f32, %out: f32):
          %24 = arith.mulf %in, %in_0 : f32
          %25 = arith.addf %out, %24 : f32
          linalg.yield %25 : f32
        } -> tensor<?x2xf32, #encoding13>
        %22 = linalg.generic {indexing_maps = [#map4, #map3, #map4], iterator_types = ["parallel", "parallel"]} ins(%21, %18 : tensor<?x2xf32, #encoding13>, tensor<2xf32, #encoding16>) outs(%19 : tensor<?x2xf32, #encoding13>) {
        ^bb0(%in: f32, %in_0: f32, %out: f32):
          %24 = arith.addf %in, %in_0 : f32
          linalg.yield %24 : f32
        } -> tensor<?x2xf32, #encoding13>
        %23 = iree_encoding.unset_encoding %22 : tensor<?x2xf32, #encoding13> -> tensor<?x2xf32>{%13}
        iree_tensor_ext.dispatch.tensor.store %23, %15, offsets = [0, 0], sizes = [%13, 2], strides = [1, 1] : tensor<?x2xf32> -> !iree_tensor_ext.dispatch.tensor<writeonly:tensor<?x2xf32>>{%13}
        return
      }
    }
  }
  stream.executable private @_encoding_5 {
    stream.executable.export public @_encoding_5_encode_Dx10xf32_to_Dx10xf32 workgroups(%arg0: index, %arg1: index) -> (index, index, index) {
      %x, %y, %z = iree_tensor_ext.dispatch.workgroup_count_from_slice(%arg0, %arg1)
      stream.return %x, %y, %z : index, index, index
    }
    builtin.module {
      func.func @_encoding_5_encode_Dx10xf32_to_Dx10xf32(%arg0: !stream.binding {stream.alignment = 64 : index}, %arg1: !stream.binding {stream.alignment = 64 : index}, %arg2: i32, %arg3: i32) {
        %c0 = arith.constant 0 : index
        %c32_i64 = arith.constant 32 : i64
        %0 = arith.extui %arg3 : i32 to i64
        %1 = arith.shli %0, %c32_i64 : i64
        %2 = arith.extui %arg2 : i32 to i64
        %3 = arith.ori %2, %1 : i64
        %4 = arith.index_castui %3 : i64 to index
        %5 = arith.extui %arg3 : i32 to i64
        %6 = arith.shli %5, %c32_i64 : i64
        %7 = arith.extui %arg2 : i32 to i64
        %8 = arith.ori %7, %6 : i64
        %9 = arith.index_castui %8 : i64 to index
        %10:2 = util.assume.int 
            %4<umin = 0, umax = 9007199254740991>, 
            %9<umin = 0, umax = 9007199254740991>
          : index, index
        %11 = iree_tensor_ext.dispatch.workload.ordinal %10#0, 0 : index
        %12 = iree_tensor_ext.dispatch.workload.ordinal %10#1, 1 : index
        %13 = stream.binding.subspan %arg0[%c0] : !stream.binding -> !iree_tensor_ext.dispatch.tensor<readonly:tensor<?x10xf32>>{%11}
        %14 = stream.binding.subspan %arg1[%c0] : !stream.binding -> !iree_tensor_ext.dispatch.tensor<writeonly:tensor<?x10xf32, #encoding4>>{%12}
        %15 = iree_tensor_ext.dispatch.tensor.load %13, offsets = [0, 0], sizes = [%11, 10], strides = [1, 1] : !iree_tensor_ext.dispatch.tensor<readonly:tensor<?x10xf32>>{%11} -> tensor<?x10xf32>
        %16 = iree_encoding.set_encoding %15 : tensor<?x10xf32> -> tensor<?x10xf32, #encoding4>
        iree_tensor_ext.dispatch.tensor.store %16, %14, offsets = [0, 0], sizes = [%12, 10], strides = [1, 1] : tensor<?x10xf32, #encoding4> -> !iree_tensor_ext.dispatch.tensor<writeonly:tensor<?x10xf32, #encoding4>>{%12}
        return
      }
    }
  }
  util.func public @main_graph$async(%arg0: !hal.buffer_view, %arg1: !hal.fence, %arg2: !hal.fence) -> !hal.buffer_view attributes {inlining_policy = #util.inline.never, iree.abi.model = "coarse-fences", iree.abi.stub} {
    %c32_i64 = arith.constant 32 : i64
    %c4096 = arith.constant 4096 : index
    %c1280 = arith.constant 1280 : index
    %c8 = arith.constant 8 : index
    %c0 = arith.constant 0 : index
    %c32 = arith.constant 32 : index
    %c40 = arith.constant 40 : index
    %c10 = arith.constant 10 : index
    %c6592 = arith.constant 6592 : index
    %__hoisted_tensor_32x10xf32__encoded = util.global.load immutable @__hoisted_tensor_32x10xf32__encoded : !stream.resource<constant>
    %0 = hal.buffer_view.dim<%arg0 : !hal.buffer_view>[0] : index
    %element_type_f32 = hal.element_type<f32> : i32
    %dense_row_major = hal.encoding_type<dense_row_major> : i32
    hal.buffer_view.assert<%arg0 : !hal.buffer_view> message("tensor") shape([%0, %c10]) type(%element_type_f32) encoding(%dense_row_major)
    %1 = arith.muli %0, %c40 : index
    %2 = stream.tensor.import on(#hal.device.affinity<@__device_0>) %arg0 : !hal.buffer_view -> tensor<?x10xf32>{%0} in !stream.resource<external>{%1}
    %3 = stream.timepoint.import on(#hal.device.affinity<@__device_0>) %arg1 : (!hal.fence) => !stream.timepoint
    %4 = arith.ceildivsi %0, %c32 : index
    %5 = arith.muli %4, %c1280 : index
    %6 = arith.muli %4, %c4096 : index
    %7 = arith.muli %0, %c8 : index
    %result, %result_timepoint = stream.resource.alloca uninitialized on(#hal.device.affinity<@__device_0>) await(%3) => !stream.resource<external>{%7} => !stream.timepoint
    %8 = arith.addi %5, %6 : index
    %9 = arith.addi %8, %6 : index
    %result_0, %result_timepoint_1 = stream.resource.alloca uninitialized on(#hal.device.affinity<@__device_0>) await(%3) => !stream.resource<transient>{%9} => !stream.timepoint
    %10 = stream.timepoint.join max(%result_timepoint, %result_timepoint_1) => !stream.timepoint
    %11 = arith.index_castui %0 : index to i64
    %12 = arith.index_castui %0 : index to i32
    %13 = arith.shrui %11, %c32_i64 : i64
    %14 = arith.trunci %13 : i64 to i32
    %15 = arith.index_castui %5 : index to i64
    %16 = arith.index_castui %5 : index to i32
    %17 = arith.shrui %15, %c32_i64 : i64
    %18 = arith.trunci %17 : i64 to i32
    %19 = arith.index_castui %8 : index to i64
    %20 = arith.index_castui %8 : index to i32
    %21 = arith.shrui %19, %c32_i64 : i64
    %22 = arith.trunci %21 : i64 to i32
    %23 = stream.cmd.execute on(#hal.device.affinity<@__device_0>) await(%10) => with(%2 as %arg3: !stream.resource<external>{%1}, %__hoisted_tensor_32x10xf32__encoded as %arg4: !stream.resource<constant>{%c6592}, %result as %arg5: !stream.resource<external>{%7}, %result_0 as %arg6: !stream.resource<transient>{%9}) {
      stream.cmd.dispatch @_encoding_5::@_encoding_5_encode_Dx10xf32_to_Dx10xf32[%0, %0](%12, %14 : i32, i32) {
        ro %arg3[%c0 for %1] : !stream.resource<external>{%1},
        wo %arg6[%c0 for %9] : !stream.resource<transient>{%9}
      }
      stream.cmd.dispatch @main_graph$async_dispatch_0::@main_graph$async_dispatch_0_matmul_like_Dx32x10_f32[%0](%16, %18, %12, %14 : i32, i32, i32, i32) {
        ro %arg6[%c0 for %9] : !stream.resource<transient>{%9},
        ro %arg4[%c0 for %c6592] : !stream.resource<constant>{%c6592},
        wo %arg6[%c0 for %9] : !stream.resource<transient>{%9}
      }
      stream.cmd.dispatch @main_graph$async_dispatch_1::@main_graph$async_dispatch_1_matmul_like_Dx32x32_f32[%0](%16, %18, %20, %22, %12, %14 : i32, i32, i32, i32, i32, i32) {
        ro %arg6[%c0 for %9] : !stream.resource<transient>{%9},
        ro %arg4[%c0 for %c6592] : !stream.resource<constant>{%c6592},
        wo %arg6[%c0 for %9] : !stream.resource<transient>{%9}
      }
      stream.cmd.dispatch @main_graph$async_dispatch_2::@main_graph$async_dispatch_2_matmul_like_Dx2x32_f32[%0](%20, %22, %12, %14 : i32, i32, i32, i32) {
        ro %arg6[%c0 for %9] : !stream.resource<transient>{%9},
        ro %arg4[%c0 for %c6592] : !stream.resource<constant>{%c6592},
        wo %arg5[%c0 for %7] : !stream.resource<external>{%7}
      }
    } => !stream.timepoint
    %24 = stream.resource.dealloca on(#hal.device.affinity<@__device_0>) await(%23) => %result_0 : !stream.resource<transient>{%9} => !stream.timepoint
    stream.timepoint.chain_external on(#hal.device.affinity<@__device_0>) %24 => (%arg2 : !hal.fence)
    %25 = stream.tensor.export on(#hal.device.affinity<@__device_0>) %result : tensor<?x2xf32>{%0} in !stream.resource<external>{%7} -> !hal.buffer_view
    util.return %25 : !hal.buffer_view
  }
  util.func public @main_graph(%arg0: !hal.buffer_view) -> !hal.buffer_view attributes {iree.abi.stub} {
    %0 = util.null : !hal.fence
    %c-1_i32 = arith.constant -1 : i32
    %c0 = arith.constant 0 : index
    %device_0 = hal.devices.get %c0 : !hal.device
    %fence = hal.fence.create device(%device_0 : !hal.device) flags("None") : !hal.fence
    %1 = util.call @main_graph$async(%arg0, %0, %fence) : (!hal.buffer_view, !hal.fence, !hal.fence) -> !hal.buffer_view
    %status = hal.fence.await until([%fence]) timeout_millis(%c-1_i32) flags("None") : i32
    util.return %1 : !hal.buffer_view
  }
}
