module {
  func.func @main_graph(%arg0: !torch.vtensor<[1,64,128],f32>) -> !torch.vtensor<[1,16],f32> attributes {torch.onnx_meta.ir_version = 10 : si64, torch.onnx_meta.opset_version = 17 : si64, torch.onnx_meta.producer_name = "onnx.quantize", torch.onnx_meta.producer_version = "0.1.0"} {
    %0 = torch.operator "onnx.Constant"() {torch.onnx.value = dense_resource<val_9> : tensor<4xsi64>} : () -> !torch.vtensor<[4],si64> 
    %1 = torch.operator "onnx.Constant"() {torch.onnx.value = dense_resource<val_10> : tensor<1xsi64>} : () -> !torch.vtensor<[1],si64> 
    %2 = torch.operator "onnx.Constant"() {torch.onnx.value = dense_resource<val_11> : tensor<1xsi64>} : () -> !torch.vtensor<[1],si64> 
    %3 = torch.operator "onnx.Constant"() {torch.onnx.value = dense_resource<val_12> : tensor<si64>} : () -> !torch.vtensor<[],si64> 
    %4 = torch.operator "onnx.Constant"() {torch.onnx.value = dense_resource<val_13> : tensor<si64>} : () -> !torch.vtensor<[],si64> 
    %5 = torch.operator "onnx.Constant"() {torch.onnx.value = dense_resource<val_14> : tensor<si64>} : () -> !torch.vtensor<[],si64> 
    %6 = torch.operator "onnx.Constant"() {torch.onnx.value = dense_resource<val_19> : tensor<3xsi64>} : () -> !torch.vtensor<[3],si64> 
    %7 = torch.operator "onnx.Constant"() {torch.onnx.value = dense_resource<val_35> : tensor<4xsi64>} : () -> !torch.vtensor<[4],si64> 
    %8 = torch.operator "onnx.Constant"() {torch.onnx.value = dense_resource<val_68> : tensor<4xsi64>} : () -> !torch.vtensor<[4],si64> 
    %9 = torch.operator "onnx.Constant"() {torch.onnx.value = dense_resource<val_80> : tensor<2xsi64>} : () -> !torch.vtensor<[2],si64> 
    %10 = torch.operator "onnx.Constant"() {torch.onnx.value = dense_resource<val_85> : tensor<3xsi64>} : () -> !torch.vtensor<[3],si64> 
    %11 = torch.operator "onnx.Constant"() {torch.onnx.value = dense_resource<val_90> : tensor<f32>} : () -> !torch.vtensor<[],f32> 
    %12 = torch.operator "onnx.Constant"() {torch.onnx.value = dense<0> : tensor<si8>} : () -> !torch.vtensor<[],si8> 
    %13 = torch.operator "onnx.Constant"() {torch.onnx.value = dense<0.0364557095> : tensor<f32>} : () -> !torch.vtensor<[],f32> 
    %14 = torch.operator "onnx.Constant"() {torch.onnx.value = dense<0> : tensor<si8>} : () -> !torch.vtensor<[],si8> 
    %15 = torch.operator "onnx.Constant"() {torch.onnx.value = dense<0.00787401571> : tensor<f32>} : () -> !torch.vtensor<[],f32> 
    %16 = torch.operator "onnx.Constant"() {torch.onnx.value = dense_resource<_blocks.0.norm1.weight_quantized> : tensor<128xsi8>} : () -> !torch.vtensor<[128],si8> 
    %17 = torch.operator "onnx.Constant"() {torch.onnx.value = dense<0> : tensor<si8>} : () -> !torch.vtensor<[],si8> 
    %18 = torch.operator "onnx.Constant"() {torch.onnx.value = dense<0.0366828069> : tensor<f32>} : () -> !torch.vtensor<[],f32> 
    %19 = torch.operator "onnx.Constant"() {torch.onnx.value = dense<0> : tensor<si8>} : () -> !torch.vtensor<[],si8> 
    %20 = torch.operator "onnx.Constant"() {torch.onnx.value = dense<8.52372788E-4> : tensor<f32>} : () -> !torch.vtensor<[],f32> 
    %21 = torch.operator "onnx.Constant"() {torch.onnx.value = dense_resource<val_2_quantized> : tensor<128x384xsi8>} : () -> !torch.vtensor<[128,384],si8> 
    %22 = torch.operator "onnx.Constant"() {torch.onnx.value = dense<0> : tensor<si8>} : () -> !torch.vtensor<[],si8> 
    %23 = torch.operator "onnx.Constant"() {torch.onnx.value = dense<0.026633231> : tensor<f32>} : () -> !torch.vtensor<[],f32> 
    %24 = torch.operator "onnx.Constant"() {torch.onnx.value = dense<0> : tensor<si8>} : () -> !torch.vtensor<[],si8> 
    %25 = torch.operator "onnx.Constant"() {torch.onnx.value = dense<1.000000e+00> : tensor<f32>} : () -> !torch.vtensor<[],f32> 
    %26 = torch.operator "onnx.Constant"() {torch.onnx.value = dense_resource<_blocks.0.attn.in_proj_bias_quantized> : tensor<384xsi8>} : () -> !torch.vtensor<[384],si8> 
    %27 = torch.operator "onnx.Constant"() {torch.onnx.value = dense<0> : tensor<si8>} : () -> !torch.vtensor<[],si8> 
    %28 = torch.operator "onnx.Constant"() {torch.onnx.value = dense<0.026633231> : tensor<f32>} : () -> !torch.vtensor<[],f32> 
    %29 = torch.operator "onnx.Constant"() {torch.onnx.value = dense<0> : tensor<si8>} : () -> !torch.vtensor<[],si8> 
    %30 = torch.operator "onnx.Constant"() {torch.onnx.value = dense<0.0033106159> : tensor<f32>} : () -> !torch.vtensor<[],f32> 
    %31 = torch.operator "onnx.Constant"() {torch.onnx.value = dense_resource<val_70_quantized> : tensor<1xsi8>} : () -> !torch.vtensor<[1],si8> 
    %32 = torch.operator "onnx.Constant"() {torch.onnx.value = dense<0> : tensor<si8>} : () -> !torch.vtensor<[],si8> 
    %33 = torch.operator "onnx.Constant"() {torch.onnx.value = dense<0.010875972> : tensor<f32>} : () -> !torch.vtensor<[],f32> 
    %34 = torch.operator "onnx.Constant"() {torch.onnx.value = dense<0> : tensor<si8>} : () -> !torch.vtensor<[],si8> 
    %35 = torch.operator "onnx.Constant"() {torch.onnx.value = dense<0.0109010451> : tensor<f32>} : () -> !torch.vtensor<[],f32> 
    %36 = torch.operator "onnx.Constant"() {torch.onnx.value = dense<0> : tensor<si8>} : () -> !torch.vtensor<[],si8> 
    %37 = torch.operator "onnx.Constant"() {torch.onnx.value = dense<0.023886973> : tensor<f32>} : () -> !torch.vtensor<[],f32> 
    %38 = torch.operator "onnx.Constant"() {torch.onnx.value = dense<0> : tensor<si8>} : () -> !torch.vtensor<[],si8> 
    %39 = torch.operator "onnx.Constant"() {torch.onnx.value = dense<0.00787401571> : tensor<f32>} : () -> !torch.vtensor<[],f32> 
    %40 = torch.operator "onnx.Constant"() {torch.onnx.value = dense<0> : tensor<si8>} : () -> !torch.vtensor<[],si8> 
    %41 = torch.operator "onnx.Constant"() {torch.onnx.value = dense<0.00422702637> : tensor<f32>} : () -> !torch.vtensor<[],f32> 
    %42 = torch.operator "onnx.Constant"() {torch.onnx.value = dense<0> : tensor<si8>} : () -> !torch.vtensor<[],si8> 
    %43 = torch.operator "onnx.Constant"() {torch.onnx.value = dense<0.00217603194> : tensor<f32>} : () -> !torch.vtensor<[],f32> 
    %44 = torch.operator "onnx.Constant"() {torch.onnx.value = dense<0> : tensor<si8>} : () -> !torch.vtensor<[],si8> 
    %45 = torch.operator "onnx.Constant"() {torch.onnx.value = dense<6.95934519E-4> : tensor<f32>} : () -> !torch.vtensor<[],f32> 
    %46 = torch.operator "onnx.Constant"() {torch.onnx.value = dense_resource<_blocks.0.attn.out_proj.weight_quantized> : tensor<128x128xsi8>} : () -> !torch.vtensor<[128,128],si8> 
    %47 = torch.operator "onnx.Constant"() {torch.onnx.value = dense<0> : tensor<si8>} : () -> !torch.vtensor<[],si8> 
    %48 = torch.operator "onnx.Constant"() {torch.onnx.value = dense<0.036462184> : tensor<f32>} : () -> !torch.vtensor<[],f32> 
    %49 = torch.operator "onnx.Constant"() {torch.onnx.value = dense<0> : tensor<si8>} : () -> !torch.vtensor<[],si8> 
    %50 = torch.operator "onnx.Constant"() {torch.onnx.value = dense<0.0368328504> : tensor<f32>} : () -> !torch.vtensor<[],f32> 
    %51 = torch.operator "onnx.Constant"() {torch.onnx.value = dense<0> : tensor<si8>} : () -> !torch.vtensor<[],si8> 
    %52 = torch.operator "onnx.Constant"() {torch.onnx.value = dense<6.95965195E-4> : tensor<f32>} : () -> !torch.vtensor<[],f32> 
    %53 = torch.operator "onnx.Constant"() {torch.onnx.value = dense_resource<val_88_quantized> : tensor<128x512xsi8>} : () -> !torch.vtensor<[128,512],si8> 
    %54 = torch.operator "onnx.Constant"() {torch.onnx.value = dense<0> : tensor<si8>} : () -> !torch.vtensor<[],si8> 
    %55 = torch.operator "onnx.Constant"() {torch.onnx.value = dense<0.0224387404> : tensor<f32>} : () -> !torch.vtensor<[],f32> 
    %56 = torch.operator "onnx.Constant"() {torch.onnx.value = dense<0> : tensor<si8>} : () -> !torch.vtensor<[],si8> 
    %57 = torch.operator "onnx.Constant"() {torch.onnx.value = dense<6.95517752E-4> : tensor<f32>} : () -> !torch.vtensor<[],f32> 
    %58 = torch.operator "onnx.Constant"() {torch.onnx.value = dense_resource<_blocks.0.mlp.0.bias_quantized> : tensor<512xsi8>} : () -> !torch.vtensor<[512],si8> 
    %59 = torch.operator "onnx.Constant"() {torch.onnx.value = dense<0> : tensor<si8>} : () -> !torch.vtensor<[],si8> 
    %60 = torch.operator "onnx.Constant"() {torch.onnx.value = dense<0.0231058579> : tensor<f32>} : () -> !torch.vtensor<[],f32> 
    %61 = torch.operator "onnx.Constant"() {torch.onnx.value = dense<0> : tensor<si8>} : () -> !torch.vtensor<[],si8> 
    %62 = torch.operator "onnx.Constant"() {torch.onnx.value = dense<0.00784770492> : tensor<f32>} : () -> !torch.vtensor<[],f32> 
    %63 = torch.operator "onnx.Constant"() {torch.onnx.value = dense<0> : tensor<si8>} : () -> !torch.vtensor<[],si8> 
    %64 = torch.operator "onnx.Constant"() {torch.onnx.value = dense<0.00787401571> : tensor<f32>} : () -> !torch.vtensor<[],f32> 
    %65 = torch.operator "onnx.Constant"() {torch.onnx.value = dense_resource<val_93_quantized> : tensor<si8>} : () -> !torch.vtensor<[],si8> 
    %66 = torch.operator "onnx.Constant"() {torch.onnx.value = dense<0> : tensor<si8>} : () -> !torch.vtensor<[],si8> 
    %67 = torch.operator "onnx.Constant"() {torch.onnx.value = dense<0.0157078914> : tensor<f32>} : () -> !torch.vtensor<[],f32> 
    %68 = torch.operator "onnx.Constant"() {torch.onnx.value = dense<0> : tensor<si8>} : () -> !torch.vtensor<[],si8> 
    %69 = torch.operator "onnx.Constant"() {torch.onnx.value = dense<0.00393700786> : tensor<f32>} : () -> !torch.vtensor<[],f32> 
    %70 = torch.operator "onnx.Constant"() {torch.onnx.value = dense_resource<val_95_quantized> : tensor<si8>} : () -> !torch.vtensor<[],si8> 
    %71 = torch.operator "onnx.Constant"() {torch.onnx.value = dense<0> : tensor<si8>} : () -> !torch.vtensor<[],si8> 
    %72 = torch.operator "onnx.Constant"() {torch.onnx.value = dense<0.00785394571> : tensor<f32>} : () -> !torch.vtensor<[],f32> 
    %73 = torch.operator "onnx.Constant"() {torch.onnx.value = dense<0> : tensor<si8>} : () -> !torch.vtensor<[],si8> 
    %74 = torch.operator "onnx.Constant"() {torch.onnx.value = dense<0.021997178> : tensor<f32>} : () -> !torch.vtensor<[],f32> 
    %75 = torch.operator "onnx.Constant"() {torch.onnx.value = dense<0> : tensor<si8>} : () -> !torch.vtensor<[],si8> 
    %76 = torch.operator "onnx.Constant"() {torch.onnx.value = dense<3.47958034E-4> : tensor<f32>} : () -> !torch.vtensor<[],f32> 
    %77 = torch.operator "onnx.Constant"() {torch.onnx.value = dense_resource<val_97_quantized> : tensor<512x128xsi8>} : () -> !torch.vtensor<[512,128],si8> 
    %78 = torch.operator "onnx.Constant"() {torch.onnx.value = dense<0> : tensor<si8>} : () -> !torch.vtensor<[],si8> 
    %79 = torch.operator "onnx.Constant"() {torch.onnx.value = dense<0.00772763696> : tensor<f32>} : () -> !torch.vtensor<[],f32> 
    %80 = torch.operator "onnx.Constant"() {torch.onnx.value = dense<0> : tensor<si8>} : () -> !torch.vtensor<[],si8> 
    %81 = torch.operator "onnx.Constant"() {torch.onnx.value = dense<3.397060e-04> : tensor<f32>} : () -> !torch.vtensor<[],f32> 
    %82 = torch.operator "onnx.Constant"() {torch.onnx.value = dense_resource<_blocks.0.mlp.2.bias_quantized> : tensor<128xsi8>} : () -> !torch.vtensor<[128],si8> 
    %83 = torch.operator "onnx.Constant"() {torch.onnx.value = dense<0> : tensor<si8>} : () -> !torch.vtensor<[],si8> 
    %84 = torch.operator "onnx.Constant"() {torch.onnx.value = dense<0.00766591635> : tensor<f32>} : () -> !torch.vtensor<[],f32> 
    %85 = torch.operator "onnx.Constant"() {torch.onnx.value = dense<0> : tensor<si8>} : () -> !torch.vtensor<[],si8> 
    %86 = torch.operator "onnx.Constant"() {torch.onnx.value = dense<0.0383194946> : tensor<f32>} : () -> !torch.vtensor<[],f32> 
    %87 = torch.operator "onnx.Constant"() {torch.onnx.value = dense<0> : tensor<si8>} : () -> !torch.vtensor<[],si8> 
    %88 = torch.operator "onnx.Constant"() {torch.onnx.value = dense<0.0361998305> : tensor<f32>} : () -> !torch.vtensor<[],f32> 
    %89 = torch.operator "onnx.Constant"() {torch.onnx.value = dense<0> : tensor<si8>} : () -> !torch.vtensor<[],si8> 
    %90 = torch.operator "onnx.Constant"() {torch.onnx.value = dense<8.52379773E-4> : tensor<f32>} : () -> !torch.vtensor<[],f32> 
    %91 = torch.operator "onnx.Constant"() {torch.onnx.value = dense_resource<val_101_quantized> : tensor<128x384xsi8>} : () -> !torch.vtensor<[128,384],si8> 
    %92 = torch.operator "onnx.Constant"() {torch.onnx.value = dense<0> : tensor<si8>} : () -> !torch.vtensor<[],si8> 
    %93 = torch.operator "onnx.Constant"() {torch.onnx.value = dense<0.0256305989> : tensor<f32>} : () -> !torch.vtensor<[],f32> 
    %94 = torch.operator "onnx.Constant"() {torch.onnx.value = dense<0> : tensor<si8>} : () -> !torch.vtensor<[],si8> 
    %95 = torch.operator "onnx.Constant"() {torch.onnx.value = dense<0.0256305989> : tensor<f32>} : () -> !torch.vtensor<[],f32> 
    %96 = torch.operator "onnx.Constant"() {torch.onnx.value = dense<0> : tensor<si8>} : () -> !torch.vtensor<[],si8> 
    %97 = torch.operator "onnx.Constant"() {torch.onnx.value = dense<0.0107763391> : tensor<f32>} : () -> !torch.vtensor<[],f32> 
    %98 = torch.operator "onnx.Constant"() {torch.onnx.value = dense<0> : tensor<si8>} : () -> !torch.vtensor<[],si8> 
    %99 = torch.operator "onnx.Constant"() {torch.onnx.value = dense<0.0106477197> : tensor<f32>} : () -> !torch.vtensor<[],f32> 
    %100 = torch.operator "onnx.Constant"() {torch.onnx.value = dense<0> : tensor<si8>} : () -> !torch.vtensor<[],si8> 
    %101 = torch.operator "onnx.Constant"() {torch.onnx.value = dense<0.0221606754> : tensor<f32>} : () -> !torch.vtensor<[],f32> 
    %102 = torch.operator "onnx.Constant"() {torch.onnx.value = dense<0> : tensor<si8>} : () -> !torch.vtensor<[],si8> 
    %103 = torch.operator "onnx.Constant"() {torch.onnx.value = dense<0.00787401571> : tensor<f32>} : () -> !torch.vtensor<[],f32> 
    %104 = torch.operator "onnx.Constant"() {torch.onnx.value = dense<0> : tensor<si8>} : () -> !torch.vtensor<[],si8> 
    %105 = torch.operator "onnx.Constant"() {torch.onnx.value = dense<0.00460232887> : tensor<f32>} : () -> !torch.vtensor<[],f32> 
    %106 = torch.operator "onnx.Constant"() {torch.onnx.value = dense<0> : tensor<si8>} : () -> !torch.vtensor<[],si8> 
    %107 = torch.operator "onnx.Constant"() {torch.onnx.value = dense<0.00245736423> : tensor<f32>} : () -> !torch.vtensor<[],f32> 
    %108 = torch.operator "onnx.Constant"() {torch.onnx.value = dense<0> : tensor<si8>} : () -> !torch.vtensor<[],si8> 
    %109 = torch.operator "onnx.Constant"() {torch.onnx.value = dense<6.959480e-04> : tensor<f32>} : () -> !torch.vtensor<[],f32> 
    %110 = torch.operator "onnx.Constant"() {torch.onnx.value = dense_resource<_blocks.1.attn.out_proj.weight_quantized> : tensor<128x128xsi8>} : () -> !torch.vtensor<[128,128],si8> 
    %111 = torch.operator "onnx.Constant"() {torch.onnx.value = dense<0> : tensor<si8>} : () -> !torch.vtensor<[],si8> 
    %112 = torch.operator "onnx.Constant"() {torch.onnx.value = dense<0.0381474458> : tensor<f32>} : () -> !torch.vtensor<[],f32> 
    %113 = torch.operator "onnx.Constant"() {torch.onnx.value = dense<0> : tensor<si8>} : () -> !torch.vtensor<[],si8> 
    %114 = torch.operator "onnx.Constant"() {torch.onnx.value = dense<0.0356534049> : tensor<f32>} : () -> !torch.vtensor<[],f32> 
    %115 = torch.operator "onnx.Constant"() {torch.onnx.value = dense<0> : tensor<si8>} : () -> !torch.vtensor<[],si8> 
    %116 = torch.operator "onnx.Constant"() {torch.onnx.value = dense<6.95962866E-4> : tensor<f32>} : () -> !torch.vtensor<[],f32> 
    %117 = torch.operator "onnx.Constant"() {torch.onnx.value = dense_resource<val_181_quantized> : tensor<128x512xsi8>} : () -> !torch.vtensor<[128,512],si8> 
    %118 = torch.operator "onnx.Constant"() {torch.onnx.value = dense<0> : tensor<si8>} : () -> !torch.vtensor<[],si8> 
    %119 = torch.operator "onnx.Constant"() {torch.onnx.value = dense<0.0222856347> : tensor<f32>} : () -> !torch.vtensor<[],f32> 
    %120 = torch.operator "onnx.Constant"() {torch.onnx.value = dense<0> : tensor<si8>} : () -> !torch.vtensor<[],si8> 
    %121 = torch.operator "onnx.Constant"() {torch.onnx.value = dense<6.950170e-04> : tensor<f32>} : () -> !torch.vtensor<[],f32> 
    %122 = torch.operator "onnx.Constant"() {torch.onnx.value = dense_resource<_blocks.1.mlp.0.bias_quantized> : tensor<512xsi8>} : () -> !torch.vtensor<[512],si8> 
    %123 = torch.operator "onnx.Constant"() {torch.onnx.value = dense<0> : tensor<si8>} : () -> !torch.vtensor<[],si8> 
    %124 = torch.operator "onnx.Constant"() {torch.onnx.value = dense<0.0225833487> : tensor<f32>} : () -> !torch.vtensor<[],f32> 
    %125 = torch.operator "onnx.Constant"() {torch.onnx.value = dense<0> : tensor<si8>} : () -> !torch.vtensor<[],si8> 
    %126 = torch.operator "onnx.Constant"() {torch.onnx.value = dense<0.00784149859> : tensor<f32>} : () -> !torch.vtensor<[],f32> 
    %127 = torch.operator "onnx.Constant"() {torch.onnx.value = dense<0> : tensor<si8>} : () -> !torch.vtensor<[],si8> 
    %128 = torch.operator "onnx.Constant"() {torch.onnx.value = dense<0.0157155152> : tensor<f32>} : () -> !torch.vtensor<[],f32> 
    %129 = torch.operator "onnx.Constant"() {torch.onnx.value = dense<0> : tensor<si8>} : () -> !torch.vtensor<[],si8> 
    %130 = torch.operator "onnx.Constant"() {torch.onnx.value = dense<0.00785775762> : tensor<f32>} : () -> !torch.vtensor<[],f32> 
    %131 = torch.operator "onnx.Constant"() {torch.onnx.value = dense<0> : tensor<si8>} : () -> !torch.vtensor<[],si8> 
    %132 = torch.operator "onnx.Constant"() {torch.onnx.value = dense<0.0225367192> : tensor<f32>} : () -> !torch.vtensor<[],f32> 
    %133 = torch.operator "onnx.Constant"() {torch.onnx.value = dense<0> : tensor<si8>} : () -> !torch.vtensor<[],si8> 
    %134 = torch.operator "onnx.Constant"() {torch.onnx.value = dense<3.4798219E-4> : tensor<f32>} : () -> !torch.vtensor<[],f32> 
    %135 = torch.operator "onnx.Constant"() {torch.onnx.value = dense_resource<val_190_quantized> : tensor<512x128xsi8>} : () -> !torch.vtensor<[512,128],si8> 
    %136 = torch.operator "onnx.Constant"() {torch.onnx.value = dense<0> : tensor<si8>} : () -> !torch.vtensor<[],si8> 
    %137 = torch.operator "onnx.Constant"() {torch.onnx.value = dense<0.00740216858> : tensor<f32>} : () -> !torch.vtensor<[],f32> 
    %138 = torch.operator "onnx.Constant"() {torch.onnx.value = dense<0> : tensor<si8>} : () -> !torch.vtensor<[],si8> 
    %139 = torch.operator "onnx.Constant"() {torch.onnx.value = dense<3.43598804E-4> : tensor<f32>} : () -> !torch.vtensor<[],f32> 
    %140 = torch.operator "onnx.Constant"() {torch.onnx.value = dense_resource<_blocks.1.mlp.2.bias_quantized> : tensor<128xsi8>} : () -> !torch.vtensor<[128],si8> 
    %141 = torch.operator "onnx.Constant"() {torch.onnx.value = dense<0> : tensor<si8>} : () -> !torch.vtensor<[],si8> 
    %142 = torch.operator "onnx.Constant"() {torch.onnx.value = dense<0.00763978995> : tensor<f32>} : () -> !torch.vtensor<[],f32> 
    %143 = torch.operator "onnx.Constant"() {torch.onnx.value = dense<0> : tensor<si8>} : () -> !torch.vtensor<[],si8> 
    %144 = torch.operator "onnx.Constant"() {torch.onnx.value = dense<0.0363425948> : tensor<f32>} : () -> !torch.vtensor<[],f32> 
    %145 = torch.operator "onnx.Constant"() {torch.onnx.value = dense<0> : tensor<si8>} : () -> !torch.vtensor<[],si8> 
    %146 = torch.operator "onnx.Constant"() {torch.onnx.value = dense<0.0161059685> : tensor<f32>} : () -> !torch.vtensor<[],f32> 
    %147 = torch.operator "onnx.Constant"() {torch.onnx.value = dense<0> : tensor<si8>} : () -> !torch.vtensor<[],si8> 
    %148 = torch.operator "onnx.Constant"() {torch.onnx.value = dense<6.95317925E-4> : tensor<f32>} : () -> !torch.vtensor<[],f32> 
    %149 = torch.operator "onnx.Constant"() {torch.onnx.value = dense_resource<_head.weight_quantized> : tensor<16x128xsi8>} : () -> !torch.vtensor<[16,128],si8> 
    %150 = torch.operator "onnx.Constant"() {torch.onnx.value = dense_resource<_blocks.0.norm1.bias_quantized> : tensor<128xsi32>} : () -> !torch.vtensor<[128],si32> 
    %151 = torch.operator "onnx.Constant"() {torch.onnx.value = dense_resource<_blocks.0.norm1.bias_quantized_scale> : tensor<1xf32>} : () -> !torch.vtensor<[1],f32> 
    %152 = torch.operator "onnx.Constant"() {torch.onnx.value = dense<0> : tensor<si32>} : () -> !torch.vtensor<[],si32> 
    %153 = torch.operator "onnx.Constant"() {torch.onnx.value = dense_resource<_blocks.0.norm1.bias0_quantized> : tensor<128xsi32>} : () -> !torch.vtensor<[128],si32> 
    %154 = torch.operator "onnx.Constant"() {torch.onnx.value = dense_resource<_blocks.0.norm1.bias0_quantized_scale> : tensor<1xf32>} : () -> !torch.vtensor<[1],f32> 
    %155 = torch.operator "onnx.Constant"() {torch.onnx.value = dense<0> : tensor<si32>} : () -> !torch.vtensor<[],si32> 
    %156 = torch.operator "onnx.Constant"() {torch.onnx.value = dense_resource<_blocks.0.norm1.bias1_quantized> : tensor<128xsi32>} : () -> !torch.vtensor<[128],si32> 
    %157 = torch.operator "onnx.Constant"() {torch.onnx.value = dense_resource<_blocks.0.norm1.bias1_quantized_scale> : tensor<1xf32>} : () -> !torch.vtensor<[1],f32> 
    %158 = torch.operator "onnx.Constant"() {torch.onnx.value = dense<0> : tensor<si32>} : () -> !torch.vtensor<[],si32> 
    %159 = torch.operator "onnx.Constant"() {torch.onnx.value = dense_resource<_blocks.0.norm1.bias2_quantized> : tensor<128xsi32>} : () -> !torch.vtensor<[128],si32> 
    %160 = torch.operator "onnx.Constant"() {torch.onnx.value = dense_resource<_blocks.0.norm1.bias2_quantized_scale> : tensor<1xf32>} : () -> !torch.vtensor<[1],f32> 
    %161 = torch.operator "onnx.Constant"() {torch.onnx.value = dense<0> : tensor<si32>} : () -> !torch.vtensor<[],si32> 
    %162 = torch.operator "onnx.Constant"() {torch.onnx.value = dense_resource<_blocks.0.norm1.bias3_quantized> : tensor<128xsi32>} : () -> !torch.vtensor<[128],si32> 
    %163 = torch.operator "onnx.Constant"() {torch.onnx.value = dense_resource<_blocks.0.norm1.bias3_quantized_scale> : tensor<1xf32>} : () -> !torch.vtensor<[1],f32> 
    %164 = torch.operator "onnx.Constant"() {torch.onnx.value = dense<0> : tensor<si32>} : () -> !torch.vtensor<[],si32> 
    %165 = torch.operator "onnx.Constant"() {torch.onnx.value = dense_resource<_blocks.0.norm1.bias4_quantized> : tensor<128xsi32>} : () -> !torch.vtensor<[128],si32> 
    %166 = torch.operator "onnx.Constant"() {torch.onnx.value = dense_resource<_blocks.0.norm1.bias4_quantized_scale> : tensor<1xf32>} : () -> !torch.vtensor<[1],f32> 
    %167 = torch.operator "onnx.Constant"() {torch.onnx.value = dense<0> : tensor<si32>} : () -> !torch.vtensor<[],si32> 
    %168 = torch.operator "onnx.Constant"() {torch.onnx.value = dense_resource<_head.bias_quantized> : tensor<16xsi32>} : () -> !torch.vtensor<[16],si32> 
    %169 = torch.operator "onnx.Constant"() {torch.onnx.value = dense_resource<_head.bias_quantized_scale> : tensor<1xf32>} : () -> !torch.vtensor<[1],f32> 
    %170 = torch.operator "onnx.Constant"() {torch.onnx.value = dense<0> : tensor<si32>} : () -> !torch.vtensor<[],si32> 
    %none = torch.constant.none
    %171 = torch.operator "onnx.DequantizeLinear"(%26, %25, %24) : (!torch.vtensor<[384],si8>, !torch.vtensor<[],f32>, !torch.vtensor<[],si8>) -> !torch.vtensor<[384],f32> 
    %172 = torch.operator "onnx.DequantizeLinear"(%46, %45, %44) : (!torch.vtensor<[128,128],si8>, !torch.vtensor<[],f32>, !torch.vtensor<[],si8>) -> !torch.vtensor<[128,128],f32> 
    %173 = torch.operator "onnx.DequantizeLinear"(%58, %57, %56) : (!torch.vtensor<[512],si8>, !torch.vtensor<[],f32>, !torch.vtensor<[],si8>) -> !torch.vtensor<[512],f32> 
    %174 = torch.operator "onnx.DequantizeLinear"(%82, %81, %80) : (!torch.vtensor<[128],si8>, !torch.vtensor<[],f32>, !torch.vtensor<[],si8>) -> !torch.vtensor<[128],f32> 
    %175 = torch.operator "onnx.DequantizeLinear"(%153, %154, %155) : (!torch.vtensor<[128],si32>, !torch.vtensor<[1],f32>, !torch.vtensor<[],si32>) -> !torch.vtensor<[128],f32> 
    %176 = torch.operator "onnx.DequantizeLinear"(%156, %157, %158) : (!torch.vtensor<[128],si32>, !torch.vtensor<[1],f32>, !torch.vtensor<[],si32>) -> !torch.vtensor<[128],f32> 
    %177 = torch.operator "onnx.DequantizeLinear"(%159, %160, %161) : (!torch.vtensor<[128],si32>, !torch.vtensor<[1],f32>, !torch.vtensor<[],si32>) -> !torch.vtensor<[128],f32> 
    %178 = torch.operator "onnx.DequantizeLinear"(%162, %163, %164) : (!torch.vtensor<[128],si32>, !torch.vtensor<[1],f32>, !torch.vtensor<[],si32>) -> !torch.vtensor<[128],f32> 
    %179 = torch.operator "onnx.DequantizeLinear"(%165, %166, %167) : (!torch.vtensor<[128],si32>, !torch.vtensor<[1],f32>, !torch.vtensor<[],si32>) -> !torch.vtensor<[128],f32> 
    %180 = torch.operator "onnx.DequantizeLinear"(%150, %151, %152) : (!torch.vtensor<[128],si32>, !torch.vtensor<[1],f32>, !torch.vtensor<[],si32>) -> !torch.vtensor<[128],f32> 
    %181 = torch.operator "onnx.DequantizeLinear"(%16, %15, %14) : (!torch.vtensor<[128],si8>, !torch.vtensor<[],f32>, !torch.vtensor<[],si8>) -> !torch.vtensor<[128],f32> 
    %182 = torch.operator "onnx.DequantizeLinear"(%110, %109, %108) : (!torch.vtensor<[128,128],si8>, !torch.vtensor<[],f32>, !torch.vtensor<[],si8>) -> !torch.vtensor<[128,128],f32> 
    %183 = torch.operator "onnx.DequantizeLinear"(%122, %121, %120) : (!torch.vtensor<[512],si8>, !torch.vtensor<[],f32>, !torch.vtensor<[],si8>) -> !torch.vtensor<[512],f32> 
    %184 = torch.operator "onnx.DequantizeLinear"(%140, %139, %138) : (!torch.vtensor<[128],si8>, !torch.vtensor<[],f32>, !torch.vtensor<[],si8>) -> !torch.vtensor<[128],f32> 
    %185 = torch.operator "onnx.DequantizeLinear"(%168, %169, %170) : (!torch.vtensor<[16],si32>, !torch.vtensor<[1],f32>, !torch.vtensor<[],si32>) -> !torch.vtensor<[16],f32> 
    %186 = torch.operator "onnx.DequantizeLinear"(%149, %148, %147) : (!torch.vtensor<[16,128],si8>, !torch.vtensor<[],f32>, !torch.vtensor<[],si8>) -> !torch.vtensor<[16,128],f32> 
    %187 = torch.operator "onnx.QuantizeLinear"(%arg0, %13, %12) : (!torch.vtensor<[1,64,128],f32>, !torch.vtensor<[],f32>, !torch.vtensor<[],si8>) -> !torch.vtensor<[1,64,128],si8> 
    %188 = torch.operator "onnx.DequantizeLinear"(%91, %90, %89) : (!torch.vtensor<[128,384],si8>, !torch.vtensor<[],f32>, !torch.vtensor<[],si8>) -> !torch.vtensor<[128,384],f32> 
    %189 = torch.operator "onnx.DequantizeLinear"(%117, %116, %115) : (!torch.vtensor<[128,512],si8>, !torch.vtensor<[],f32>, !torch.vtensor<[],si8>) -> !torch.vtensor<[128,512],f32> 
    %190 = torch.operator "onnx.DequantizeLinear"(%135, %134, %133) : (!torch.vtensor<[512,128],si8>, !torch.vtensor<[],f32>, !torch.vtensor<[],si8>) -> !torch.vtensor<[512,128],f32> 
    %191 = torch.operator "onnx.DequantizeLinear"(%21, %20, %19) : (!torch.vtensor<[128,384],si8>, !torch.vtensor<[],f32>, !torch.vtensor<[],si8>) -> !torch.vtensor<[128,384],f32> 
    %192 = torch.operator "onnx.DequantizeLinear"(%31, %30, %29) : (!torch.vtensor<[1],si8>, !torch.vtensor<[],f32>, !torch.vtensor<[],si8>) -> !torch.vtensor<[1],f32> 
    %193 = torch.operator "onnx.DequantizeLinear"(%53, %52, %51) : (!torch.vtensor<[128,512],si8>, !torch.vtensor<[],f32>, !torch.vtensor<[],si8>) -> !torch.vtensor<[128,512],f32> 
    %194 = torch.operator "onnx.DequantizeLinear"(%65, %64, %63) : (!torch.vtensor<[],si8>, !torch.vtensor<[],f32>, !torch.vtensor<[],si8>) -> !torch.vtensor<[],f32> 
    %195 = torch.operator "onnx.DequantizeLinear"(%70, %69, %68) : (!torch.vtensor<[],si8>, !torch.vtensor<[],f32>, !torch.vtensor<[],si8>) -> !torch.vtensor<[],f32> 
    %196 = torch.operator "onnx.DequantizeLinear"(%77, %76, %75) : (!torch.vtensor<[512,128],si8>, !torch.vtensor<[],f32>, !torch.vtensor<[],si8>) -> !torch.vtensor<[512,128],f32> 
    %197 = torch.operator "onnx.DequantizeLinear"(%187, %13, %12) : (!torch.vtensor<[1,64,128],si8>, !torch.vtensor<[],f32>, !torch.vtensor<[],si8>) -> !torch.vtensor<[1,64,128],f32> 
    %198 = torch.operator "onnx.LayerNormalization"(%197, %181, %180) {torch.onnx.axis = -1 : si64, torch.onnx.epsilon = 9.99999974E-6 : f32, torch.onnx.stash_type = 1 : si64} : (!torch.vtensor<[1,64,128],f32>, !torch.vtensor<[128],f32>, !torch.vtensor<[128],f32>) -> !torch.vtensor<[1,64,128],f32> 
    %199 = torch.operator "onnx.QuantizeLinear"(%198, %18, %17) : (!torch.vtensor<[1,64,128],f32>, !torch.vtensor<[],f32>, !torch.vtensor<[],si8>) -> !torch.vtensor<[1,64,128],si8> 
    %200 = torch.operator "onnx.DequantizeLinear"(%199, %18, %17) : (!torch.vtensor<[1,64,128],si8>, !torch.vtensor<[],f32>, !torch.vtensor<[],si8>) -> !torch.vtensor<[1,64,128],f32> 
    %201 = torch.operator "onnx.Transpose"(%200) {torch.onnx.perm = [1 : si64, 0 : si64, 2 : si64]} : (!torch.vtensor<[1,64,128],f32>) -> !torch.vtensor<[64,1,128],f32> 
    %202 = torch.operator "onnx.QuantizeLinear"(%201, %18, %17) : (!torch.vtensor<[64,1,128],f32>, !torch.vtensor<[],f32>, !torch.vtensor<[],si8>) -> !torch.vtensor<[64,1,128],si8> 
    %203 = torch.operator "onnx.DequantizeLinear"(%202, %18, %17) : (!torch.vtensor<[64,1,128],si8>, !torch.vtensor<[],f32>, !torch.vtensor<[],si8>) -> !torch.vtensor<[64,1,128],f32> 
    %204 = torch.operator "onnx.MatMul"(%203, %191) : (!torch.vtensor<[64,1,128],f32>, !torch.vtensor<[128,384],f32>) -> !torch.vtensor<[64,1,384],f32> 
    %205 = torch.operator "onnx.QuantizeLinear"(%204, %23, %22) : (!torch.vtensor<[64,1,384],f32>, !torch.vtensor<[],f32>, !torch.vtensor<[],si8>) -> !torch.vtensor<[64,1,384],si8> 
    %206 = torch.operator "onnx.DequantizeLinear"(%205, %23, %22) : (!torch.vtensor<[64,1,384],si8>, !torch.vtensor<[],f32>, !torch.vtensor<[],si8>) -> !torch.vtensor<[64,1,384],f32> 
    %207 = torch.operator "onnx.Add"(%206, %171) : (!torch.vtensor<[64,1,384],f32>, !torch.vtensor<[384],f32>) -> !torch.vtensor<[64,1,384],f32> 
    %208 = torch.operator "onnx.QuantizeLinear"(%207, %28, %27) : (!torch.vtensor<[64,1,384],f32>, !torch.vtensor<[],f32>, !torch.vtensor<[],si8>) -> !torch.vtensor<[64,1,384],si8> 
    %209 = torch.operator "onnx.DequantizeLinear"(%208, %28, %27) : (!torch.vtensor<[64,1,384],si8>, !torch.vtensor<[],f32>, !torch.vtensor<[],si8>) -> !torch.vtensor<[64,1,384],f32> 
    %210 = torch.operator "onnx.Reshape"(%209, %0) {torch.onnx.allowzero = 1 : si64} : (!torch.vtensor<[64,1,384],f32>, !torch.vtensor<[4],si64>) -> !torch.vtensor<[64,1,3,128],f32> 
    %211 = torch.operator "onnx.QuantizeLinear"(%210, %28, %27) : (!torch.vtensor<[64,1,3,128],f32>, !torch.vtensor<[],f32>, !torch.vtensor<[],si8>) -> !torch.vtensor<[64,1,3,128],si8> 
    %212 = torch.operator "onnx.DequantizeLinear"(%211, %28, %27) : (!torch.vtensor<[64,1,3,128],si8>, !torch.vtensor<[],f32>, !torch.vtensor<[],si8>) -> !torch.vtensor<[64,1,3,128],f32> 
    %213 = torch.operator "onnx.Unsqueeze"(%212, %1) : (!torch.vtensor<[64,1,3,128],f32>, !torch.vtensor<[1],si64>) -> !torch.vtensor<[1,64,1,3,128],f32> 
    %214 = torch.operator "onnx.QuantizeLinear"(%213, %28, %27) : (!torch.vtensor<[1,64,1,3,128],f32>, !torch.vtensor<[],f32>, !torch.vtensor<[],si8>) -> !torch.vtensor<[1,64,1,3,128],si8> 
    %215 = torch.operator "onnx.DequantizeLinear"(%214, %28, %27) : (!torch.vtensor<[1,64,1,3,128],si8>, !torch.vtensor<[],f32>, !torch.vtensor<[],si8>) -> !torch.vtensor<[1,64,1,3,128],f32> 
    %216 = torch.operator "onnx.Transpose"(%215) {torch.onnx.perm = [3 : si64, 1 : si64, 2 : si64, 0 : si64, 4 : si64]} : (!torch.vtensor<[1,64,1,3,128],f32>) -> !torch.vtensor<[3,64,1,1,128],f32> 
    %217 = torch.operator "onnx.QuantizeLinear"(%216, %28, %27) : (!torch.vtensor<[3,64,1,1,128],f32>, !torch.vtensor<[],f32>, !torch.vtensor<[],si8>) -> !torch.vtensor<[3,64,1,1,128],si8> 
    %218 = torch.operator "onnx.DequantizeLinear"(%217, %28, %27) : (!torch.vtensor<[3,64,1,1,128],si8>, !torch.vtensor<[],f32>, !torch.vtensor<[],si8>) -> !torch.vtensor<[3,64,1,1,128],f32> 
    %219 = torch.operator "onnx.Squeeze"(%218, %2) : (!torch.vtensor<[3,64,1,1,128],f32>, !torch.vtensor<[1],si64>) -> !torch.vtensor<[3,64,1,128],f32> 
    %220 = torch.operator "onnx.QuantizeLinear"(%219, %28, %27) : (!torch.vtensor<[3,64,1,128],f32>, !torch.vtensor<[],f32>, !torch.vtensor<[],si8>) -> !torch.vtensor<[3,64,1,128],si8> 
    %221 = torch.operator "onnx.DequantizeLinear"(%220, %28, %27) : (!torch.vtensor<[3,64,1,128],si8>, !torch.vtensor<[],f32>, !torch.vtensor<[],si8>) -> !torch.vtensor<[3,64,1,128],f32> 
    %222 = torch.operator "onnx.Gather"(%221, %3) {torch.onnx.axis = 0 : si64} : (!torch.vtensor<[3,64,1,128],f32>, !torch.vtensor<[],si64>) -> !torch.vtensor<[64,1,128],f32> 
    %223 = torch.operator "onnx.Gather"(%221, %4) {torch.onnx.axis = 0 : si64} : (!torch.vtensor<[3,64,1,128],f32>, !torch.vtensor<[],si64>) -> !torch.vtensor<[64,1,128],f32> 
    %224 = torch.operator "onnx.Gather"(%221, %5) {torch.onnx.axis = 0 : si64} : (!torch.vtensor<[3,64,1,128],f32>, !torch.vtensor<[],si64>) -> !torch.vtensor<[64,1,128],f32> 
    %225 = torch.operator "onnx.QuantizeLinear"(%222, %28, %27) : (!torch.vtensor<[64,1,128],f32>, !torch.vtensor<[],f32>, !torch.vtensor<[],si8>) -> !torch.vtensor<[64,1,128],si8> 
    %226 = torch.operator "onnx.QuantizeLinear"(%223, %28, %27) : (!torch.vtensor<[64,1,128],f32>, !torch.vtensor<[],f32>, !torch.vtensor<[],si8>) -> !torch.vtensor<[64,1,128],si8> 
    %227 = torch.operator "onnx.QuantizeLinear"(%224, %28, %27) : (!torch.vtensor<[64,1,128],f32>, !torch.vtensor<[],f32>, !torch.vtensor<[],si8>) -> !torch.vtensor<[64,1,128],si8> 
    %228 = torch.operator "onnx.DequantizeLinear"(%225, %28, %27) : (!torch.vtensor<[64,1,128],si8>, !torch.vtensor<[],f32>, !torch.vtensor<[],si8>) -> !torch.vtensor<[64,1,128],f32> 
    %229 = torch.operator "onnx.DequantizeLinear"(%226, %28, %27) : (!torch.vtensor<[64,1,128],si8>, !torch.vtensor<[],f32>, !torch.vtensor<[],si8>) -> !torch.vtensor<[64,1,128],f32> 
    %230 = torch.operator "onnx.DequantizeLinear"(%227, %28, %27) : (!torch.vtensor<[64,1,128],si8>, !torch.vtensor<[],f32>, !torch.vtensor<[],si8>) -> !torch.vtensor<[64,1,128],f32> 
    %231 = torch.operator "onnx.Reshape"(%228, %6) {torch.onnx.allowzero = 1 : si64} : (!torch.vtensor<[64,1,128],f32>, !torch.vtensor<[3],si64>) -> !torch.vtensor<[64,4,32],f32> 
    %232 = torch.operator "onnx.Reshape"(%229, %6) {torch.onnx.allowzero = 1 : si64} : (!torch.vtensor<[64,1,128],f32>, !torch.vtensor<[3],si64>) -> !torch.vtensor<[64,4,32],f32> 
    %233 = torch.operator "onnx.Reshape"(%230, %6) {torch.onnx.allowzero = 1 : si64} : (!torch.vtensor<[64,1,128],f32>, !torch.vtensor<[3],si64>) -> !torch.vtensor<[64,4,32],f32> 
    %234 = torch.operator "onnx.QuantizeLinear"(%231, %28, %27) : (!torch.vtensor<[64,4,32],f32>, !torch.vtensor<[],f32>, !torch.vtensor<[],si8>) -> !torch.vtensor<[64,4,32],si8> 
    %235 = torch.operator "onnx.QuantizeLinear"(%232, %28, %27) : (!torch.vtensor<[64,4,32],f32>, !torch.vtensor<[],f32>, !torch.vtensor<[],si8>) -> !torch.vtensor<[64,4,32],si8> 
    %236 = torch.operator "onnx.QuantizeLinear"(%233, %28, %27) : (!torch.vtensor<[64,4,32],f32>, !torch.vtensor<[],f32>, !torch.vtensor<[],si8>) -> !torch.vtensor<[64,4,32],si8> 
    %237 = torch.operator "onnx.DequantizeLinear"(%234, %28, %27) : (!torch.vtensor<[64,4,32],si8>, !torch.vtensor<[],f32>, !torch.vtensor<[],si8>) -> !torch.vtensor<[64,4,32],f32> 
    %238 = torch.operator "onnx.DequantizeLinear"(%235, %28, %27) : (!torch.vtensor<[64,4,32],si8>, !torch.vtensor<[],f32>, !torch.vtensor<[],si8>) -> !torch.vtensor<[64,4,32],f32> 
    %239 = torch.operator "onnx.DequantizeLinear"(%236, %28, %27) : (!torch.vtensor<[64,4,32],si8>, !torch.vtensor<[],f32>, !torch.vtensor<[],si8>) -> !torch.vtensor<[64,4,32],f32> 
    %240 = torch.operator "onnx.Transpose"(%237) {torch.onnx.perm = [1 : si64, 0 : si64, 2 : si64]} : (!torch.vtensor<[64,4,32],f32>) -> !torch.vtensor<[4,64,32],f32> 
    %241 = torch.operator "onnx.Transpose"(%238) {torch.onnx.perm = [1 : si64, 0 : si64, 2 : si64]} : (!torch.vtensor<[64,4,32],f32>) -> !torch.vtensor<[4,64,32],f32> 
    %242 = torch.operator "onnx.Transpose"(%239) {torch.onnx.perm = [1 : si64, 0 : si64, 2 : si64]} : (!torch.vtensor<[64,4,32],f32>) -> !torch.vtensor<[4,64,32],f32> 
    %243 = torch.operator "onnx.QuantizeLinear"(%240, %28, %27) : (!torch.vtensor<[4,64,32],f32>, !torch.vtensor<[],f32>, !torch.vtensor<[],si8>) -> !torch.vtensor<[4,64,32],si8> 
    %244 = torch.operator "onnx.QuantizeLinear"(%241, %28, %27) : (!torch.vtensor<[4,64,32],f32>, !torch.vtensor<[],f32>, !torch.vtensor<[],si8>) -> !torch.vtensor<[4,64,32],si8> 
    %245 = torch.operator "onnx.QuantizeLinear"(%242, %28, %27) : (!torch.vtensor<[4,64,32],f32>, !torch.vtensor<[],f32>, !torch.vtensor<[],si8>) -> !torch.vtensor<[4,64,32],si8> 
    %246 = torch.operator "onnx.DequantizeLinear"(%243, %28, %27) : (!torch.vtensor<[4,64,32],si8>, !torch.vtensor<[],f32>, !torch.vtensor<[],si8>) -> !torch.vtensor<[4,64,32],f32> 
    %247 = torch.operator "onnx.DequantizeLinear"(%244, %28, %27) : (!torch.vtensor<[4,64,32],si8>, !torch.vtensor<[],f32>, !torch.vtensor<[],si8>) -> !torch.vtensor<[4,64,32],f32> 
    %248 = torch.operator "onnx.DequantizeLinear"(%245, %28, %27) : (!torch.vtensor<[4,64,32],si8>, !torch.vtensor<[],f32>, !torch.vtensor<[],si8>) -> !torch.vtensor<[4,64,32],f32> 
    %249 = torch.operator "onnx.Reshape"(%246, %7) {torch.onnx.allowzero = 1 : si64} : (!torch.vtensor<[4,64,32],f32>, !torch.vtensor<[4],si64>) -> !torch.vtensor<[1,4,64,32],f32> 
    %250 = torch.operator "onnx.Transpose"(%247) {torch.onnx.perm = [0 : si64, 2 : si64, 1 : si64]} : (!torch.vtensor<[4,64,32],f32>) -> !torch.vtensor<[4,32,64],f32> 
    %251 = torch.operator "onnx.Reshape"(%248, %7) {torch.onnx.allowzero = 1 : si64} : (!torch.vtensor<[4,64,32],f32>, !torch.vtensor<[4],si64>) -> !torch.vtensor<[1,4,64,32],f32> 
    %252 = torch.operator "onnx.QuantizeLinear"(%249, %28, %27) : (!torch.vtensor<[1,4,64,32],f32>, !torch.vtensor<[],f32>, !torch.vtensor<[],si8>) -> !torch.vtensor<[1,4,64,32],si8> 
    %253 = torch.operator "onnx.QuantizeLinear"(%250, %28, %27) : (!torch.vtensor<[4,32,64],f32>, !torch.vtensor<[],f32>, !torch.vtensor<[],si8>) -> !torch.vtensor<[4,32,64],si8> 
    %254 = torch.operator "onnx.QuantizeLinear"(%251, %28, %27) : (!torch.vtensor<[1,4,64,32],f32>, !torch.vtensor<[],f32>, !torch.vtensor<[],si8>) -> !torch.vtensor<[1,4,64,32],si8> 
    %255 = torch.operator "onnx.DequantizeLinear"(%252, %28, %27) : (!torch.vtensor<[1,4,64,32],si8>, !torch.vtensor<[],f32>, !torch.vtensor<[],si8>) -> !torch.vtensor<[1,4,64,32],f32> 
    %256 = torch.operator "onnx.DequantizeLinear"(%253, %28, %27) : (!torch.vtensor<[4,32,64],si8>, !torch.vtensor<[],f32>, !torch.vtensor<[],si8>) -> !torch.vtensor<[4,32,64],f32> 
    %257 = torch.operator "onnx.DequantizeLinear"(%254, %28, %27) : (!torch.vtensor<[1,4,64,32],si8>, !torch.vtensor<[],f32>, !torch.vtensor<[],si8>) -> !torch.vtensor<[1,4,64,32],f32> 
    %258 = torch.operator "onnx.Mul"(%255, %192) : (!torch.vtensor<[1,4,64,32],f32>, !torch.vtensor<[1],f32>) -> !torch.vtensor<[1,4,64,32],f32> 
    %259 = torch.operator "onnx.Reshape"(%256, %8) {torch.onnx.allowzero = 0 : si64} : (!torch.vtensor<[4,32,64],f32>, !torch.vtensor<[4],si64>) -> !torch.vtensor<[1,4,32,64],f32> 
    %260 = torch.operator "onnx.QuantizeLinear"(%258, %33, %32) : (!torch.vtensor<[1,4,64,32],f32>, !torch.vtensor<[],f32>, !torch.vtensor<[],si8>) -> !torch.vtensor<[1,4,64,32],si8> 
    %261 = torch.operator "onnx.QuantizeLinear"(%259, %28, %27) : (!torch.vtensor<[1,4,32,64],f32>, !torch.vtensor<[],f32>, !torch.vtensor<[],si8>) -> !torch.vtensor<[1,4,32,64],si8> 
    %262 = torch.operator "onnx.DequantizeLinear"(%260, %33, %32) : (!torch.vtensor<[1,4,64,32],si8>, !torch.vtensor<[],f32>, !torch.vtensor<[],si8>) -> !torch.vtensor<[1,4,64,32],f32> 
    %263 = torch.operator "onnx.DequantizeLinear"(%261, %28, %27) : (!torch.vtensor<[1,4,32,64],si8>, !torch.vtensor<[],f32>, !torch.vtensor<[],si8>) -> !torch.vtensor<[1,4,32,64],f32> 
    %264 = torch.operator "onnx.Mul"(%263, %192) : (!torch.vtensor<[1,4,32,64],f32>, !torch.vtensor<[1],f32>) -> !torch.vtensor<[1,4,32,64],f32> 
    %265 = torch.operator "onnx.QuantizeLinear"(%264, %35, %34) : (!torch.vtensor<[1,4,32,64],f32>, !torch.vtensor<[],f32>, !torch.vtensor<[],si8>) -> !torch.vtensor<[1,4,32,64],si8> 
    %266 = torch.operator "onnx.DequantizeLinear"(%265, %35, %34) : (!torch.vtensor<[1,4,32,64],si8>, !torch.vtensor<[],f32>, !torch.vtensor<[],si8>) -> !torch.vtensor<[1,4,32,64],f32> 
    %267 = torch.operator "onnx.MatMul"(%262, %266) : (!torch.vtensor<[1,4,64,32],f32>, !torch.vtensor<[1,4,32,64],f32>) -> !torch.vtensor<[1,4,64,64],f32> 
    %268 = torch.operator "onnx.QuantizeLinear"(%267, %37, %36) : (!torch.vtensor<[1,4,64,64],f32>, !torch.vtensor<[],f32>, !torch.vtensor<[],si8>) -> !torch.vtensor<[1,4,64,64],si8> 
    %269 = torch.operator "onnx.DequantizeLinear"(%268, %37, %36) : (!torch.vtensor<[1,4,64,64],si8>, !torch.vtensor<[],f32>, !torch.vtensor<[],si8>) -> !torch.vtensor<[1,4,64,64],f32> 
    %270 = torch.operator "onnx.Softmax"(%269) {torch.onnx.axis = -1 : si64} : (!torch.vtensor<[1,4,64,64],f32>) -> !torch.vtensor<[1,4,64,64],f32> 
    %271 = torch.operator "onnx.QuantizeLinear"(%270, %39, %38) : (!torch.vtensor<[1,4,64,64],f32>, !torch.vtensor<[],f32>, !torch.vtensor<[],si8>) -> !torch.vtensor<[1,4,64,64],si8> 
    %272 = torch.operator "onnx.DequantizeLinear"(%271, %39, %38) : (!torch.vtensor<[1,4,64,64],si8>, !torch.vtensor<[],f32>, !torch.vtensor<[],si8>) -> !torch.vtensor<[1,4,64,64],f32> 
    %273 = torch.operator "onnx.MatMul"(%272, %257) : (!torch.vtensor<[1,4,64,64],f32>, !torch.vtensor<[1,4,64,32],f32>) -> !torch.vtensor<[1,4,64,32],f32> 
    %274 = torch.operator "onnx.QuantizeLinear"(%273, %41, %40) : (!torch.vtensor<[1,4,64,32],f32>, !torch.vtensor<[],f32>, !torch.vtensor<[],si8>) -> !torch.vtensor<[1,4,64,32],si8> 
    %275 = torch.operator "onnx.DequantizeLinear"(%274, %41, %40) : (!torch.vtensor<[1,4,64,32],si8>, !torch.vtensor<[],f32>, !torch.vtensor<[],si8>) -> !torch.vtensor<[1,4,64,32],f32> 
    %276 = torch.operator "onnx.Transpose"(%275) {torch.onnx.perm = [2 : si64, 0 : si64, 1 : si64, 3 : si64]} : (!torch.vtensor<[1,4,64,32],f32>) -> !torch.vtensor<[64,1,4,32],f32> 
    %277 = torch.operator "onnx.QuantizeLinear"(%276, %41, %40) : (!torch.vtensor<[64,1,4,32],f32>, !torch.vtensor<[],f32>, !torch.vtensor<[],si8>) -> !torch.vtensor<[64,1,4,32],si8> 
    %278 = torch.operator "onnx.DequantizeLinear"(%277, %41, %40) : (!torch.vtensor<[64,1,4,32],si8>, !torch.vtensor<[],f32>, !torch.vtensor<[],si8>) -> !torch.vtensor<[64,1,4,32],f32> 
    %279 = torch.operator "onnx.Reshape"(%278, %9) {torch.onnx.allowzero = 1 : si64} : (!torch.vtensor<[64,1,4,32],f32>, !torch.vtensor<[2],si64>) -> !torch.vtensor<[64,128],f32> 
    %280 = torch.operator "onnx.QuantizeLinear"(%279, %41, %40) : (!torch.vtensor<[64,128],f32>, !torch.vtensor<[],f32>, !torch.vtensor<[],si8>) -> !torch.vtensor<[64,128],si8> 
    %281 = torch.operator "onnx.DequantizeLinear"(%280, %41, %40) : (!torch.vtensor<[64,128],si8>, !torch.vtensor<[],f32>, !torch.vtensor<[],si8>) -> !torch.vtensor<[64,128],f32> 
    %282 = torch.operator "onnx.Gemm"(%281, %172, %175) {torch.onnx.alpha = 1.000000e+00 : f32, torch.onnx.beta = 1.000000e+00 : f32, torch.onnx.transA = 0 : si64, torch.onnx.transB = 1 : si64} : (!torch.vtensor<[64,128],f32>, !torch.vtensor<[128,128],f32>, !torch.vtensor<[128],f32>) -> !torch.vtensor<[64,128],f32> 
    %283 = torch.operator "onnx.QuantizeLinear"(%282, %43, %42) : (!torch.vtensor<[64,128],f32>, !torch.vtensor<[],f32>, !torch.vtensor<[],si8>) -> !torch.vtensor<[64,128],si8> 
    %284 = torch.operator "onnx.DequantizeLinear"(%283, %43, %42) : (!torch.vtensor<[64,128],si8>, !torch.vtensor<[],f32>, !torch.vtensor<[],si8>) -> !torch.vtensor<[64,128],f32> 
    %285 = torch.operator "onnx.Reshape"(%284, %10) {torch.onnx.allowzero = 1 : si64} : (!torch.vtensor<[64,128],f32>, !torch.vtensor<[3],si64>) -> !torch.vtensor<[64,1,128],f32> 
    %286 = torch.operator "onnx.QuantizeLinear"(%285, %43, %42) : (!torch.vtensor<[64,1,128],f32>, !torch.vtensor<[],f32>, !torch.vtensor<[],si8>) -> !torch.vtensor<[64,1,128],si8> 
    %287 = torch.operator "onnx.DequantizeLinear"(%286, %43, %42) : (!torch.vtensor<[64,1,128],si8>, !torch.vtensor<[],f32>, !torch.vtensor<[],si8>) -> !torch.vtensor<[64,1,128],f32> 
    %288 = torch.operator "onnx.Transpose"(%287) {torch.onnx.perm = [1 : si64, 0 : si64, 2 : si64]} : (!torch.vtensor<[64,1,128],f32>) -> !torch.vtensor<[1,64,128],f32> 
    %289 = torch.operator "onnx.QuantizeLinear"(%288, %43, %42) : (!torch.vtensor<[1,64,128],f32>, !torch.vtensor<[],f32>, !torch.vtensor<[],si8>) -> !torch.vtensor<[1,64,128],si8> 
    %290 = torch.operator "onnx.DequantizeLinear"(%289, %43, %42) : (!torch.vtensor<[1,64,128],si8>, !torch.vtensor<[],f32>, !torch.vtensor<[],si8>) -> !torch.vtensor<[1,64,128],f32> 
    %291 = torch.operator "onnx.Add"(%197, %290) : (!torch.vtensor<[1,64,128],f32>, !torch.vtensor<[1,64,128],f32>) -> !torch.vtensor<[1,64,128],f32> 
    %292 = torch.operator "onnx.QuantizeLinear"(%291, %48, %47) : (!torch.vtensor<[1,64,128],f32>, !torch.vtensor<[],f32>, !torch.vtensor<[],si8>) -> !torch.vtensor<[1,64,128],si8> 
    %293 = torch.operator "onnx.DequantizeLinear"(%292, %48, %47) : (!torch.vtensor<[1,64,128],si8>, !torch.vtensor<[],f32>, !torch.vtensor<[],si8>) -> !torch.vtensor<[1,64,128],f32> 
    %294 = torch.operator "onnx.LayerNormalization"(%293, %181, %176) {torch.onnx.axis = -1 : si64, torch.onnx.epsilon = 9.99999974E-6 : f32, torch.onnx.stash_type = 1 : si64} : (!torch.vtensor<[1,64,128],f32>, !torch.vtensor<[128],f32>, !torch.vtensor<[128],f32>) -> !torch.vtensor<[1,64,128],f32> 
    %295 = torch.operator "onnx.QuantizeLinear"(%294, %50, %49) : (!torch.vtensor<[1,64,128],f32>, !torch.vtensor<[],f32>, !torch.vtensor<[],si8>) -> !torch.vtensor<[1,64,128],si8> 
    %296 = torch.operator "onnx.DequantizeLinear"(%295, %50, %49) : (!torch.vtensor<[1,64,128],si8>, !torch.vtensor<[],f32>, !torch.vtensor<[],si8>) -> !torch.vtensor<[1,64,128],f32> 
    %297 = torch.operator "onnx.MatMul"(%296, %193) : (!torch.vtensor<[1,64,128],f32>, !torch.vtensor<[128,512],f32>) -> !torch.vtensor<[1,64,512],f32> 
    %298 = torch.operator "onnx.QuantizeLinear"(%297, %55, %54) : (!torch.vtensor<[1,64,512],f32>, !torch.vtensor<[],f32>, !torch.vtensor<[],si8>) -> !torch.vtensor<[1,64,512],si8> 
    %299 = torch.operator "onnx.DequantizeLinear"(%298, %55, %54) : (!torch.vtensor<[1,64,512],si8>, !torch.vtensor<[],f32>, !torch.vtensor<[],si8>) -> !torch.vtensor<[1,64,512],f32> 
    %300 = torch.operator "onnx.Add"(%299, %173) : (!torch.vtensor<[1,64,512],f32>, !torch.vtensor<[512],f32>) -> !torch.vtensor<[1,64,512],f32> 
    %301 = torch.operator "onnx.QuantizeLinear"(%300, %60, %59) : (!torch.vtensor<[1,64,512],f32>, !torch.vtensor<[],f32>, !torch.vtensor<[],si8>) -> !torch.vtensor<[1,64,512],si8> 
    %302 = torch.operator "onnx.DequantizeLinear"(%301, %60, %59) : (!torch.vtensor<[1,64,512],si8>, !torch.vtensor<[],f32>, !torch.vtensor<[],si8>) -> !torch.vtensor<[1,64,512],f32> 
    %303 = torch.operator "onnx.Div"(%302, %11) : (!torch.vtensor<[1,64,512],f32>, !torch.vtensor<[],f32>) -> !torch.vtensor<[1,64,512],f32> 
    %304 = torch.operator "onnx.Erf"(%303) : (!torch.vtensor<[1,64,512],f32>) -> !torch.vtensor<[1,64,512],f32> 
    %305 = torch.operator "onnx.QuantizeLinear"(%304, %62, %61) : (!torch.vtensor<[1,64,512],f32>, !torch.vtensor<[],f32>, !torch.vtensor<[],si8>) -> !torch.vtensor<[1,64,512],si8> 
    %306 = torch.operator "onnx.DequantizeLinear"(%305, %62, %61) : (!torch.vtensor<[1,64,512],si8>, !torch.vtensor<[],f32>, !torch.vtensor<[],si8>) -> !torch.vtensor<[1,64,512],f32> 
    %307 = torch.operator "onnx.Add"(%306, %194) : (!torch.vtensor<[1,64,512],f32>, !torch.vtensor<[],f32>) -> !torch.vtensor<[1,64,512],f32> 
    %308 = torch.operator "onnx.QuantizeLinear"(%307, %67, %66) : (!torch.vtensor<[1,64,512],f32>, !torch.vtensor<[],f32>, !torch.vtensor<[],si8>) -> !torch.vtensor<[1,64,512],si8> 
    %309 = torch.operator "onnx.DequantizeLinear"(%308, %67, %66) : (!torch.vtensor<[1,64,512],si8>, !torch.vtensor<[],f32>, !torch.vtensor<[],si8>) -> !torch.vtensor<[1,64,512],f32> 
    %310 = torch.operator "onnx.Mul"(%195, %309) : (!torch.vtensor<[],f32>, !torch.vtensor<[1,64,512],f32>) -> !torch.vtensor<[1,64,512],f32> 
    %311 = torch.operator "onnx.QuantizeLinear"(%310, %72, %71) : (!torch.vtensor<[1,64,512],f32>, !torch.vtensor<[],f32>, !torch.vtensor<[],si8>) -> !torch.vtensor<[1,64,512],si8> 
    %312 = torch.operator "onnx.DequantizeLinear"(%311, %72, %71) : (!torch.vtensor<[1,64,512],si8>, !torch.vtensor<[],f32>, !torch.vtensor<[],si8>) -> !torch.vtensor<[1,64,512],f32> 
    %313 = torch.operator "onnx.Mul"(%302, %312) : (!torch.vtensor<[1,64,512],f32>, !torch.vtensor<[1,64,512],f32>) -> !torch.vtensor<[1,64,512],f32> 
    %314 = torch.operator "onnx.QuantizeLinear"(%313, %74, %73) : (!torch.vtensor<[1,64,512],f32>, !torch.vtensor<[],f32>, !torch.vtensor<[],si8>) -> !torch.vtensor<[1,64,512],si8> 
    %315 = torch.operator "onnx.DequantizeLinear"(%314, %74, %73) : (!torch.vtensor<[1,64,512],si8>, !torch.vtensor<[],f32>, !torch.vtensor<[],si8>) -> !torch.vtensor<[1,64,512],f32> 
    %316 = torch.operator "onnx.MatMul"(%315, %196) : (!torch.vtensor<[1,64,512],f32>, !torch.vtensor<[512,128],f32>) -> !torch.vtensor<[1,64,128],f32> 
    %317 = torch.operator "onnx.QuantizeLinear"(%316, %79, %78) : (!torch.vtensor<[1,64,128],f32>, !torch.vtensor<[],f32>, !torch.vtensor<[],si8>) -> !torch.vtensor<[1,64,128],si8> 
    %318 = torch.operator "onnx.DequantizeLinear"(%317, %79, %78) : (!torch.vtensor<[1,64,128],si8>, !torch.vtensor<[],f32>, !torch.vtensor<[],si8>) -> !torch.vtensor<[1,64,128],f32> 
    %319 = torch.operator "onnx.Add"(%318, %174) : (!torch.vtensor<[1,64,128],f32>, !torch.vtensor<[128],f32>) -> !torch.vtensor<[1,64,128],f32> 
    %320 = torch.operator "onnx.QuantizeLinear"(%319, %84, %83) : (!torch.vtensor<[1,64,128],f32>, !torch.vtensor<[],f32>, !torch.vtensor<[],si8>) -> !torch.vtensor<[1,64,128],si8> 
    %321 = torch.operator "onnx.DequantizeLinear"(%320, %84, %83) : (!torch.vtensor<[1,64,128],si8>, !torch.vtensor<[],f32>, !torch.vtensor<[],si8>) -> !torch.vtensor<[1,64,128],f32> 
    %322 = torch.operator "onnx.Add"(%293, %321) : (!torch.vtensor<[1,64,128],f32>, !torch.vtensor<[1,64,128],f32>) -> !torch.vtensor<[1,64,128],f32> 
    %323 = torch.operator "onnx.QuantizeLinear"(%322, %86, %85) : (!torch.vtensor<[1,64,128],f32>, !torch.vtensor<[],f32>, !torch.vtensor<[],si8>) -> !torch.vtensor<[1,64,128],si8> 
    %324 = torch.operator "onnx.DequantizeLinear"(%323, %86, %85) : (!torch.vtensor<[1,64,128],si8>, !torch.vtensor<[],f32>, !torch.vtensor<[],si8>) -> !torch.vtensor<[1,64,128],f32> 
    %325 = torch.operator "onnx.LayerNormalization"(%324, %181, %177) {torch.onnx.axis = -1 : si64, torch.onnx.epsilon = 9.99999974E-6 : f32, torch.onnx.stash_type = 1 : si64} : (!torch.vtensor<[1,64,128],f32>, !torch.vtensor<[128],f32>, !torch.vtensor<[128],f32>) -> !torch.vtensor<[1,64,128],f32> 
    %326 = torch.operator "onnx.QuantizeLinear"(%325, %88, %87) : (!torch.vtensor<[1,64,128],f32>, !torch.vtensor<[],f32>, !torch.vtensor<[],si8>) -> !torch.vtensor<[1,64,128],si8> 
    %327 = torch.operator "onnx.DequantizeLinear"(%326, %88, %87) : (!torch.vtensor<[1,64,128],si8>, !torch.vtensor<[],f32>, !torch.vtensor<[],si8>) -> !torch.vtensor<[1,64,128],f32> 
    %328 = torch.operator "onnx.Transpose"(%327) {torch.onnx.perm = [1 : si64, 0 : si64, 2 : si64]} : (!torch.vtensor<[1,64,128],f32>) -> !torch.vtensor<[64,1,128],f32> 
    %329 = torch.operator "onnx.QuantizeLinear"(%328, %88, %87) : (!torch.vtensor<[64,1,128],f32>, !torch.vtensor<[],f32>, !torch.vtensor<[],si8>) -> !torch.vtensor<[64,1,128],si8> 
    %330 = torch.operator "onnx.DequantizeLinear"(%329, %88, %87) : (!torch.vtensor<[64,1,128],si8>, !torch.vtensor<[],f32>, !torch.vtensor<[],si8>) -> !torch.vtensor<[64,1,128],f32> 
    %331 = torch.operator "onnx.MatMul"(%330, %188) : (!torch.vtensor<[64,1,128],f32>, !torch.vtensor<[128,384],f32>) -> !torch.vtensor<[64,1,384],f32> 
    %332 = torch.operator "onnx.QuantizeLinear"(%331, %93, %92) : (!torch.vtensor<[64,1,384],f32>, !torch.vtensor<[],f32>, !torch.vtensor<[],si8>) -> !torch.vtensor<[64,1,384],si8> 
    %333 = torch.operator "onnx.DequantizeLinear"(%332, %93, %92) : (!torch.vtensor<[64,1,384],si8>, !torch.vtensor<[],f32>, !torch.vtensor<[],si8>) -> !torch.vtensor<[64,1,384],f32> 
    %334 = torch.operator "onnx.Add"(%333, %171) : (!torch.vtensor<[64,1,384],f32>, !torch.vtensor<[384],f32>) -> !torch.vtensor<[64,1,384],f32> 
    %335 = torch.operator "onnx.QuantizeLinear"(%334, %95, %94) : (!torch.vtensor<[64,1,384],f32>, !torch.vtensor<[],f32>, !torch.vtensor<[],si8>) -> !torch.vtensor<[64,1,384],si8> 
    %336 = torch.operator "onnx.DequantizeLinear"(%335, %95, %94) : (!torch.vtensor<[64,1,384],si8>, !torch.vtensor<[],f32>, !torch.vtensor<[],si8>) -> !torch.vtensor<[64,1,384],f32> 
    %337 = torch.operator "onnx.Reshape"(%336, %0) {torch.onnx.allowzero = 1 : si64} : (!torch.vtensor<[64,1,384],f32>, !torch.vtensor<[4],si64>) -> !torch.vtensor<[64,1,3,128],f32> 
    %338 = torch.operator "onnx.QuantizeLinear"(%337, %95, %94) : (!torch.vtensor<[64,1,3,128],f32>, !torch.vtensor<[],f32>, !torch.vtensor<[],si8>) -> !torch.vtensor<[64,1,3,128],si8> 
    %339 = torch.operator "onnx.DequantizeLinear"(%338, %95, %94) : (!torch.vtensor<[64,1,3,128],si8>, !torch.vtensor<[],f32>, !torch.vtensor<[],si8>) -> !torch.vtensor<[64,1,3,128],f32> 
    %340 = torch.operator "onnx.Unsqueeze"(%339, %1) : (!torch.vtensor<[64,1,3,128],f32>, !torch.vtensor<[1],si64>) -> !torch.vtensor<[1,64,1,3,128],f32> 
    %341 = torch.operator "onnx.QuantizeLinear"(%340, %95, %94) : (!torch.vtensor<[1,64,1,3,128],f32>, !torch.vtensor<[],f32>, !torch.vtensor<[],si8>) -> !torch.vtensor<[1,64,1,3,128],si8> 
    %342 = torch.operator "onnx.DequantizeLinear"(%341, %95, %94) : (!torch.vtensor<[1,64,1,3,128],si8>, !torch.vtensor<[],f32>, !torch.vtensor<[],si8>) -> !torch.vtensor<[1,64,1,3,128],f32> 
    %343 = torch.operator "onnx.Transpose"(%342) {torch.onnx.perm = [3 : si64, 1 : si64, 2 : si64, 0 : si64, 4 : si64]} : (!torch.vtensor<[1,64,1,3,128],f32>) -> !torch.vtensor<[3,64,1,1,128],f32> 
    %344 = torch.operator "onnx.QuantizeLinear"(%343, %95, %94) : (!torch.vtensor<[3,64,1,1,128],f32>, !torch.vtensor<[],f32>, !torch.vtensor<[],si8>) -> !torch.vtensor<[3,64,1,1,128],si8> 
    %345 = torch.operator "onnx.DequantizeLinear"(%344, %95, %94) : (!torch.vtensor<[3,64,1,1,128],si8>, !torch.vtensor<[],f32>, !torch.vtensor<[],si8>) -> !torch.vtensor<[3,64,1,1,128],f32> 
    %346 = torch.operator "onnx.Squeeze"(%345, %2) : (!torch.vtensor<[3,64,1,1,128],f32>, !torch.vtensor<[1],si64>) -> !torch.vtensor<[3,64,1,128],f32> 
    %347 = torch.operator "onnx.QuantizeLinear"(%346, %95, %94) : (!torch.vtensor<[3,64,1,128],f32>, !torch.vtensor<[],f32>, !torch.vtensor<[],si8>) -> !torch.vtensor<[3,64,1,128],si8> 
    %348 = torch.operator "onnx.DequantizeLinear"(%347, %95, %94) : (!torch.vtensor<[3,64,1,128],si8>, !torch.vtensor<[],f32>, !torch.vtensor<[],si8>) -> !torch.vtensor<[3,64,1,128],f32> 
    %349 = torch.operator "onnx.Gather"(%348, %3) {torch.onnx.axis = 0 : si64} : (!torch.vtensor<[3,64,1,128],f32>, !torch.vtensor<[],si64>) -> !torch.vtensor<[64,1,128],f32> 
    %350 = torch.operator "onnx.Gather"(%348, %4) {torch.onnx.axis = 0 : si64} : (!torch.vtensor<[3,64,1,128],f32>, !torch.vtensor<[],si64>) -> !torch.vtensor<[64,1,128],f32> 
    %351 = torch.operator "onnx.Gather"(%348, %5) {torch.onnx.axis = 0 : si64} : (!torch.vtensor<[3,64,1,128],f32>, !torch.vtensor<[],si64>) -> !torch.vtensor<[64,1,128],f32> 
    %352 = torch.operator "onnx.QuantizeLinear"(%349, %95, %94) : (!torch.vtensor<[64,1,128],f32>, !torch.vtensor<[],f32>, !torch.vtensor<[],si8>) -> !torch.vtensor<[64,1,128],si8> 
    %353 = torch.operator "onnx.QuantizeLinear"(%350, %95, %94) : (!torch.vtensor<[64,1,128],f32>, !torch.vtensor<[],f32>, !torch.vtensor<[],si8>) -> !torch.vtensor<[64,1,128],si8> 
    %354 = torch.operator "onnx.QuantizeLinear"(%351, %95, %94) : (!torch.vtensor<[64,1,128],f32>, !torch.vtensor<[],f32>, !torch.vtensor<[],si8>) -> !torch.vtensor<[64,1,128],si8> 
    %355 = torch.operator "onnx.DequantizeLinear"(%352, %95, %94) : (!torch.vtensor<[64,1,128],si8>, !torch.vtensor<[],f32>, !torch.vtensor<[],si8>) -> !torch.vtensor<[64,1,128],f32> 
    %356 = torch.operator "onnx.DequantizeLinear"(%353, %95, %94) : (!torch.vtensor<[64,1,128],si8>, !torch.vtensor<[],f32>, !torch.vtensor<[],si8>) -> !torch.vtensor<[64,1,128],f32> 
    %357 = torch.operator "onnx.DequantizeLinear"(%354, %95, %94) : (!torch.vtensor<[64,1,128],si8>, !torch.vtensor<[],f32>, !torch.vtensor<[],si8>) -> !torch.vtensor<[64,1,128],f32> 
    %358 = torch.operator "onnx.Reshape"(%355, %6) {torch.onnx.allowzero = 1 : si64} : (!torch.vtensor<[64,1,128],f32>, !torch.vtensor<[3],si64>) -> !torch.vtensor<[64,4,32],f32> 
    %359 = torch.operator "onnx.Reshape"(%356, %6) {torch.onnx.allowzero = 1 : si64} : (!torch.vtensor<[64,1,128],f32>, !torch.vtensor<[3],si64>) -> !torch.vtensor<[64,4,32],f32> 
    %360 = torch.operator "onnx.Reshape"(%357, %6) {torch.onnx.allowzero = 1 : si64} : (!torch.vtensor<[64,1,128],f32>, !torch.vtensor<[3],si64>) -> !torch.vtensor<[64,4,32],f32> 
    %361 = torch.operator "onnx.QuantizeLinear"(%358, %95, %94) : (!torch.vtensor<[64,4,32],f32>, !torch.vtensor<[],f32>, !torch.vtensor<[],si8>) -> !torch.vtensor<[64,4,32],si8> 
    %362 = torch.operator "onnx.QuantizeLinear"(%359, %95, %94) : (!torch.vtensor<[64,4,32],f32>, !torch.vtensor<[],f32>, !torch.vtensor<[],si8>) -> !torch.vtensor<[64,4,32],si8> 
    %363 = torch.operator "onnx.QuantizeLinear"(%360, %95, %94) : (!torch.vtensor<[64,4,32],f32>, !torch.vtensor<[],f32>, !torch.vtensor<[],si8>) -> !torch.vtensor<[64,4,32],si8> 
    %364 = torch.operator "onnx.DequantizeLinear"(%361, %95, %94) : (!torch.vtensor<[64,4,32],si8>, !torch.vtensor<[],f32>, !torch.vtensor<[],si8>) -> !torch.vtensor<[64,4,32],f32> 
    %365 = torch.operator "onnx.DequantizeLinear"(%362, %95, %94) : (!torch.vtensor<[64,4,32],si8>, !torch.vtensor<[],f32>, !torch.vtensor<[],si8>) -> !torch.vtensor<[64,4,32],f32> 
    %366 = torch.operator "onnx.DequantizeLinear"(%363, %95, %94) : (!torch.vtensor<[64,4,32],si8>, !torch.vtensor<[],f32>, !torch.vtensor<[],si8>) -> !torch.vtensor<[64,4,32],f32> 
    %367 = torch.operator "onnx.Transpose"(%364) {torch.onnx.perm = [1 : si64, 0 : si64, 2 : si64]} : (!torch.vtensor<[64,4,32],f32>) -> !torch.vtensor<[4,64,32],f32> 
    %368 = torch.operator "onnx.Transpose"(%365) {torch.onnx.perm = [1 : si64, 0 : si64, 2 : si64]} : (!torch.vtensor<[64,4,32],f32>) -> !torch.vtensor<[4,64,32],f32> 
    %369 = torch.operator "onnx.Transpose"(%366) {torch.onnx.perm = [1 : si64, 0 : si64, 2 : si64]} : (!torch.vtensor<[64,4,32],f32>) -> !torch.vtensor<[4,64,32],f32> 
    %370 = torch.operator "onnx.QuantizeLinear"(%367, %95, %94) : (!torch.vtensor<[4,64,32],f32>, !torch.vtensor<[],f32>, !torch.vtensor<[],si8>) -> !torch.vtensor<[4,64,32],si8> 
    %371 = torch.operator "onnx.QuantizeLinear"(%368, %95, %94) : (!torch.vtensor<[4,64,32],f32>, !torch.vtensor<[],f32>, !torch.vtensor<[],si8>) -> !torch.vtensor<[4,64,32],si8> 
    %372 = torch.operator "onnx.QuantizeLinear"(%369, %95, %94) : (!torch.vtensor<[4,64,32],f32>, !torch.vtensor<[],f32>, !torch.vtensor<[],si8>) -> !torch.vtensor<[4,64,32],si8> 
    %373 = torch.operator "onnx.DequantizeLinear"(%370, %95, %94) : (!torch.vtensor<[4,64,32],si8>, !torch.vtensor<[],f32>, !torch.vtensor<[],si8>) -> !torch.vtensor<[4,64,32],f32> 
    %374 = torch.operator "onnx.DequantizeLinear"(%371, %95, %94) : (!torch.vtensor<[4,64,32],si8>, !torch.vtensor<[],f32>, !torch.vtensor<[],si8>) -> !torch.vtensor<[4,64,32],f32> 
    %375 = torch.operator "onnx.DequantizeLinear"(%372, %95, %94) : (!torch.vtensor<[4,64,32],si8>, !torch.vtensor<[],f32>, !torch.vtensor<[],si8>) -> !torch.vtensor<[4,64,32],f32> 
    %376 = torch.operator "onnx.Reshape"(%373, %7) {torch.onnx.allowzero = 1 : si64} : (!torch.vtensor<[4,64,32],f32>, !torch.vtensor<[4],si64>) -> !torch.vtensor<[1,4,64,32],f32> 
    %377 = torch.operator "onnx.Transpose"(%374) {torch.onnx.perm = [0 : si64, 2 : si64, 1 : si64]} : (!torch.vtensor<[4,64,32],f32>) -> !torch.vtensor<[4,32,64],f32> 
    %378 = torch.operator "onnx.Reshape"(%375, %7) {torch.onnx.allowzero = 1 : si64} : (!torch.vtensor<[4,64,32],f32>, !torch.vtensor<[4],si64>) -> !torch.vtensor<[1,4,64,32],f32> 
    %379 = torch.operator "onnx.QuantizeLinear"(%376, %95, %94) : (!torch.vtensor<[1,4,64,32],f32>, !torch.vtensor<[],f32>, !torch.vtensor<[],si8>) -> !torch.vtensor<[1,4,64,32],si8> 
    %380 = torch.operator "onnx.QuantizeLinear"(%377, %95, %94) : (!torch.vtensor<[4,32,64],f32>, !torch.vtensor<[],f32>, !torch.vtensor<[],si8>) -> !torch.vtensor<[4,32,64],si8> 
    %381 = torch.operator "onnx.QuantizeLinear"(%378, %95, %94) : (!torch.vtensor<[1,4,64,32],f32>, !torch.vtensor<[],f32>, !torch.vtensor<[],si8>) -> !torch.vtensor<[1,4,64,32],si8> 
    %382 = torch.operator "onnx.DequantizeLinear"(%379, %95, %94) : (!torch.vtensor<[1,4,64,32],si8>, !torch.vtensor<[],f32>, !torch.vtensor<[],si8>) -> !torch.vtensor<[1,4,64,32],f32> 
    %383 = torch.operator "onnx.DequantizeLinear"(%380, %95, %94) : (!torch.vtensor<[4,32,64],si8>, !torch.vtensor<[],f32>, !torch.vtensor<[],si8>) -> !torch.vtensor<[4,32,64],f32> 
    %384 = torch.operator "onnx.DequantizeLinear"(%381, %95, %94) : (!torch.vtensor<[1,4,64,32],si8>, !torch.vtensor<[],f32>, !torch.vtensor<[],si8>) -> !torch.vtensor<[1,4,64,32],f32> 
    %385 = torch.operator "onnx.Mul"(%382, %192) : (!torch.vtensor<[1,4,64,32],f32>, !torch.vtensor<[1],f32>) -> !torch.vtensor<[1,4,64,32],f32> 
    %386 = torch.operator "onnx.Reshape"(%383, %8) {torch.onnx.allowzero = 0 : si64} : (!torch.vtensor<[4,32,64],f32>, !torch.vtensor<[4],si64>) -> !torch.vtensor<[1,4,32,64],f32> 
    %387 = torch.operator "onnx.QuantizeLinear"(%385, %97, %96) : (!torch.vtensor<[1,4,64,32],f32>, !torch.vtensor<[],f32>, !torch.vtensor<[],si8>) -> !torch.vtensor<[1,4,64,32],si8> 
    %388 = torch.operator "onnx.QuantizeLinear"(%386, %95, %94) : (!torch.vtensor<[1,4,32,64],f32>, !torch.vtensor<[],f32>, !torch.vtensor<[],si8>) -> !torch.vtensor<[1,4,32,64],si8> 
    %389 = torch.operator "onnx.DequantizeLinear"(%387, %97, %96) : (!torch.vtensor<[1,4,64,32],si8>, !torch.vtensor<[],f32>, !torch.vtensor<[],si8>) -> !torch.vtensor<[1,4,64,32],f32> 
    %390 = torch.operator "onnx.DequantizeLinear"(%388, %95, %94) : (!torch.vtensor<[1,4,32,64],si8>, !torch.vtensor<[],f32>, !torch.vtensor<[],si8>) -> !torch.vtensor<[1,4,32,64],f32> 
    %391 = torch.operator "onnx.Mul"(%390, %192) : (!torch.vtensor<[1,4,32,64],f32>, !torch.vtensor<[1],f32>) -> !torch.vtensor<[1,4,32,64],f32> 
    %392 = torch.operator "onnx.QuantizeLinear"(%391, %99, %98) : (!torch.vtensor<[1,4,32,64],f32>, !torch.vtensor<[],f32>, !torch.vtensor<[],si8>) -> !torch.vtensor<[1,4,32,64],si8> 
    %393 = torch.operator "onnx.DequantizeLinear"(%392, %99, %98) : (!torch.vtensor<[1,4,32,64],si8>, !torch.vtensor<[],f32>, !torch.vtensor<[],si8>) -> !torch.vtensor<[1,4,32,64],f32> 
    %394 = torch.operator "onnx.MatMul"(%389, %393) : (!torch.vtensor<[1,4,64,32],f32>, !torch.vtensor<[1,4,32,64],f32>) -> !torch.vtensor<[1,4,64,64],f32> 
    %395 = torch.operator "onnx.QuantizeLinear"(%394, %101, %100) : (!torch.vtensor<[1,4,64,64],f32>, !torch.vtensor<[],f32>, !torch.vtensor<[],si8>) -> !torch.vtensor<[1,4,64,64],si8> 
    %396 = torch.operator "onnx.DequantizeLinear"(%395, %101, %100) : (!torch.vtensor<[1,4,64,64],si8>, !torch.vtensor<[],f32>, !torch.vtensor<[],si8>) -> !torch.vtensor<[1,4,64,64],f32> 
    %397 = torch.operator "onnx.Softmax"(%396) {torch.onnx.axis = -1 : si64} : (!torch.vtensor<[1,4,64,64],f32>) -> !torch.vtensor<[1,4,64,64],f32> 
    %398 = torch.operator "onnx.QuantizeLinear"(%397, %103, %102) : (!torch.vtensor<[1,4,64,64],f32>, !torch.vtensor<[],f32>, !torch.vtensor<[],si8>) -> !torch.vtensor<[1,4,64,64],si8> 
    %399 = torch.operator "onnx.DequantizeLinear"(%398, %103, %102) : (!torch.vtensor<[1,4,64,64],si8>, !torch.vtensor<[],f32>, !torch.vtensor<[],si8>) -> !torch.vtensor<[1,4,64,64],f32> 
    %400 = torch.operator "onnx.MatMul"(%399, %384) : (!torch.vtensor<[1,4,64,64],f32>, !torch.vtensor<[1,4,64,32],f32>) -> !torch.vtensor<[1,4,64,32],f32> 
    %401 = torch.operator "onnx.QuantizeLinear"(%400, %105, %104) : (!torch.vtensor<[1,4,64,32],f32>, !torch.vtensor<[],f32>, !torch.vtensor<[],si8>) -> !torch.vtensor<[1,4,64,32],si8> 
    %402 = torch.operator "onnx.DequantizeLinear"(%401, %105, %104) : (!torch.vtensor<[1,4,64,32],si8>, !torch.vtensor<[],f32>, !torch.vtensor<[],si8>) -> !torch.vtensor<[1,4,64,32],f32> 
    %403 = torch.operator "onnx.Transpose"(%402) {torch.onnx.perm = [2 : si64, 0 : si64, 1 : si64, 3 : si64]} : (!torch.vtensor<[1,4,64,32],f32>) -> !torch.vtensor<[64,1,4,32],f32> 
    %404 = torch.operator "onnx.QuantizeLinear"(%403, %105, %104) : (!torch.vtensor<[64,1,4,32],f32>, !torch.vtensor<[],f32>, !torch.vtensor<[],si8>) -> !torch.vtensor<[64,1,4,32],si8> 
    %405 = torch.operator "onnx.DequantizeLinear"(%404, %105, %104) : (!torch.vtensor<[64,1,4,32],si8>, !torch.vtensor<[],f32>, !torch.vtensor<[],si8>) -> !torch.vtensor<[64,1,4,32],f32> 
    %406 = torch.operator "onnx.Reshape"(%405, %9) {torch.onnx.allowzero = 1 : si64} : (!torch.vtensor<[64,1,4,32],f32>, !torch.vtensor<[2],si64>) -> !torch.vtensor<[64,128],f32> 
    %407 = torch.operator "onnx.QuantizeLinear"(%406, %105, %104) : (!torch.vtensor<[64,128],f32>, !torch.vtensor<[],f32>, !torch.vtensor<[],si8>) -> !torch.vtensor<[64,128],si8> 
    %408 = torch.operator "onnx.DequantizeLinear"(%407, %105, %104) : (!torch.vtensor<[64,128],si8>, !torch.vtensor<[],f32>, !torch.vtensor<[],si8>) -> !torch.vtensor<[64,128],f32> 
    %409 = torch.operator "onnx.Gemm"(%408, %182, %178) {torch.onnx.alpha = 1.000000e+00 : f32, torch.onnx.beta = 1.000000e+00 : f32, torch.onnx.transA = 0 : si64, torch.onnx.transB = 1 : si64} : (!torch.vtensor<[64,128],f32>, !torch.vtensor<[128,128],f32>, !torch.vtensor<[128],f32>) -> !torch.vtensor<[64,128],f32> 
    %410 = torch.operator "onnx.QuantizeLinear"(%409, %107, %106) : (!torch.vtensor<[64,128],f32>, !torch.vtensor<[],f32>, !torch.vtensor<[],si8>) -> !torch.vtensor<[64,128],si8> 
    %411 = torch.operator "onnx.DequantizeLinear"(%410, %107, %106) : (!torch.vtensor<[64,128],si8>, !torch.vtensor<[],f32>, !torch.vtensor<[],si8>) -> !torch.vtensor<[64,128],f32> 
    %412 = torch.operator "onnx.Reshape"(%411, %10) {torch.onnx.allowzero = 1 : si64} : (!torch.vtensor<[64,128],f32>, !torch.vtensor<[3],si64>) -> !torch.vtensor<[64,1,128],f32> 
    %413 = torch.operator "onnx.QuantizeLinear"(%412, %107, %106) : (!torch.vtensor<[64,1,128],f32>, !torch.vtensor<[],f32>, !torch.vtensor<[],si8>) -> !torch.vtensor<[64,1,128],si8> 
    %414 = torch.operator "onnx.DequantizeLinear"(%413, %107, %106) : (!torch.vtensor<[64,1,128],si8>, !torch.vtensor<[],f32>, !torch.vtensor<[],si8>) -> !torch.vtensor<[64,1,128],f32> 
    %415 = torch.operator "onnx.Transpose"(%414) {torch.onnx.perm = [1 : si64, 0 : si64, 2 : si64]} : (!torch.vtensor<[64,1,128],f32>) -> !torch.vtensor<[1,64,128],f32> 
    %416 = torch.operator "onnx.QuantizeLinear"(%415, %107, %106) : (!torch.vtensor<[1,64,128],f32>, !torch.vtensor<[],f32>, !torch.vtensor<[],si8>) -> !torch.vtensor<[1,64,128],si8> 
    %417 = torch.operator "onnx.DequantizeLinear"(%416, %107, %106) : (!torch.vtensor<[1,64,128],si8>, !torch.vtensor<[],f32>, !torch.vtensor<[],si8>) -> !torch.vtensor<[1,64,128],f32> 
    %418 = torch.operator "onnx.Add"(%324, %417) : (!torch.vtensor<[1,64,128],f32>, !torch.vtensor<[1,64,128],f32>) -> !torch.vtensor<[1,64,128],f32> 
    %419 = torch.operator "onnx.QuantizeLinear"(%418, %112, %111) : (!torch.vtensor<[1,64,128],f32>, !torch.vtensor<[],f32>, !torch.vtensor<[],si8>) -> !torch.vtensor<[1,64,128],si8> 
    %420 = torch.operator "onnx.DequantizeLinear"(%419, %112, %111) : (!torch.vtensor<[1,64,128],si8>, !torch.vtensor<[],f32>, !torch.vtensor<[],si8>) -> !torch.vtensor<[1,64,128],f32> 
    %421 = torch.operator "onnx.LayerNormalization"(%420, %181, %179) {torch.onnx.axis = -1 : si64, torch.onnx.epsilon = 9.99999974E-6 : f32, torch.onnx.stash_type = 1 : si64} : (!torch.vtensor<[1,64,128],f32>, !torch.vtensor<[128],f32>, !torch.vtensor<[128],f32>) -> !torch.vtensor<[1,64,128],f32> 
    %422 = torch.operator "onnx.QuantizeLinear"(%421, %114, %113) : (!torch.vtensor<[1,64,128],f32>, !torch.vtensor<[],f32>, !torch.vtensor<[],si8>) -> !torch.vtensor<[1,64,128],si8> 
    %423 = torch.operator "onnx.DequantizeLinear"(%422, %114, %113) : (!torch.vtensor<[1,64,128],si8>, !torch.vtensor<[],f32>, !torch.vtensor<[],si8>) -> !torch.vtensor<[1,64,128],f32> 
    %424 = torch.operator "onnx.MatMul"(%423, %189) : (!torch.vtensor<[1,64,128],f32>, !torch.vtensor<[128,512],f32>) -> !torch.vtensor<[1,64,512],f32> 
    %425 = torch.operator "onnx.QuantizeLinear"(%424, %119, %118) : (!torch.vtensor<[1,64,512],f32>, !torch.vtensor<[],f32>, !torch.vtensor<[],si8>) -> !torch.vtensor<[1,64,512],si8> 
    %426 = torch.operator "onnx.DequantizeLinear"(%425, %119, %118) : (!torch.vtensor<[1,64,512],si8>, !torch.vtensor<[],f32>, !torch.vtensor<[],si8>) -> !torch.vtensor<[1,64,512],f32> 
    %427 = torch.operator "onnx.Add"(%426, %183) : (!torch.vtensor<[1,64,512],f32>, !torch.vtensor<[512],f32>) -> !torch.vtensor<[1,64,512],f32> 
    %428 = torch.operator "onnx.QuantizeLinear"(%427, %124, %123) : (!torch.vtensor<[1,64,512],f32>, !torch.vtensor<[],f32>, !torch.vtensor<[],si8>) -> !torch.vtensor<[1,64,512],si8> 
    %429 = torch.operator "onnx.DequantizeLinear"(%428, %124, %123) : (!torch.vtensor<[1,64,512],si8>, !torch.vtensor<[],f32>, !torch.vtensor<[],si8>) -> !torch.vtensor<[1,64,512],f32> 
    %430 = torch.operator "onnx.Div"(%429, %11) : (!torch.vtensor<[1,64,512],f32>, !torch.vtensor<[],f32>) -> !torch.vtensor<[1,64,512],f32> 
    %431 = torch.operator "onnx.Erf"(%430) : (!torch.vtensor<[1,64,512],f32>) -> !torch.vtensor<[1,64,512],f32> 
    %432 = torch.operator "onnx.QuantizeLinear"(%431, %126, %125) : (!torch.vtensor<[1,64,512],f32>, !torch.vtensor<[],f32>, !torch.vtensor<[],si8>) -> !torch.vtensor<[1,64,512],si8> 
    %433 = torch.operator "onnx.DequantizeLinear"(%432, %126, %125) : (!torch.vtensor<[1,64,512],si8>, !torch.vtensor<[],f32>, !torch.vtensor<[],si8>) -> !torch.vtensor<[1,64,512],f32> 
    %434 = torch.operator "onnx.Add"(%433, %194) : (!torch.vtensor<[1,64,512],f32>, !torch.vtensor<[],f32>) -> !torch.vtensor<[1,64,512],f32> 
    %435 = torch.operator "onnx.QuantizeLinear"(%434, %128, %127) : (!torch.vtensor<[1,64,512],f32>, !torch.vtensor<[],f32>, !torch.vtensor<[],si8>) -> !torch.vtensor<[1,64,512],si8> 
    %436 = torch.operator "onnx.DequantizeLinear"(%435, %128, %127) : (!torch.vtensor<[1,64,512],si8>, !torch.vtensor<[],f32>, !torch.vtensor<[],si8>) -> !torch.vtensor<[1,64,512],f32> 
    %437 = torch.operator "onnx.Mul"(%195, %436) : (!torch.vtensor<[],f32>, !torch.vtensor<[1,64,512],f32>) -> !torch.vtensor<[1,64,512],f32> 
    %438 = torch.operator "onnx.QuantizeLinear"(%437, %130, %129) : (!torch.vtensor<[1,64,512],f32>, !torch.vtensor<[],f32>, !torch.vtensor<[],si8>) -> !torch.vtensor<[1,64,512],si8> 
    %439 = torch.operator "onnx.DequantizeLinear"(%438, %130, %129) : (!torch.vtensor<[1,64,512],si8>, !torch.vtensor<[],f32>, !torch.vtensor<[],si8>) -> !torch.vtensor<[1,64,512],f32> 
    %440 = torch.operator "onnx.Mul"(%429, %439) : (!torch.vtensor<[1,64,512],f32>, !torch.vtensor<[1,64,512],f32>) -> !torch.vtensor<[1,64,512],f32> 
    %441 = torch.operator "onnx.QuantizeLinear"(%440, %132, %131) : (!torch.vtensor<[1,64,512],f32>, !torch.vtensor<[],f32>, !torch.vtensor<[],si8>) -> !torch.vtensor<[1,64,512],si8> 
    %442 = torch.operator "onnx.DequantizeLinear"(%441, %132, %131) : (!torch.vtensor<[1,64,512],si8>, !torch.vtensor<[],f32>, !torch.vtensor<[],si8>) -> !torch.vtensor<[1,64,512],f32> 
    %443 = torch.operator "onnx.MatMul"(%442, %190) : (!torch.vtensor<[1,64,512],f32>, !torch.vtensor<[512,128],f32>) -> !torch.vtensor<[1,64,128],f32> 
    %444 = torch.operator "onnx.QuantizeLinear"(%443, %137, %136) : (!torch.vtensor<[1,64,128],f32>, !torch.vtensor<[],f32>, !torch.vtensor<[],si8>) -> !torch.vtensor<[1,64,128],si8> 
    %445 = torch.operator "onnx.DequantizeLinear"(%444, %137, %136) : (!torch.vtensor<[1,64,128],si8>, !torch.vtensor<[],f32>, !torch.vtensor<[],si8>) -> !torch.vtensor<[1,64,128],f32> 
    %446 = torch.operator "onnx.Add"(%445, %184) : (!torch.vtensor<[1,64,128],f32>, !torch.vtensor<[128],f32>) -> !torch.vtensor<[1,64,128],f32> 
    %447 = torch.operator "onnx.QuantizeLinear"(%446, %142, %141) : (!torch.vtensor<[1,64,128],f32>, !torch.vtensor<[],f32>, !torch.vtensor<[],si8>) -> !torch.vtensor<[1,64,128],si8> 
    %448 = torch.operator "onnx.DequantizeLinear"(%447, %142, %141) : (!torch.vtensor<[1,64,128],si8>, !torch.vtensor<[],f32>, !torch.vtensor<[],si8>) -> !torch.vtensor<[1,64,128],f32> 
    %449 = torch.operator "onnx.Add"(%420, %448) : (!torch.vtensor<[1,64,128],f32>, !torch.vtensor<[1,64,128],f32>) -> !torch.vtensor<[1,64,128],f32> 
    %450 = torch.operator "onnx.QuantizeLinear"(%449, %144, %143) : (!torch.vtensor<[1,64,128],f32>, !torch.vtensor<[],f32>, !torch.vtensor<[],si8>) -> !torch.vtensor<[1,64,128],si8> 
    %451 = torch.operator "onnx.DequantizeLinear"(%450, %144, %143) : (!torch.vtensor<[1,64,128],si8>, !torch.vtensor<[],f32>, !torch.vtensor<[],si8>) -> !torch.vtensor<[1,64,128],f32> 
    %452 = torch.operator "onnx.Gather"(%451, %3) {torch.onnx.axis = 1 : si64} : (!torch.vtensor<[1,64,128],f32>, !torch.vtensor<[],si64>) -> !torch.vtensor<[1,128],f32> 
    %453 = torch.operator "onnx.QuantizeLinear"(%452, %144, %143) : (!torch.vtensor<[1,128],f32>, !torch.vtensor<[],f32>, !torch.vtensor<[],si8>) -> !torch.vtensor<[1,128],si8> 
    %454 = torch.operator "onnx.DequantizeLinear"(%453, %144, %143) : (!torch.vtensor<[1,128],si8>, !torch.vtensor<[],f32>, !torch.vtensor<[],si8>) -> !torch.vtensor<[1,128],f32> 
    %455 = torch.operator "onnx.Gemm"(%454, %186, %185) {torch.onnx.alpha = 1.000000e+00 : f32, torch.onnx.beta = 1.000000e+00 : f32, torch.onnx.transA = 0 : si64, torch.onnx.transB = 1 : si64} : (!torch.vtensor<[1,128],f32>, !torch.vtensor<[16,128],f32>, !torch.vtensor<[16],f32>) -> !torch.vtensor<[1,16],f32> 
    %456 = torch.operator "onnx.QuantizeLinear"(%455, %146, %145) : (!torch.vtensor<[1,16],f32>, !torch.vtensor<[],f32>, !torch.vtensor<[],si8>) -> !torch.vtensor<[1,16],si8> 
    %457 = torch.operator "onnx.DequantizeLinear"(%456, %146, %145) : (!torch.vtensor<[1,16],si8>, !torch.vtensor<[],f32>, !torch.vtensor<[],si8>) -> !torch.vtensor<[1,16],f32> 
    return %457 : !torch.vtensor<[1,16],f32>
  }
}

{-#
  dialect_resources: {
    builtin: {
      val_9: "…",
      val_10: "0x080000000000000000000000",
      val_11: "0x08000000FEFFFFFFFFFFFFFF",
      val_12: "0x080000000000000000000000",
      val_13: "0x080000000100000000000000",
      val_14: "0x080000000200000000000000",
      val_19: "0x08000000400000000000000004000000000000002000000000000000",
      val_35: "…",
      val_68: "…",
      val_80: "0x0800000040000000000000008000000000000000",
      val_85: "0x08000000400000000000000001000000000000008000000000000000",
      val_90: "0x08000000F304B53F",
      _blocks.0.norm1.weight_quantized: "…",
      val_2_quantized: "…",
      _blocks.0.attn.in_proj_bias_quantized: "…",
      val_70_quantized: "0x080000007F",
      _blocks.0.attn.out_proj.weight_quantized: "…",
      val_88_quantized: "…",
      _blocks.0.mlp.0.bias_quantized: "…",
      val_93_quantized: "0x080000007F",
      val_95_quantized: "0x080000007F",
      val_97_quantized: "…",
      _blocks.0.mlp.2.bias_quantized: "…",
      val_101_quantized: "…",
      _blocks.1.attn.out_proj.weight_quantized: "…",
      val_181_quantized: "…",
      _blocks.1.mlp.0.bias_quantized: "…",
      val_190_quantized: "…",
      _blocks.1.mlp.2.bias_quantized: "…",
      _head.weight_quantized: "…",
      _blocks.0.norm1.bias_quantized: "…",
      _blocks.0.norm1.bias_quantized_scale: "0x08000000947F9639",
      _blocks.0.norm1.bias0_quantized: "…",
      _blocks.0.norm1.bias0_quantized_scale: "0x08000000996A4536",
      _blocks.0.norm1.bias1_quantized: "…",
      _blocks.0.norm1.bias1_quantized_scale: "0x080000006C869639",
      _blocks.0.norm1.bias2_quantized: "…",
      _blocks.0.norm1.bias2_quantized_scale: "0x080000004A319E39",
      _blocks.0.norm1.bias3_quantized: "…",
      _blocks.0.norm1.bias3_quantized_scale: "0x08000000CEF25636",
      _blocks.0.norm1.bias4_quantized: "…",
      _blocks.0.norm1.bias4_quantized_scale: "0x08000000767B9D39",
      _head.bias_quantized: "…",
      _head.bias_quantized_scale: "0x080000002DFAD337"
    }
  }
#-}

