module {
  func.func @main_graph(%arg0: !torch.vtensor<[1,64,128],f32>) -> !torch.vtensor<[1,16],f32> attributes {torch.onnx_meta.ir_version = 10 : si64, torch.onnx_meta.opset_version = 17 : si64, torch.onnx_meta.producer_name = "onnx.quantize", torch.onnx_meta.producer_version = "0.1.0"} {
    %0 = torch.operator "onnx.Constant"() {torch.onnx.value = dense_resource<val_9> : tensor<4xsi64>} : () -> !torch.vtensor<[4],si64>
    %1 = torch.operator "onnx.Constant"() {torch.onnx.value = dense_resource<val_10> : tensor<1xsi64>} : () -> !torch.vtensor<[1],si64>
    %2 = torch.operator "onnx.Constant"() {torch.onnx.value = dense_resource<val_11> : tensor<1xsi64>} : () -> !torch.vtensor<[1],si64>
    %3 = torch.operator "onnx.Constant"() {torch.onnx.value = dense_resource<val_12> : tensor<si64>} : () -> !torch.vtensor<[],si64>
    %4 = torch.operator "onnx.Constant"() {torch.onnx.value = dense_resource<val_13> : tensor<si64>} : () -> !torch.vtensor<[],si64>
    %5 = torch.operator "onnx.Constant"() {torch.onnx.value = dense_resource<val_14> : tensor<si64>} : () -> !torch.vtensor<[],si64>
    %6 = torch.operator "onnx.Constant"() {torch.onnx.value = dense_resource<val_19> : tensor<3xsi64>} : () -> !torch.vtensor<[3],si64>
    %7 = torch.operator "onnx.Constant"() {torch.onnx.value = dense_resource<val_35> : tensor<4xsi64>} : () -> !torch.vtensor<[4],si64>
    %8 = torch.operator "onnx.Constant"() {torch.onnx.value = dense_resource<val_80> : tensor<2xsi64>} : () -> !torch.vtensor<[2],si64>
    %9 = torch.operator "onnx.Constant"() {torch.onnx.value = dense_resource<val_85> : tensor<3xsi64>} : () -> !torch.vtensor<[3],si64>
    %10 = torch.operator "onnx.Constant"() {torch.onnx.value = dense_resource<val_90> : tensor<f32>} : () -> !torch.vtensor<[],f32>
    %11 = torch.operator "onnx.Constant"() {torch.onnx.value = dense<0> : tensor<si8>} : () -> !torch.vtensor<[],si8>
    %12 = torch.operator "onnx.Constant"() {torch.onnx.value = dense<0.0352609046> : tensor<f32>} : () -> !torch.vtensor<[],f32>
    %13 = torch.operator "onnx.Constant"() {torch.onnx.value = dense<0> : tensor<si8>} : () -> !torch.vtensor<[],si8>
    %14 = torch.operator "onnx.Constant"() {torch.onnx.value = dense<0.00787401571> : tensor<f32>} : () -> !torch.vtensor<[],f32>
    %15 = torch.operator "onnx.Constant"() {torch.onnx.value = dense_resource<_blocks.0.norm1.weight_quantized> : tensor<128xsi8>} : () -> !torch.vtensor<[128],si8>
    %16 = torch.operator "onnx.Constant"() {torch.onnx.value = dense<0> : tensor<si8>} : () -> !torch.vtensor<[],si8>
    %17 = torch.operator "onnx.Constant"() {torch.onnx.value = dense<0.0344815552> : tensor<f32>} : () -> !torch.vtensor<[],f32>
    %18 = torch.operator "onnx.Constant"() {torch.onnx.value = dense<0> : tensor<si8>} : () -> !torch.vtensor<[],si8>
    %19 = torch.operator "onnx.Constant"() {torch.onnx.value = dense<8.52381112E-4> : tensor<f32>} : () -> !torch.vtensor<[],f32>
    %20 = torch.operator "onnx.Constant"() {torch.onnx.value = dense_resource<val_2_quantized> : tensor<128x384xsi8>} : () -> !torch.vtensor<[128,384],si8>
    %21 = torch.operator "onnx.Constant"() {torch.onnx.value = dense<0> : tensor<si8>} : () -> !torch.vtensor<[],si8>
    %22 = torch.operator "onnx.Constant"() {torch.onnx.value = dense<0.0277530625> : tensor<f32>} : () -> !torch.vtensor<[],f32>
    %23 = torch.operator "onnx.Constant"() {torch.onnx.value = dense<0> : tensor<si8>} : () -> !torch.vtensor<[],si8>
    %24 = torch.operator "onnx.Constant"() {torch.onnx.value = dense<1.000000e+00> : tensor<f32>} : () -> !torch.vtensor<[],f32>
    %25 = torch.operator "onnx.Constant"() {torch.onnx.value = dense_resource<_blocks.0.attn.in_proj_bias_quantized> : tensor<384xsi8>} : () -> !torch.vtensor<[384],si8>
    %26 = torch.operator "onnx.Constant"() {torch.onnx.value = dense<0> : tensor<si8>} : () -> !torch.vtensor<[],si8>
    %27 = torch.operator "onnx.Constant"() {torch.onnx.value = dense<0.0277530625> : tensor<f32>} : () -> !torch.vtensor<[],f32>
    %28 = torch.operator "onnx.Constant"() {torch.onnx.value = dense<0> : tensor<si8>} : () -> !torch.vtensor<[],si8>
    %29 = torch.operator "onnx.Constant"() {torch.onnx.value = dense<0.00278388499> : tensor<f32>} : () -> !torch.vtensor<[],f32>
    %30 = torch.operator "onnx.Constant"() {torch.onnx.value = dense_resource<val_70_quantized> : tensor<1xsi8>} : () -> !torch.vtensor<[1],si8>
    %31 = torch.operator "onnx.Constant"() {torch.onnx.value = dense<0> : tensor<si8>} : () -> !torch.vtensor<[],si8>
    %32 = torch.operator "onnx.Constant"() {torch.onnx.value = dense<0.00981218926> : tensor<f32>} : () -> !torch.vtensor<[],f32>
    %33 = torch.operator "onnx.Constant"() {torch.onnx.value = dense<0> : tensor<si8>} : () -> !torch.vtensor<[],si8>
    %34 = torch.operator "onnx.Constant"() {torch.onnx.value = dense<0.00898755342> : tensor<f32>} : () -> !torch.vtensor<[],f32>
    %35 = torch.operator "onnx.Constant"() {torch.onnx.value = dense<0> : tensor<si8>} : () -> !torch.vtensor<[],si8>
    %36 = torch.operator "onnx.Constant"() {torch.onnx.value = dense<0.0193325449> : tensor<f32>} : () -> !torch.vtensor<[],f32>
    %37 = torch.operator "onnx.Constant"() {torch.onnx.value = dense<0> : tensor<si8>} : () -> !torch.vtensor<[],si8>
    %38 = torch.operator "onnx.Constant"() {torch.onnx.value = dense<0.00787401571> : tensor<f32>} : () -> !torch.vtensor<[],f32>
    %39 = torch.operator "onnx.Constant"() {torch.onnx.value = dense<0> : tensor<si8>} : () -> !torch.vtensor<[],si8>
    %40 = torch.operator "onnx.Constant"() {torch.onnx.value = dense<0.00393981254> : tensor<f32>} : () -> !torch.vtensor<[],f32>
    %41 = torch.operator "onnx.Constant"() {torch.onnx.value = dense<0> : tensor<si8>} : () -> !torch.vtensor<[],si8>
    %42 = torch.operator "onnx.Constant"() {torch.onnx.value = dense<0.00230016885> : tensor<f32>} : () -> !torch.vtensor<[],f32>
    %43 = torch.operator "onnx.Constant"() {torch.onnx.value = dense<0> : tensor<si8>} : () -> !torch.vtensor<[],si8>
    %44 = torch.operator "onnx.Constant"() {torch.onnx.value = dense<6.95951632E-4> : tensor<f32>} : () -> !torch.vtensor<[],f32>
    %45 = torch.operator "onnx.Constant"() {torch.onnx.value = dense_resource<_blocks.0.attn.out_proj.weight_quantized> : tensor<128x128xsi8>} : () -> !torch.vtensor<[128,128],si8>
    %46 = torch.operator "onnx.Constant"() {torch.onnx.value = dense<0> : tensor<si8>} : () -> !torch.vtensor<[],si8>
    %47 = torch.operator "onnx.Constant"() {torch.onnx.value = dense<0.0356850326> : tensor<f32>} : () -> !torch.vtensor<[],f32>
    %48 = torch.operator "onnx.Constant"() {torch.onnx.value = dense<0> : tensor<si8>} : () -> !torch.vtensor<[],si8>
    %49 = torch.operator "onnx.Constant"() {torch.onnx.value = dense<0.0341495089> : tensor<f32>} : () -> !torch.vtensor<[],f32>
    %50 = torch.operator "onnx.Constant"() {torch.onnx.value = dense<0> : tensor<si8>} : () -> !torch.vtensor<[],si8>
    %51 = torch.operator "onnx.Constant"() {torch.onnx.value = dense<6.95970491E-4> : tensor<f32>} : () -> !torch.vtensor<[],f32>
    %52 = torch.operator "onnx.Constant"() {torch.onnx.value = dense_resource<val_88_quantized> : tensor<128x512xsi8>} : () -> !torch.vtensor<[128,512],si8>
    %53 = torch.operator "onnx.Constant"() {torch.onnx.value = dense<0> : tensor<si8>} : () -> !torch.vtensor<[],si8>
    %54 = torch.operator "onnx.Constant"() {torch.onnx.value = dense<0.0222168267> : tensor<f32>} : () -> !torch.vtensor<[],f32>
    %55 = torch.operator "onnx.Constant"() {torch.onnx.value = dense<0> : tensor<si8>} : () -> !torch.vtensor<[],si8>
    %56 = torch.operator "onnx.Constant"() {torch.onnx.value = dense<6.94991322E-4> : tensor<f32>} : () -> !torch.vtensor<[],f32>
    %57 = torch.operator "onnx.Constant"() {torch.onnx.value = dense_resource<_blocks.0.mlp.0.bias_quantized> : tensor<512xsi8>} : () -> !torch.vtensor<[512],si8>
    %58 = torch.operator "onnx.Constant"() {torch.onnx.value = dense<0> : tensor<si8>} : () -> !torch.vtensor<[],si8>
    %59 = torch.operator "onnx.Constant"() {torch.onnx.value = dense<0.0217700116> : tensor<f32>} : () -> !torch.vtensor<[],f32>
    %60 = torch.operator "onnx.Constant"() {torch.onnx.value = dense<0> : tensor<si8>} : () -> !torch.vtensor<[],si8>
    %61 = torch.operator "onnx.Constant"() {torch.onnx.value = dense<0.00782916602> : tensor<f32>} : () -> !torch.vtensor<[],f32>
    %62 = torch.operator "onnx.Constant"() {torch.onnx.value = dense<0> : tensor<si8>} : () -> !torch.vtensor<[],si8>
    %63 = torch.operator "onnx.Constant"() {torch.onnx.value = dense<0.00787401571> : tensor<f32>} : () -> !torch.vtensor<[],f32>
    %64 = torch.operator "onnx.Constant"() {torch.onnx.value = dense_resource<val_93_quantized> : tensor<si8>} : () -> !torch.vtensor<[],si8>
    %65 = torch.operator "onnx.Constant"() {torch.onnx.value = dense<0> : tensor<si8>} : () -> !torch.vtensor<[],si8>
    %66 = torch.operator "onnx.Constant"() {torch.onnx.value = dense<0.0157031827> : tensor<f32>} : () -> !torch.vtensor<[],f32>
    %67 = torch.operator "onnx.Constant"() {torch.onnx.value = dense<0> : tensor<si8>} : () -> !torch.vtensor<[],si8>
    %68 = torch.operator "onnx.Constant"() {torch.onnx.value = dense<0.00393700786> : tensor<f32>} : () -> !torch.vtensor<[],f32>
    %69 = torch.operator "onnx.Constant"() {torch.onnx.value = dense_resource<val_95_quantized> : tensor<si8>} : () -> !torch.vtensor<[],si8>
    %70 = torch.operator "onnx.Constant"() {torch.onnx.value = dense<0> : tensor<si8>} : () -> !torch.vtensor<[],si8>
    %71 = torch.operator "onnx.Constant"() {torch.onnx.value = dense<0.00785159133> : tensor<f32>} : () -> !torch.vtensor<[],f32>
    %72 = torch.operator "onnx.Constant"() {torch.onnx.value = dense<0> : tensor<si8>} : () -> !torch.vtensor<[],si8>
    %73 = torch.operator "onnx.Constant"() {torch.onnx.value = dense<0.0217080135> : tensor<f32>} : () -> !torch.vtensor<[],f32>
    %74 = torch.operator "onnx.Constant"() {torch.onnx.value = dense<0> : tensor<si8>} : () -> !torch.vtensor<[],si8>
    %75 = torch.operator "onnx.Constant"() {torch.onnx.value = dense<3.47984489E-4> : tensor<f32>} : () -> !torch.vtensor<[],f32>
    %76 = torch.operator "onnx.Constant"() {torch.onnx.value = dense_resource<val_97_quantized> : tensor<512x128xsi8>} : () -> !torch.vtensor<[512,128],si8>
    %77 = torch.operator "onnx.Constant"() {torch.onnx.value = dense<0> : tensor<si8>} : () -> !torch.vtensor<[],si8>
    %78 = torch.operator "onnx.Constant"() {torch.onnx.value = dense<0.00755328266> : tensor<f32>} : () -> !torch.vtensor<[],f32>
    %79 = torch.operator "onnx.Constant"() {torch.onnx.value = dense<0> : tensor<si8>} : () -> !torch.vtensor<[],si8>
    %80 = torch.operator "onnx.Constant"() {torch.onnx.value = dense<3.46422894E-4> : tensor<f32>} : () -> !torch.vtensor<[],f32>
    %81 = torch.operator "onnx.Constant"() {torch.onnx.value = dense_resource<_blocks.0.mlp.2.bias_quantized> : tensor<128xsi8>} : () -> !torch.vtensor<[128],si8>
    %82 = torch.operator "onnx.Constant"() {torch.onnx.value = dense<0> : tensor<si8>} : () -> !torch.vtensor<[],si8>
    %83 = torch.operator "onnx.Constant"() {torch.onnx.value = dense<0.00768792303> : tensor<f32>} : () -> !torch.vtensor<[],f32>
    %84 = torch.operator "onnx.Constant"() {torch.onnx.value = dense<0> : tensor<si8>} : () -> !torch.vtensor<[],si8>
    %85 = torch.operator "onnx.Constant"() {torch.onnx.value = dense<0.036803022> : tensor<f32>} : () -> !torch.vtensor<[],f32>
    %86 = torch.operator "onnx.Constant"() {torch.onnx.value = dense<0> : tensor<si8>} : () -> !torch.vtensor<[],si8>
    %87 = torch.operator "onnx.Constant"() {torch.onnx.value = dense<0.0348287299> : tensor<f32>} : () -> !torch.vtensor<[],f32>
    %88 = torch.operator "onnx.Constant"() {torch.onnx.value = dense<0> : tensor<si8>} : () -> !torch.vtensor<[],si8>
    %89 = torch.operator "onnx.Constant"() {torch.onnx.value = dense<8.52351426E-4> : tensor<f32>} : () -> !torch.vtensor<[],f32>
    %90 = torch.operator "onnx.Constant"() {torch.onnx.value = dense_resource<val_101_quantized> : tensor<128x384xsi8>} : () -> !torch.vtensor<[128,384],si8>
    %91 = torch.operator "onnx.Constant"() {torch.onnx.value = dense<0> : tensor<si8>} : () -> !torch.vtensor<[],si8>
    %92 = torch.operator "onnx.Constant"() {torch.onnx.value = dense<0.0282532163> : tensor<f32>} : () -> !torch.vtensor<[],f32>
    %93 = torch.operator "onnx.Constant"() {torch.onnx.value = dense<0> : tensor<si8>} : () -> !torch.vtensor<[],si8>
    %94 = torch.operator "onnx.Constant"() {torch.onnx.value = dense<0.0282532163> : tensor<f32>} : () -> !torch.vtensor<[],f32>
    %95 = torch.operator "onnx.Constant"() {torch.onnx.value = dense<0> : tensor<si8>} : () -> !torch.vtensor<[],si8>
    %96 = torch.operator "onnx.Constant"() {torch.onnx.value = dense<9.989020e-03> : tensor<f32>} : () -> !torch.vtensor<[],f32>
    %97 = torch.operator "onnx.Constant"() {torch.onnx.value = dense<0> : tensor<si8>} : () -> !torch.vtensor<[],si8>
    %98 = torch.operator "onnx.Constant"() {torch.onnx.value = dense<0.00950119179> : tensor<f32>} : () -> !torch.vtensor<[],f32>
    %99 = torch.operator "onnx.Constant"() {torch.onnx.value = dense<0> : tensor<si8>} : () -> !torch.vtensor<[],si8>
    %100 = torch.operator "onnx.Constant"() {torch.onnx.value = dense<0.0200467072> : tensor<f32>} : () -> !torch.vtensor<[],f32>
    %101 = torch.operator "onnx.Constant"() {torch.onnx.value = dense<0> : tensor<si8>} : () -> !torch.vtensor<[],si8>
    %102 = torch.operator "onnx.Constant"() {torch.onnx.value = dense<0.00787401571> : tensor<f32>} : () -> !torch.vtensor<[],f32>
    %103 = torch.operator "onnx.Constant"() {torch.onnx.value = dense<0> : tensor<si8>} : () -> !torch.vtensor<[],si8>
    %104 = torch.operator "onnx.Constant"() {torch.onnx.value = dense<0.0042429571> : tensor<f32>} : () -> !torch.vtensor<[],f32>
    %105 = torch.operator "onnx.Constant"() {torch.onnx.value = dense<0> : tensor<si8>} : () -> !torch.vtensor<[],si8>
    %106 = torch.operator "onnx.Constant"() {torch.onnx.value = dense<0.00276394677> : tensor<f32>} : () -> !torch.vtensor<[],f32>
    %107 = torch.operator "onnx.Constant"() {torch.onnx.value = dense<0> : tensor<si8>} : () -> !torch.vtensor<[],si8>
    %108 = torch.operator "onnx.Constant"() {torch.onnx.value = dense<6.95962866E-4> : tensor<f32>} : () -> !torch.vtensor<[],f32>
    %109 = torch.operator "onnx.Constant"() {torch.onnx.value = dense_resource<_blocks.1.attn.out_proj.weight_quantized> : tensor<128x128xsi8>} : () -> !torch.vtensor<[128,128],si8>
    %110 = torch.operator "onnx.Constant"() {torch.onnx.value = dense<0> : tensor<si8>} : () -> !torch.vtensor<[],si8>
    %111 = torch.operator "onnx.Constant"() {torch.onnx.value = dense<0.0376986153> : tensor<f32>} : () -> !torch.vtensor<[],f32>
    %112 = torch.operator "onnx.Constant"() {torch.onnx.value = dense<0> : tensor<si8>} : () -> !torch.vtensor<[],si8>
    %113 = torch.operator "onnx.Constant"() {torch.onnx.value = dense<0.0355734713> : tensor<f32>} : () -> !torch.vtensor<[],f32>
    %114 = torch.operator "onnx.Constant"() {torch.onnx.value = dense<0> : tensor<si8>} : () -> !torch.vtensor<[],si8>
    %115 = torch.operator "onnx.Constant"() {torch.onnx.value = dense<6.95968454E-4> : tensor<f32>} : () -> !torch.vtensor<[],f32>
    %116 = torch.operator "onnx.Constant"() {torch.onnx.value = dense_resource<val_181_quantized> : tensor<128x512xsi8>} : () -> !torch.vtensor<[128,512],si8>
    %117 = torch.operator "onnx.Constant"() {torch.onnx.value = dense<0> : tensor<si8>} : () -> !torch.vtensor<[],si8>
    %118 = torch.operator "onnx.Constant"() {torch.onnx.value = dense<0.0218791794> : tensor<f32>} : () -> !torch.vtensor<[],f32>
    %119 = torch.operator "onnx.Constant"() {torch.onnx.value = dense<0> : tensor<si8>} : () -> !torch.vtensor<[],si8>
    %120 = torch.operator "onnx.Constant"() {torch.onnx.value = dense<6.9524959E-4> : tensor<f32>} : () -> !torch.vtensor<[],f32>
    %121 = torch.operator "onnx.Constant"() {torch.onnx.value = dense_resource<_blocks.1.mlp.0.bias_quantized> : tensor<512xsi8>} : () -> !torch.vtensor<[512],si8>
    %122 = torch.operator "onnx.Constant"() {torch.onnx.value = dense<0> : tensor<si8>} : () -> !torch.vtensor<[],si8>
    %123 = torch.operator "onnx.Constant"() {torch.onnx.value = dense<0.0212945677> : tensor<f32>} : () -> !torch.vtensor<[],f32>
    %124 = torch.operator "onnx.Constant"() {torch.onnx.value = dense<0> : tensor<si8>} : () -> !torch.vtensor<[],si8>
    %125 = torch.operator "onnx.Constant"() {torch.onnx.value = dense<0.00782013778> : tensor<f32>} : () -> !torch.vtensor<[],f32>
    %126 = torch.operator "onnx.Constant"() {torch.onnx.value = dense<0> : tensor<si8>} : () -> !torch.vtensor<[],si8>
    %127 = torch.operator "onnx.Constant"() {torch.onnx.value = dense<0.0156861227> : tensor<f32>} : () -> !torch.vtensor<[],f32>
    %128 = torch.operator "onnx.Constant"() {torch.onnx.value = dense<0> : tensor<si8>} : () -> !torch.vtensor<[],si8>
    %129 = torch.operator "onnx.Constant"() {torch.onnx.value = dense<0.00784306135> : tensor<f32>} : () -> !torch.vtensor<[],f32>
    %130 = torch.operator "onnx.Constant"() {torch.onnx.value = dense<0> : tensor<si8>} : () -> !torch.vtensor<[],si8>
    %131 = torch.operator "onnx.Constant"() {torch.onnx.value = dense<0.020846216> : tensor<f32>} : () -> !torch.vtensor<[],f32>
    %132 = torch.operator "onnx.Constant"() {torch.onnx.value = dense<0> : tensor<si8>} : () -> !torch.vtensor<[],si8>
    %133 = torch.operator "onnx.Constant"() {torch.onnx.value = dense<3.47985333E-4> : tensor<f32>} : () -> !torch.vtensor<[],f32>
    %134 = torch.operator "onnx.Constant"() {torch.onnx.value = dense_resource<val_190_quantized> : tensor<512x128xsi8>} : () -> !torch.vtensor<[512,128],si8>
    %135 = torch.operator "onnx.Constant"() {torch.onnx.value = dense<0> : tensor<si8>} : () -> !torch.vtensor<[],si8>
    %136 = torch.operator "onnx.Constant"() {torch.onnx.value = dense<0.00739377318> : tensor<f32>} : () -> !torch.vtensor<[],f32>
    %137 = torch.operator "onnx.Constant"() {torch.onnx.value = dense<0> : tensor<si8>} : () -> !torch.vtensor<[],si8>
    %138 = torch.operator "onnx.Constant"() {torch.onnx.value = dense<3.40789178E-4> : tensor<f32>} : () -> !torch.vtensor<[],f32>
    %139 = torch.operator "onnx.Constant"() {torch.onnx.value = dense_resource<_blocks.1.mlp.2.bias_quantized> : tensor<128xsi8>} : () -> !torch.vtensor<[128],si8>
    %140 = torch.operator "onnx.Constant"() {torch.onnx.value = dense<0> : tensor<si8>} : () -> !torch.vtensor<[],si8>
    %141 = torch.operator "onnx.Constant"() {torch.onnx.value = dense<0.00735247089> : tensor<f32>} : () -> !torch.vtensor<[],f32>
    %142 = torch.operator "onnx.Constant"() {torch.onnx.value = dense<0> : tensor<si8>} : () -> !torch.vtensor<[],si8>
    %143 = torch.operator "onnx.Constant"() {torch.onnx.value = dense<0.0381254479> : tensor<f32>} : () -> !torch.vtensor<[],f32>
    %144 = torch.operator "onnx.Constant"() {torch.onnx.value = dense<0> : tensor<si8>} : () -> !torch.vtensor<[],si8>
    %145 = torch.operator "onnx.Constant"() {torch.onnx.value = dense<0.0196006242> : tensor<f32>} : () -> !torch.vtensor<[],f32>
    %146 = torch.operator "onnx.Constant"() {torch.onnx.value = dense<0> : tensor<si8>} : () -> !torch.vtensor<[],si8>
    %147 = torch.operator "onnx.Constant"() {torch.onnx.value = dense<6.95736671E-4> : tensor<f32>} : () -> !torch.vtensor<[],f32>
    %148 = torch.operator "onnx.Constant"() {torch.onnx.value = dense_resource<_head.weight_quantized> : tensor<16x128xsi8>} : () -> !torch.vtensor<[16,128],si8>
    %149 = torch.operator "onnx.Constant"() {torch.onnx.value = dense_resource<_blocks.0.norm1.bias_quantized> : tensor<128xsi32>} : () -> !torch.vtensor<[128],si32>
    %150 = torch.operator "onnx.Constant"() {torch.onnx.value = dense_resource<_blocks.0.norm1.bias_quantized_scale> : tensor<1xf32>} : () -> !torch.vtensor<[1],f32>
    %151 = torch.operator "onnx.Constant"() {torch.onnx.value = dense<0> : tensor<si32>} : () -> !torch.vtensor<[],si32>
    %152 = torch.operator "onnx.Constant"() {torch.onnx.value = dense_resource<_blocks.0.norm1.bias0_quantized> : tensor<128xsi32>} : () -> !torch.vtensor<[128],si32>
    %153 = torch.operator "onnx.Constant"() {torch.onnx.value = dense_resource<_blocks.0.norm1.bias0_quantized_scale> : tensor<1xf32>} : () -> !torch.vtensor<[1],f32>
    %154 = torch.operator "onnx.Constant"() {torch.onnx.value = dense<0> : tensor<si32>} : () -> !torch.vtensor<[],si32>
    %155 = torch.operator "onnx.Constant"() {torch.onnx.value = dense_resource<_blocks.0.norm1.bias1_quantized> : tensor<128xsi32>} : () -> !torch.vtensor<[128],si32>
    %156 = torch.operator "onnx.Constant"() {torch.onnx.value = dense_resource<_blocks.0.norm1.bias1_quantized_scale> : tensor<1xf32>} : () -> !torch.vtensor<[1],f32>
    %157 = torch.operator "onnx.Constant"() {torch.onnx.value = dense<0> : tensor<si32>} : () -> !torch.vtensor<[],si32>
    %158 = torch.operator "onnx.Constant"() {torch.onnx.value = dense_resource<_blocks.0.norm1.bias2_quantized> : tensor<128xsi32>} : () -> !torch.vtensor<[128],si32>
    %159 = torch.operator "onnx.Constant"() {torch.onnx.value = dense_resource<_blocks.0.norm1.bias2_quantized_scale> : tensor<1xf32>} : () -> !torch.vtensor<[1],f32>
    %160 = torch.operator "onnx.Constant"() {torch.onnx.value = dense<0> : tensor<si32>} : () -> !torch.vtensor<[],si32>
    %161 = torch.operator "onnx.Constant"() {torch.onnx.value = dense_resource<_blocks.0.norm1.bias3_quantized> : tensor<128xsi32>} : () -> !torch.vtensor<[128],si32>
    %162 = torch.operator "onnx.Constant"() {torch.onnx.value = dense_resource<_blocks.0.norm1.bias3_quantized_scale> : tensor<1xf32>} : () -> !torch.vtensor<[1],f32>
    %163 = torch.operator "onnx.Constant"() {torch.onnx.value = dense<0> : tensor<si32>} : () -> !torch.vtensor<[],si32>
    %164 = torch.operator "onnx.Constant"() {torch.onnx.value = dense_resource<_blocks.0.norm1.bias4_quantized> : tensor<128xsi32>} : () -> !torch.vtensor<[128],si32>
    %165 = torch.operator "onnx.Constant"() {torch.onnx.value = dense_resource<_blocks.0.norm1.bias4_quantized_scale> : tensor<1xf32>} : () -> !torch.vtensor<[1],f32>
    %166 = torch.operator "onnx.Constant"() {torch.onnx.value = dense<0> : tensor<si32>} : () -> !torch.vtensor<[],si32>
    %167 = torch.operator "onnx.Constant"() {torch.onnx.value = dense_resource<_head.bias_quantized> : tensor<16xsi32>} : () -> !torch.vtensor<[16],si32>
    %168 = torch.operator "onnx.Constant"() {torch.onnx.value = dense_resource<_head.bias_quantized_scale> : tensor<1xf32>} : () -> !torch.vtensor<[1],f32>
    %169 = torch.operator "onnx.Constant"() {torch.onnx.value = dense<0> : tensor<si32>} : () -> !torch.vtensor<[],si32>
    %none = torch.constant.none
    %170 = torch.operator "onnx.DequantizeLinear"(%25, %24, %23) : (!torch.vtensor<[384],si8>, !torch.vtensor<[],f32>, !torch.vtensor<[],si8>) -> !torch.vtensor<[384],f32>
    %171 = torch.operator "onnx.DequantizeLinear"(%45, %44, %43) : (!torch.vtensor<[128,128],si8>, !torch.vtensor<[],f32>, !torch.vtensor<[],si8>) -> !torch.vtensor<[128,128],f32>
    %172 = torch.operator "onnx.DequantizeLinear"(%57, %56, %55) : (!torch.vtensor<[512],si8>, !torch.vtensor<[],f32>, !torch.vtensor<[],si8>) -> !torch.vtensor<[512],f32>
    %173 = torch.operator "onnx.DequantizeLinear"(%81, %80, %79) : (!torch.vtensor<[128],si8>, !torch.vtensor<[],f32>, !torch.vtensor<[],si8>) -> !torch.vtensor<[128],f32>
    %174 = torch.operator "onnx.DequantizeLinear"(%152, %153, %154) : (!torch.vtensor<[128],si32>, !torch.vtensor<[1],f32>, !torch.vtensor<[],si32>) -> !torch.vtensor<[128],f32>
    %175 = torch.operator "onnx.DequantizeLinear"(%155, %156, %157) : (!torch.vtensor<[128],si32>, !torch.vtensor<[1],f32>, !torch.vtensor<[],si32>) -> !torch.vtensor<[128],f32>
    %176 = torch.operator "onnx.DequantizeLinear"(%158, %159, %160) : (!torch.vtensor<[128],si32>, !torch.vtensor<[1],f32>, !torch.vtensor<[],si32>) -> !torch.vtensor<[128],f32>
    %177 = torch.operator "onnx.DequantizeLinear"(%161, %162, %163) : (!torch.vtensor<[128],si32>, !torch.vtensor<[1],f32>, !torch.vtensor<[],si32>) -> !torch.vtensor<[128],f32>
    %178 = torch.operator "onnx.DequantizeLinear"(%164, %165, %166) : (!torch.vtensor<[128],si32>, !torch.vtensor<[1],f32>, !torch.vtensor<[],si32>) -> !torch.vtensor<[128],f32>
    %179 = torch.operator "onnx.DequantizeLinear"(%149, %150, %151) : (!torch.vtensor<[128],si32>, !torch.vtensor<[1],f32>, !torch.vtensor<[],si32>) -> !torch.vtensor<[128],f32>
    %180 = torch.operator "onnx.DequantizeLinear"(%15, %14, %13) : (!torch.vtensor<[128],si8>, !torch.vtensor<[],f32>, !torch.vtensor<[],si8>) -> !torch.vtensor<[128],f32>
    %181 = torch.operator "onnx.DequantizeLinear"(%109, %108, %107) : (!torch.vtensor<[128,128],si8>, !torch.vtensor<[],f32>, !torch.vtensor<[],si8>) -> !torch.vtensor<[128,128],f32>
    %182 = torch.operator "onnx.DequantizeLinear"(%121, %120, %119) : (!torch.vtensor<[512],si8>, !torch.vtensor<[],f32>, !torch.vtensor<[],si8>) -> !torch.vtensor<[512],f32>
    %183 = torch.operator "onnx.DequantizeLinear"(%139, %138, %137) : (!torch.vtensor<[128],si8>, !torch.vtensor<[],f32>, !torch.vtensor<[],si8>) -> !torch.vtensor<[128],f32>
    %184 = torch.operator "onnx.DequantizeLinear"(%167, %168, %169) : (!torch.vtensor<[16],si32>, !torch.vtensor<[1],f32>, !torch.vtensor<[],si32>) -> !torch.vtensor<[16],f32>
    %185 = torch.operator "onnx.DequantizeLinear"(%148, %147, %146) : (!torch.vtensor<[16,128],si8>, !torch.vtensor<[],f32>, !torch.vtensor<[],si8>) -> !torch.vtensor<[16,128],f32>
    %186 = torch.operator "onnx.QuantizeLinear"(%arg0, %12, %11) : (!torch.vtensor<[1,64,128],f32>, !torch.vtensor<[],f32>, !torch.vtensor<[],si8>) -> !torch.vtensor<[1,64,128],si8>
    %187 = torch.operator "onnx.DequantizeLinear"(%90, %89, %88) : (!torch.vtensor<[128,384],si8>, !torch.vtensor<[],f32>, !torch.vtensor<[],si8>) -> !torch.vtensor<[128,384],f32>
    %188 = torch.operator "onnx.DequantizeLinear"(%116, %115, %114) : (!torch.vtensor<[128,512],si8>, !torch.vtensor<[],f32>, !torch.vtensor<[],si8>) -> !torch.vtensor<[128,512],f32>
    %189 = torch.operator "onnx.DequantizeLinear"(%134, %133, %132) : (!torch.vtensor<[512,128],si8>, !torch.vtensor<[],f32>, !torch.vtensor<[],si8>) -> !torch.vtensor<[512,128],f32>
    %190 = torch.operator "onnx.DequantizeLinear"(%20, %19, %18) : (!torch.vtensor<[128,384],si8>, !torch.vtensor<[],f32>, !torch.vtensor<[],si8>) -> !torch.vtensor<[128,384],f32>
    %191 = torch.operator "onnx.DequantizeLinear"(%30, %29, %28) : (!torch.vtensor<[1],si8>, !torch.vtensor<[],f32>, !torch.vtensor<[],si8>) -> !torch.vtensor<[1],f32>
    %192 = torch.operator "onnx.DequantizeLinear"(%52, %51, %50) : (!torch.vtensor<[128,512],si8>, !torch.vtensor<[],f32>, !torch.vtensor<[],si8>) -> !torch.vtensor<[128,512],f32>
    %193 = torch.operator "onnx.DequantizeLinear"(%64, %63, %62) : (!torch.vtensor<[],si8>, !torch.vtensor<[],f32>, !torch.vtensor<[],si8>) -> !torch.vtensor<[],f32>
    %194 = torch.operator "onnx.DequantizeLinear"(%69, %68, %67) : (!torch.vtensor<[],si8>, !torch.vtensor<[],f32>, !torch.vtensor<[],si8>) -> !torch.vtensor<[],f32>
    %195 = torch.operator "onnx.DequantizeLinear"(%76, %75, %74) : (!torch.vtensor<[512,128],si8>, !torch.vtensor<[],f32>, !torch.vtensor<[],si8>) -> !torch.vtensor<[512,128],f32>
    %196 = torch.operator "onnx.DequantizeLinear"(%186, %12, %11) : (!torch.vtensor<[1,64,128],si8>, !torch.vtensor<[],f32>, !torch.vtensor<[],si8>) -> !torch.vtensor<[1,64,128],f32>
    %197 = torch.operator "onnx.LayerNormalization"(%196, %180, %179) {torch.onnx.axis = -1 : si64, torch.onnx.epsilon = 9.99999974E-6 : f32, torch.onnx.stash_type = 1 : si64} : (!torch.vtensor<[1,64,128],f32>, !torch.vtensor<[128],f32>, !torch.vtensor<[128],f32>) -> !torch.vtensor<[1,64,128],f32>
    %198 = torch.operator "onnx.QuantizeLinear"(%197, %17, %16) : (!torch.vtensor<[1,64,128],f32>, !torch.vtensor<[],f32>, !torch.vtensor<[],si8>) -> !torch.vtensor<[1,64,128],si8>
    %199 = torch.operator "onnx.DequantizeLinear"(%198, %17, %16) : (!torch.vtensor<[1,64,128],si8>, !torch.vtensor<[],f32>, !torch.vtensor<[],si8>) -> !torch.vtensor<[1,64,128],f32>
    %200 = torch.operator "onnx.Transpose"(%199) {torch.onnx.perm = [1 : si64, 0 : si64, 2 : si64]} : (!torch.vtensor<[1,64,128],f32>) -> !torch.vtensor<[64,1,128],f32>
    %201 = torch.operator "onnx.QuantizeLinear"(%200, %17, %16) : (!torch.vtensor<[64,1,128],f32>, !torch.vtensor<[],f32>, !torch.vtensor<[],si8>) -> !torch.vtensor<[64,1,128],si8>
    %202 = torch.operator "onnx.DequantizeLinear"(%201, %17, %16) : (!torch.vtensor<[64,1,128],si8>, !torch.vtensor<[],f32>, !torch.vtensor<[],si8>) -> !torch.vtensor<[64,1,128],f32>
    %203 = torch.operator "onnx.MatMul"(%202, %190) : (!torch.vtensor<[64,1,128],f32>, !torch.vtensor<[128,384],f32>) -> !torch.vtensor<[64,1,384],f32>
    %204 = torch.operator "onnx.QuantizeLinear"(%203, %22, %21) : (!torch.vtensor<[64,1,384],f32>, !torch.vtensor<[],f32>, !torch.vtensor<[],si8>) -> !torch.vtensor<[64,1,384],si8>
    %205 = torch.operator "onnx.DequantizeLinear"(%204, %22, %21) : (!torch.vtensor<[64,1,384],si8>, !torch.vtensor<[],f32>, !torch.vtensor<[],si8>) -> !torch.vtensor<[64,1,384],f32>
    %206 = torch.operator "onnx.Add"(%205, %170) : (!torch.vtensor<[64,1,384],f32>, !torch.vtensor<[384],f32>) -> !torch.vtensor<[64,1,384],f32>
    %207 = torch.operator "onnx.QuantizeLinear"(%206, %27, %26) : (!torch.vtensor<[64,1,384],f32>, !torch.vtensor<[],f32>, !torch.vtensor<[],si8>) -> !torch.vtensor<[64,1,384],si8>
    %208 = torch.operator "onnx.DequantizeLinear"(%207, %27, %26) : (!torch.vtensor<[64,1,384],si8>, !torch.vtensor<[],f32>, !torch.vtensor<[],si8>) -> !torch.vtensor<[64,1,384],f32>
    %209 = torch.operator "onnx.Reshape"(%208, %0) {torch.onnx.allowzero = 1 : si64} : (!torch.vtensor<[64,1,384],f32>, !torch.vtensor<[4],si64>) -> !torch.vtensor<[64,1,3,128],f32>
    %210 = torch.operator "onnx.QuantizeLinear"(%209, %27, %26) : (!torch.vtensor<[64,1,3,128],f32>, !torch.vtensor<[],f32>, !torch.vtensor<[],si8>) -> !torch.vtensor<[64,1,3,128],si8>
    %211 = torch.operator "onnx.DequantizeLinear"(%210, %27, %26) : (!torch.vtensor<[64,1,3,128],si8>, !torch.vtensor<[],f32>, !torch.vtensor<[],si8>) -> !torch.vtensor<[64,1,3,128],f32>
    %212 = torch.operator "onnx.Unsqueeze"(%211, %1) : (!torch.vtensor<[64,1,3,128],f32>, !torch.vtensor<[1],si64>) -> !torch.vtensor<[1,64,1,3,128],f32>
    %213 = torch.operator "onnx.QuantizeLinear"(%212, %27, %26) : (!torch.vtensor<[1,64,1,3,128],f32>, !torch.vtensor<[],f32>, !torch.vtensor<[],si8>) -> !torch.vtensor<[1,64,1,3,128],si8>
    %214 = torch.operator "onnx.DequantizeLinear"(%213, %27, %26) : (!torch.vtensor<[1,64,1,3,128],si8>, !torch.vtensor<[],f32>, !torch.vtensor<[],si8>) -> !torch.vtensor<[1,64,1,3,128],f32>
    %215 = torch.operator "onnx.Transpose"(%214) {torch.onnx.perm = [3 : si64, 1 : si64, 2 : si64, 0 : si64, 4 : si64]} : (!torch.vtensor<[1,64,1,3,128],f32>) -> !torch.vtensor<[3,64,1,1,128],f32>
    %216 = torch.operator "onnx.QuantizeLinear"(%215, %27, %26) : (!torch.vtensor<[3,64,1,1,128],f32>, !torch.vtensor<[],f32>, !torch.vtensor<[],si8>) -> !torch.vtensor<[3,64,1,1,128],si8>
    %217 = torch.operator "onnx.DequantizeLinear"(%216, %27, %26) : (!torch.vtensor<[3,64,1,1,128],si8>, !torch.vtensor<[],f32>, !torch.vtensor<[],si8>) -> !torch.vtensor<[3,64,1,1,128],f32>
    %218 = torch.operator "onnx.Squeeze"(%217, %2) : (!torch.vtensor<[3,64,1,1,128],f32>, !torch.vtensor<[1],si64>) -> !torch.vtensor<[3,64,1,128],f32>
    %219 = torch.operator "onnx.QuantizeLinear"(%218, %27, %26) : (!torch.vtensor<[3,64,1,128],f32>, !torch.vtensor<[],f32>, !torch.vtensor<[],si8>) -> !torch.vtensor<[3,64,1,128],si8>
    %220 = torch.operator "onnx.DequantizeLinear"(%219, %27, %26) : (!torch.vtensor<[3,64,1,128],si8>, !torch.vtensor<[],f32>, !torch.vtensor<[],si8>) -> !torch.vtensor<[3,64,1,128],f32>
    %221 = torch.operator "onnx.Gather"(%220, %3) {torch.onnx.axis = 0 : si64} : (!torch.vtensor<[3,64,1,128],f32>, !torch.vtensor<[],si64>) -> !torch.vtensor<[64,1,128],f32>
    %222 = torch.operator "onnx.Gather"(%220, %4) {torch.onnx.axis = 0 : si64} : (!torch.vtensor<[3,64,1,128],f32>, !torch.vtensor<[],si64>) -> !torch.vtensor<[64,1,128],f32>
    %223 = torch.operator "onnx.Gather"(%220, %5) {torch.onnx.axis = 0 : si64} : (!torch.vtensor<[3,64,1,128],f32>, !torch.vtensor<[],si64>) -> !torch.vtensor<[64,1,128],f32>
    %224 = torch.operator "onnx.QuantizeLinear"(%221, %27, %26) : (!torch.vtensor<[64,1,128],f32>, !torch.vtensor<[],f32>, !torch.vtensor<[],si8>) -> !torch.vtensor<[64,1,128],si8>
    %225 = torch.operator "onnx.QuantizeLinear"(%222, %27, %26) : (!torch.vtensor<[64,1,128],f32>, !torch.vtensor<[],f32>, !torch.vtensor<[],si8>) -> !torch.vtensor<[64,1,128],si8>
    %226 = torch.operator "onnx.QuantizeLinear"(%223, %27, %26) : (!torch.vtensor<[64,1,128],f32>, !torch.vtensor<[],f32>, !torch.vtensor<[],si8>) -> !torch.vtensor<[64,1,128],si8>
    %227 = torch.operator "onnx.DequantizeLinear"(%224, %27, %26) : (!torch.vtensor<[64,1,128],si8>, !torch.vtensor<[],f32>, !torch.vtensor<[],si8>) -> !torch.vtensor<[64,1,128],f32>
    %228 = torch.operator "onnx.DequantizeLinear"(%225, %27, %26) : (!torch.vtensor<[64,1,128],si8>, !torch.vtensor<[],f32>, !torch.vtensor<[],si8>) -> !torch.vtensor<[64,1,128],f32>
    %229 = torch.operator "onnx.DequantizeLinear"(%226, %27, %26) : (!torch.vtensor<[64,1,128],si8>, !torch.vtensor<[],f32>, !torch.vtensor<[],si8>) -> !torch.vtensor<[64,1,128],f32>
    %230 = torch.operator "onnx.Reshape"(%227, %6) {torch.onnx.allowzero = 1 : si64} : (!torch.vtensor<[64,1,128],f32>, !torch.vtensor<[3],si64>) -> !torch.vtensor<[64,2,64],f32>
    %231 = torch.operator "onnx.Reshape"(%228, %6) {torch.onnx.allowzero = 1 : si64} : (!torch.vtensor<[64,1,128],f32>, !torch.vtensor<[3],si64>) -> !torch.vtensor<[64,2,64],f32>
    %232 = torch.operator "onnx.Reshape"(%229, %6) {torch.onnx.allowzero = 1 : si64} : (!torch.vtensor<[64,1,128],f32>, !torch.vtensor<[3],si64>) -> !torch.vtensor<[64,2,64],f32>
    %233 = torch.operator "onnx.QuantizeLinear"(%230, %27, %26) : (!torch.vtensor<[64,2,64],f32>, !torch.vtensor<[],f32>, !torch.vtensor<[],si8>) -> !torch.vtensor<[64,2,64],si8>
    %234 = torch.operator "onnx.QuantizeLinear"(%231, %27, %26) : (!torch.vtensor<[64,2,64],f32>, !torch.vtensor<[],f32>, !torch.vtensor<[],si8>) -> !torch.vtensor<[64,2,64],si8>
    %235 = torch.operator "onnx.QuantizeLinear"(%232, %27, %26) : (!torch.vtensor<[64,2,64],f32>, !torch.vtensor<[],f32>, !torch.vtensor<[],si8>) -> !torch.vtensor<[64,2,64],si8>
    %236 = torch.operator "onnx.DequantizeLinear"(%233, %27, %26) : (!torch.vtensor<[64,2,64],si8>, !torch.vtensor<[],f32>, !torch.vtensor<[],si8>) -> !torch.vtensor<[64,2,64],f32>
    %237 = torch.operator "onnx.DequantizeLinear"(%234, %27, %26) : (!torch.vtensor<[64,2,64],si8>, !torch.vtensor<[],f32>, !torch.vtensor<[],si8>) -> !torch.vtensor<[64,2,64],f32>
    %238 = torch.operator "onnx.DequantizeLinear"(%235, %27, %26) : (!torch.vtensor<[64,2,64],si8>, !torch.vtensor<[],f32>, !torch.vtensor<[],si8>) -> !torch.vtensor<[64,2,64],f32>
    %239 = torch.operator "onnx.Transpose"(%236) {torch.onnx.perm = [1 : si64, 0 : si64, 2 : si64]} : (!torch.vtensor<[64,2,64],f32>) -> !torch.vtensor<[2,64,64],f32>
    %240 = torch.operator "onnx.Transpose"(%237) {torch.onnx.perm = [1 : si64, 0 : si64, 2 : si64]} : (!torch.vtensor<[64,2,64],f32>) -> !torch.vtensor<[2,64,64],f32>
    %241 = torch.operator "onnx.Transpose"(%238) {torch.onnx.perm = [1 : si64, 0 : si64, 2 : si64]} : (!torch.vtensor<[64,2,64],f32>) -> !torch.vtensor<[2,64,64],f32>
    %242 = torch.operator "onnx.QuantizeLinear"(%239, %27, %26) : (!torch.vtensor<[2,64,64],f32>, !torch.vtensor<[],f32>, !torch.vtensor<[],si8>) -> !torch.vtensor<[2,64,64],si8>
    %243 = torch.operator "onnx.QuantizeLinear"(%240, %27, %26) : (!torch.vtensor<[2,64,64],f32>, !torch.vtensor<[],f32>, !torch.vtensor<[],si8>) -> !torch.vtensor<[2,64,64],si8>
    %244 = torch.operator "onnx.QuantizeLinear"(%241, %27, %26) : (!torch.vtensor<[2,64,64],f32>, !torch.vtensor<[],f32>, !torch.vtensor<[],si8>) -> !torch.vtensor<[2,64,64],si8>
    %245 = torch.operator "onnx.DequantizeLinear"(%242, %27, %26) : (!torch.vtensor<[2,64,64],si8>, !torch.vtensor<[],f32>, !torch.vtensor<[],si8>) -> !torch.vtensor<[2,64,64],f32>
    %246 = torch.operator "onnx.DequantizeLinear"(%243, %27, %26) : (!torch.vtensor<[2,64,64],si8>, !torch.vtensor<[],f32>, !torch.vtensor<[],si8>) -> !torch.vtensor<[2,64,64],f32>
    %247 = torch.operator "onnx.DequantizeLinear"(%244, %27, %26) : (!torch.vtensor<[2,64,64],si8>, !torch.vtensor<[],f32>, !torch.vtensor<[],si8>) -> !torch.vtensor<[2,64,64],f32>
    %248 = torch.operator "onnx.Reshape"(%245, %7) {torch.onnx.allowzero = 1 : si64} : (!torch.vtensor<[2,64,64],f32>, !torch.vtensor<[4],si64>) -> !torch.vtensor<[1,2,64,64],f32>
    %249 = torch.operator "onnx.Transpose"(%246) {torch.onnx.perm = [0 : si64, 2 : si64, 1 : si64]} : (!torch.vtensor<[2,64,64],f32>) -> !torch.vtensor<[2,64,64],f32>
    %250 = torch.operator "onnx.Reshape"(%247, %7) {torch.onnx.allowzero = 1 : si64} : (!torch.vtensor<[2,64,64],f32>, !torch.vtensor<[4],si64>) -> !torch.vtensor<[1,2,64,64],f32>
    %251 = torch.operator "onnx.QuantizeLinear"(%248, %27, %26) : (!torch.vtensor<[1,2,64,64],f32>, !torch.vtensor<[],f32>, !torch.vtensor<[],si8>) -> !torch.vtensor<[1,2,64,64],si8>
    %252 = torch.operator "onnx.QuantizeLinear"(%249, %27, %26) : (!torch.vtensor<[2,64,64],f32>, !torch.vtensor<[],f32>, !torch.vtensor<[],si8>) -> !torch.vtensor<[2,64,64],si8>
    %253 = torch.operator "onnx.QuantizeLinear"(%250, %27, %26) : (!torch.vtensor<[1,2,64,64],f32>, !torch.vtensor<[],f32>, !torch.vtensor<[],si8>) -> !torch.vtensor<[1,2,64,64],si8>
    %254 = torch.operator "onnx.DequantizeLinear"(%251, %27, %26) : (!torch.vtensor<[1,2,64,64],si8>, !torch.vtensor<[],f32>, !torch.vtensor<[],si8>) -> !torch.vtensor<[1,2,64,64],f32>
    %255 = torch.operator "onnx.DequantizeLinear"(%252, %27, %26) : (!torch.vtensor<[2,64,64],si8>, !torch.vtensor<[],f32>, !torch.vtensor<[],si8>) -> !torch.vtensor<[2,64,64],f32>
    %256 = torch.operator "onnx.DequantizeLinear"(%253, %27, %26) : (!torch.vtensor<[1,2,64,64],si8>, !torch.vtensor<[],f32>, !torch.vtensor<[],si8>) -> !torch.vtensor<[1,2,64,64],f32>
    %257 = torch.operator "onnx.Mul"(%254, %191) : (!torch.vtensor<[1,2,64,64],f32>, !torch.vtensor<[1],f32>) -> !torch.vtensor<[1,2,64,64],f32>
    %258 = torch.operator "onnx.Reshape"(%255, %7) {torch.onnx.allowzero = 0 : si64} : (!torch.vtensor<[2,64,64],f32>, !torch.vtensor<[4],si64>) -> !torch.vtensor<[1,2,64,64],f32>
    %259 = torch.operator "onnx.QuantizeLinear"(%257, %32, %31) : (!torch.vtensor<[1,2,64,64],f32>, !torch.vtensor<[],f32>, !torch.vtensor<[],si8>) -> !torch.vtensor<[1,2,64,64],si8>
    %260 = torch.operator "onnx.QuantizeLinear"(%258, %27, %26) : (!torch.vtensor<[1,2,64,64],f32>, !torch.vtensor<[],f32>, !torch.vtensor<[],si8>) -> !torch.vtensor<[1,2,64,64],si8>
    %261 = torch.operator "onnx.DequantizeLinear"(%259, %32, %31) : (!torch.vtensor<[1,2,64,64],si8>, !torch.vtensor<[],f32>, !torch.vtensor<[],si8>) -> !torch.vtensor<[1,2,64,64],f32>
    %262 = torch.operator "onnx.DequantizeLinear"(%260, %27, %26) : (!torch.vtensor<[1,2,64,64],si8>, !torch.vtensor<[],f32>, !torch.vtensor<[],si8>) -> !torch.vtensor<[1,2,64,64],f32>
    %263 = torch.operator "onnx.Mul"(%262, %191) : (!torch.vtensor<[1,2,64,64],f32>, !torch.vtensor<[1],f32>) -> !torch.vtensor<[1,2,64,64],f32>
    %264 = torch.operator "onnx.QuantizeLinear"(%263, %34, %33) : (!torch.vtensor<[1,2,64,64],f32>, !torch.vtensor<[],f32>, !torch.vtensor<[],si8>) -> !torch.vtensor<[1,2,64,64],si8>
    %265 = torch.operator "onnx.DequantizeLinear"(%264, %34, %33) : (!torch.vtensor<[1,2,64,64],si8>, !torch.vtensor<[],f32>, !torch.vtensor<[],si8>) -> !torch.vtensor<[1,2,64,64],f32>
    %266 = torch.operator "onnx.MatMul"(%261, %265) : (!torch.vtensor<[1,2,64,64],f32>, !torch.vtensor<[1,2,64,64],f32>) -> !torch.vtensor<[1,2,64,64],f32>
    %267 = torch.operator "onnx.QuantizeLinear"(%266, %36, %35) : (!torch.vtensor<[1,2,64,64],f32>, !torch.vtensor<[],f32>, !torch.vtensor<[],si8>) -> !torch.vtensor<[1,2,64,64],si8>
    %268 = torch.operator "onnx.DequantizeLinear"(%267, %36, %35) : (!torch.vtensor<[1,2,64,64],si8>, !torch.vtensor<[],f32>, !torch.vtensor<[],si8>) -> !torch.vtensor<[1,2,64,64],f32>
    %269 = torch.operator "onnx.Softmax"(%268) {torch.onnx.axis = -1 : si64} : (!torch.vtensor<[1,2,64,64],f32>) -> !torch.vtensor<[1,2,64,64],f32>
    %270 = torch.operator "onnx.QuantizeLinear"(%269, %38, %37) : (!torch.vtensor<[1,2,64,64],f32>, !torch.vtensor<[],f32>, !torch.vtensor<[],si8>) -> !torch.vtensor<[1,2,64,64],si8>
    %271 = torch.operator "onnx.DequantizeLinear"(%270, %38, %37) : (!torch.vtensor<[1,2,64,64],si8>, !torch.vtensor<[],f32>, !torch.vtensor<[],si8>) -> !torch.vtensor<[1,2,64,64],f32>
    %272 = torch.operator "onnx.MatMul"(%271, %256) : (!torch.vtensor<[1,2,64,64],f32>, !torch.vtensor<[1,2,64,64],f32>) -> !torch.vtensor<[1,2,64,64],f32>
    %273 = torch.operator "onnx.QuantizeLinear"(%272, %40, %39) : (!torch.vtensor<[1,2,64,64],f32>, !torch.vtensor<[],f32>, !torch.vtensor<[],si8>) -> !torch.vtensor<[1,2,64,64],si8>
    %274 = torch.operator "onnx.DequantizeLinear"(%273, %40, %39) : (!torch.vtensor<[1,2,64,64],si8>, !torch.vtensor<[],f32>, !torch.vtensor<[],si8>) -> !torch.vtensor<[1,2,64,64],f32>
    %275 = torch.operator "onnx.Transpose"(%274) {torch.onnx.perm = [2 : si64, 0 : si64, 1 : si64, 3 : si64]} : (!torch.vtensor<[1,2,64,64],f32>) -> !torch.vtensor<[64,1,2,64],f32>
    %276 = torch.operator "onnx.QuantizeLinear"(%275, %40, %39) : (!torch.vtensor<[64,1,2,64],f32>, !torch.vtensor<[],f32>, !torch.vtensor<[],si8>) -> !torch.vtensor<[64,1,2,64],si8>
    %277 = torch.operator "onnx.DequantizeLinear"(%276, %40, %39) : (!torch.vtensor<[64,1,2,64],si8>, !torch.vtensor<[],f32>, !torch.vtensor<[],si8>) -> !torch.vtensor<[64,1,2,64],f32>
    %278 = torch.operator "onnx.Reshape"(%277, %8) {torch.onnx.allowzero = 1 : si64} : (!torch.vtensor<[64,1,2,64],f32>, !torch.vtensor<[2],si64>) -> !torch.vtensor<[64,128],f32>
    %279 = torch.operator "onnx.QuantizeLinear"(%278, %40, %39) : (!torch.vtensor<[64,128],f32>, !torch.vtensor<[],f32>, !torch.vtensor<[],si8>) -> !torch.vtensor<[64,128],si8>
    %280 = torch.operator "onnx.DequantizeLinear"(%279, %40, %39) : (!torch.vtensor<[64,128],si8>, !torch.vtensor<[],f32>, !torch.vtensor<[],si8>) -> !torch.vtensor<[64,128],f32>
    %281 = torch.operator "onnx.Gemm"(%280, %171, %174) {torch.onnx.alpha = 1.000000e+00 : f32, torch.onnx.beta = 1.000000e+00 : f32, torch.onnx.transA = 0 : si64, torch.onnx.transB = 1 : si64} : (!torch.vtensor<[64,128],f32>, !torch.vtensor<[128,128],f32>, !torch.vtensor<[128],f32>) -> !torch.vtensor<[64,128],f32>
    %282 = torch.operator "onnx.QuantizeLinear"(%281, %42, %41) : (!torch.vtensor<[64,128],f32>, !torch.vtensor<[],f32>, !torch.vtensor<[],si8>) -> !torch.vtensor<[64,128],si8>
    %283 = torch.operator "onnx.DequantizeLinear"(%282, %42, %41) : (!torch.vtensor<[64,128],si8>, !torch.vtensor<[],f32>, !torch.vtensor<[],si8>) -> !torch.vtensor<[64,128],f32>
    %284 = torch.operator "onnx.Reshape"(%283, %9) {torch.onnx.allowzero = 1 : si64} : (!torch.vtensor<[64,128],f32>, !torch.vtensor<[3],si64>) -> !torch.vtensor<[64,1,128],f32>
    %285 = torch.operator "onnx.QuantizeLinear"(%284, %42, %41) : (!torch.vtensor<[64,1,128],f32>, !torch.vtensor<[],f32>, !torch.vtensor<[],si8>) -> !torch.vtensor<[64,1,128],si8>
    %286 = torch.operator "onnx.DequantizeLinear"(%285, %42, %41) : (!torch.vtensor<[64,1,128],si8>, !torch.vtensor<[],f32>, !torch.vtensor<[],si8>) -> !torch.vtensor<[64,1,128],f32>
    %287 = torch.operator "onnx.Transpose"(%286) {torch.onnx.perm = [1 : si64, 0 : si64, 2 : si64]} : (!torch.vtensor<[64,1,128],f32>) -> !torch.vtensor<[1,64,128],f32>
    %288 = torch.operator "onnx.QuantizeLinear"(%287, %42, %41) : (!torch.vtensor<[1,64,128],f32>, !torch.vtensor<[],f32>, !torch.vtensor<[],si8>) -> !torch.vtensor<[1,64,128],si8>
    %289 = torch.operator "onnx.DequantizeLinear"(%288, %42, %41) : (!torch.vtensor<[1,64,128],si8>, !torch.vtensor<[],f32>, !torch.vtensor<[],si8>) -> !torch.vtensor<[1,64,128],f32>
    %290 = torch.operator "onnx.Add"(%196, %289) : (!torch.vtensor<[1,64,128],f32>, !torch.vtensor<[1,64,128],f32>) -> !torch.vtensor<[1,64,128],f32>
    %291 = torch.operator "onnx.QuantizeLinear"(%290, %47, %46) : (!torch.vtensor<[1,64,128],f32>, !torch.vtensor<[],f32>, !torch.vtensor<[],si8>) -> !torch.vtensor<[1,64,128],si8>
    %292 = torch.operator "onnx.DequantizeLinear"(%291, %47, %46) : (!torch.vtensor<[1,64,128],si8>, !torch.vtensor<[],f32>, !torch.vtensor<[],si8>) -> !torch.vtensor<[1,64,128],f32>
    %293 = torch.operator "onnx.LayerNormalization"(%292, %180, %175) {torch.onnx.axis = -1 : si64, torch.onnx.epsilon = 9.99999974E-6 : f32, torch.onnx.stash_type = 1 : si64} : (!torch.vtensor<[1,64,128],f32>, !torch.vtensor<[128],f32>, !torch.vtensor<[128],f32>) -> !torch.vtensor<[1,64,128],f32>
    %294 = torch.operator "onnx.QuantizeLinear"(%293, %49, %48) : (!torch.vtensor<[1,64,128],f32>, !torch.vtensor<[],f32>, !torch.vtensor<[],si8>) -> !torch.vtensor<[1,64,128],si8>
    %295 = torch.operator "onnx.DequantizeLinear"(%294, %49, %48) : (!torch.vtensor<[1,64,128],si8>, !torch.vtensor<[],f32>, !torch.vtensor<[],si8>) -> !torch.vtensor<[1,64,128],f32>
    %296 = torch.operator "onnx.MatMul"(%295, %192) : (!torch.vtensor<[1,64,128],f32>, !torch.vtensor<[128,512],f32>) -> !torch.vtensor<[1,64,512],f32>
    %297 = torch.operator "onnx.QuantizeLinear"(%296, %54, %53) : (!torch.vtensor<[1,64,512],f32>, !torch.vtensor<[],f32>, !torch.vtensor<[],si8>) -> !torch.vtensor<[1,64,512],si8>
    %298 = torch.operator "onnx.DequantizeLinear"(%297, %54, %53) : (!torch.vtensor<[1,64,512],si8>, !torch.vtensor<[],f32>, !torch.vtensor<[],si8>) -> !torch.vtensor<[1,64,512],f32>
    %299 = torch.operator "onnx.Add"(%298, %172) : (!torch.vtensor<[1,64,512],f32>, !torch.vtensor<[512],f32>) -> !torch.vtensor<[1,64,512],f32>
    %300 = torch.operator "onnx.QuantizeLinear"(%299, %59, %58) : (!torch.vtensor<[1,64,512],f32>, !torch.vtensor<[],f32>, !torch.vtensor<[],si8>) -> !torch.vtensor<[1,64,512],si8>
    %301 = torch.operator "onnx.DequantizeLinear"(%300, %59, %58) : (!torch.vtensor<[1,64,512],si8>, !torch.vtensor<[],f32>, !torch.vtensor<[],si8>) -> !torch.vtensor<[1,64,512],f32>
    %302 = torch.operator "onnx.Div"(%301, %10) : (!torch.vtensor<[1,64,512],f32>, !torch.vtensor<[],f32>) -> !torch.vtensor<[1,64,512],f32>
    %303 = torch.operator "onnx.Erf"(%302) : (!torch.vtensor<[1,64,512],f32>) -> !torch.vtensor<[1,64,512],f32>
    %304 = torch.operator "onnx.QuantizeLinear"(%303, %61, %60) : (!torch.vtensor<[1,64,512],f32>, !torch.vtensor<[],f32>, !torch.vtensor<[],si8>) -> !torch.vtensor<[1,64,512],si8>
    %305 = torch.operator "onnx.DequantizeLinear"(%304, %61, %60) : (!torch.vtensor<[1,64,512],si8>, !torch.vtensor<[],f32>, !torch.vtensor<[],si8>) -> !torch.vtensor<[1,64,512],f32>
    %306 = torch.operator "onnx.Add"(%305, %193) : (!torch.vtensor<[1,64,512],f32>, !torch.vtensor<[],f32>) -> !torch.vtensor<[1,64,512],f32>
    %307 = torch.operator "onnx.QuantizeLinear"(%306, %66, %65) : (!torch.vtensor<[1,64,512],f32>, !torch.vtensor<[],f32>, !torch.vtensor<[],si8>) -> !torch.vtensor<[1,64,512],si8>
    %308 = torch.operator "onnx.DequantizeLinear"(%307, %66, %65) : (!torch.vtensor<[1,64,512],si8>, !torch.vtensor<[],f32>, !torch.vtensor<[],si8>) -> !torch.vtensor<[1,64,512],f32>
    %309 = torch.operator "onnx.Mul"(%194, %308) : (!torch.vtensor<[],f32>, !torch.vtensor<[1,64,512],f32>) -> !torch.vtensor<[1,64,512],f32>
    %310 = torch.operator "onnx.QuantizeLinear"(%309, %71, %70) : (!torch.vtensor<[1,64,512],f32>, !torch.vtensor<[],f32>, !torch.vtensor<[],si8>) -> !torch.vtensor<[1,64,512],si8>
    %311 = torch.operator "onnx.DequantizeLinear"(%310, %71, %70) : (!torch.vtensor<[1,64,512],si8>, !torch.vtensor<[],f32>, !torch.vtensor<[],si8>) -> !torch.vtensor<[1,64,512],f32>
    %312 = torch.operator "onnx.Mul"(%301, %311) : (!torch.vtensor<[1,64,512],f32>, !torch.vtensor<[1,64,512],f32>) -> !torch.vtensor<[1,64,512],f32>
    %313 = torch.operator "onnx.QuantizeLinear"(%312, %73, %72) : (!torch.vtensor<[1,64,512],f32>, !torch.vtensor<[],f32>, !torch.vtensor<[],si8>) -> !torch.vtensor<[1,64,512],si8>
    %314 = torch.operator "onnx.DequantizeLinear"(%313, %73, %72) : (!torch.vtensor<[1,64,512],si8>, !torch.vtensor<[],f32>, !torch.vtensor<[],si8>) -> !torch.vtensor<[1,64,512],f32>
    %315 = torch.operator "onnx.MatMul"(%314, %195) : (!torch.vtensor<[1,64,512],f32>, !torch.vtensor<[512,128],f32>) -> !torch.vtensor<[1,64,128],f32>
    %316 = torch.operator "onnx.QuantizeLinear"(%315, %78, %77) : (!torch.vtensor<[1,64,128],f32>, !torch.vtensor<[],f32>, !torch.vtensor<[],si8>) -> !torch.vtensor<[1,64,128],si8>
    %317 = torch.operator "onnx.DequantizeLinear"(%316, %78, %77) : (!torch.vtensor<[1,64,128],si8>, !torch.vtensor<[],f32>, !torch.vtensor<[],si8>) -> !torch.vtensor<[1,64,128],f32>
    %318 = torch.operator "onnx.Add"(%317, %173) : (!torch.vtensor<[1,64,128],f32>, !torch.vtensor<[128],f32>) -> !torch.vtensor<[1,64,128],f32>
    %319 = torch.operator "onnx.QuantizeLinear"(%318, %83, %82) : (!torch.vtensor<[1,64,128],f32>, !torch.vtensor<[],f32>, !torch.vtensor<[],si8>) -> !torch.vtensor<[1,64,128],si8>
    %320 = torch.operator "onnx.DequantizeLinear"(%319, %83, %82) : (!torch.vtensor<[1,64,128],si8>, !torch.vtensor<[],f32>, !torch.vtensor<[],si8>) -> !torch.vtensor<[1,64,128],f32>
    %321 = torch.operator "onnx.Add"(%292, %320) : (!torch.vtensor<[1,64,128],f32>, !torch.vtensor<[1,64,128],f32>) -> !torch.vtensor<[1,64,128],f32>
    %322 = torch.operator "onnx.QuantizeLinear"(%321, %85, %84) : (!torch.vtensor<[1,64,128],f32>, !torch.vtensor<[],f32>, !torch.vtensor<[],si8>) -> !torch.vtensor<[1,64,128],si8>
    %323 = torch.operator "onnx.DequantizeLinear"(%322, %85, %84) : (!torch.vtensor<[1,64,128],si8>, !torch.vtensor<[],f32>, !torch.vtensor<[],si8>) -> !torch.vtensor<[1,64,128],f32>
    %324 = torch.operator "onnx.LayerNormalization"(%323, %180, %176) {torch.onnx.axis = -1 : si64, torch.onnx.epsilon = 9.99999974E-6 : f32, torch.onnx.stash_type = 1 : si64} : (!torch.vtensor<[1,64,128],f32>, !torch.vtensor<[128],f32>, !torch.vtensor<[128],f32>) -> !torch.vtensor<[1,64,128],f32>
    %325 = torch.operator "onnx.QuantizeLinear"(%324, %87, %86) : (!torch.vtensor<[1,64,128],f32>, !torch.vtensor<[],f32>, !torch.vtensor<[],si8>) -> !torch.vtensor<[1,64,128],si8>
    %326 = torch.operator "onnx.DequantizeLinear"(%325, %87, %86) : (!torch.vtensor<[1,64,128],si8>, !torch.vtensor<[],f32>, !torch.vtensor<[],si8>) -> !torch.vtensor<[1,64,128],f32>
    %327 = torch.operator "onnx.Transpose"(%326) {torch.onnx.perm = [1 : si64, 0 : si64, 2 : si64]} : (!torch.vtensor<[1,64,128],f32>) -> !torch.vtensor<[64,1,128],f32>
    %328 = torch.operator "onnx.QuantizeLinear"(%327, %87, %86) : (!torch.vtensor<[64,1,128],f32>, !torch.vtensor<[],f32>, !torch.vtensor<[],si8>) -> !torch.vtensor<[64,1,128],si8>
    %329 = torch.operator "onnx.DequantizeLinear"(%328, %87, %86) : (!torch.vtensor<[64,1,128],si8>, !torch.vtensor<[],f32>, !torch.vtensor<[],si8>) -> !torch.vtensor<[64,1,128],f32>
    %330 = torch.operator "onnx.MatMul"(%329, %187) : (!torch.vtensor<[64,1,128],f32>, !torch.vtensor<[128,384],f32>) -> !torch.vtensor<[64,1,384],f32>
    %331 = torch.operator "onnx.QuantizeLinear"(%330, %92, %91) : (!torch.vtensor<[64,1,384],f32>, !torch.vtensor<[],f32>, !torch.vtensor<[],si8>) -> !torch.vtensor<[64,1,384],si8>
    %332 = torch.operator "onnx.DequantizeLinear"(%331, %92, %91) : (!torch.vtensor<[64,1,384],si8>, !torch.vtensor<[],f32>, !torch.vtensor<[],si8>) -> !torch.vtensor<[64,1,384],f32>
    %333 = torch.operator "onnx.Add"(%332, %170) : (!torch.vtensor<[64,1,384],f32>, !torch.vtensor<[384],f32>) -> !torch.vtensor<[64,1,384],f32>
    %334 = torch.operator "onnx.QuantizeLinear"(%333, %94, %93) : (!torch.vtensor<[64,1,384],f32>, !torch.vtensor<[],f32>, !torch.vtensor<[],si8>) -> !torch.vtensor<[64,1,384],si8>
    %335 = torch.operator "onnx.DequantizeLinear"(%334, %94, %93) : (!torch.vtensor<[64,1,384],si8>, !torch.vtensor<[],f32>, !torch.vtensor<[],si8>) -> !torch.vtensor<[64,1,384],f32>
    %336 = torch.operator "onnx.Reshape"(%335, %0) {torch.onnx.allowzero = 1 : si64} : (!torch.vtensor<[64,1,384],f32>, !torch.vtensor<[4],si64>) -> !torch.vtensor<[64,1,3,128],f32>
    %337 = torch.operator "onnx.QuantizeLinear"(%336, %94, %93) : (!torch.vtensor<[64,1,3,128],f32>, !torch.vtensor<[],f32>, !torch.vtensor<[],si8>) -> !torch.vtensor<[64,1,3,128],si8>
    %338 = torch.operator "onnx.DequantizeLinear"(%337, %94, %93) : (!torch.vtensor<[64,1,3,128],si8>, !torch.vtensor<[],f32>, !torch.vtensor<[],si8>) -> !torch.vtensor<[64,1,3,128],f32>
    %339 = torch.operator "onnx.Unsqueeze"(%338, %1) : (!torch.vtensor<[64,1,3,128],f32>, !torch.vtensor<[1],si64>) -> !torch.vtensor<[1,64,1,3,128],f32>
    %340 = torch.operator "onnx.QuantizeLinear"(%339, %94, %93) : (!torch.vtensor<[1,64,1,3,128],f32>, !torch.vtensor<[],f32>, !torch.vtensor<[],si8>) -> !torch.vtensor<[1,64,1,3,128],si8>
    %341 = torch.operator "onnx.DequantizeLinear"(%340, %94, %93) : (!torch.vtensor<[1,64,1,3,128],si8>, !torch.vtensor<[],f32>, !torch.vtensor<[],si8>) -> !torch.vtensor<[1,64,1,3,128],f32>
    %342 = torch.operator "onnx.Transpose"(%341) {torch.onnx.perm = [3 : si64, 1 : si64, 2 : si64, 0 : si64, 4 : si64]} : (!torch.vtensor<[1,64,1,3,128],f32>) -> !torch.vtensor<[3,64,1,1,128],f32>
    %343 = torch.operator "onnx.QuantizeLinear"(%342, %94, %93) : (!torch.vtensor<[3,64,1,1,128],f32>, !torch.vtensor<[],f32>, !torch.vtensor<[],si8>) -> !torch.vtensor<[3,64,1,1,128],si8>
    %344 = torch.operator "onnx.DequantizeLinear"(%343, %94, %93) : (!torch.vtensor<[3,64,1,1,128],si8>, !torch.vtensor<[],f32>, !torch.vtensor<[],si8>) -> !torch.vtensor<[3,64,1,1,128],f32>
    %345 = torch.operator "onnx.Squeeze"(%344, %2) : (!torch.vtensor<[3,64,1,1,128],f32>, !torch.vtensor<[1],si64>) -> !torch.vtensor<[3,64,1,128],f32>
    %346 = torch.operator "onnx.QuantizeLinear"(%345, %94, %93) : (!torch.vtensor<[3,64,1,128],f32>, !torch.vtensor<[],f32>, !torch.vtensor<[],si8>) -> !torch.vtensor<[3,64,1,128],si8>
    %347 = torch.operator "onnx.DequantizeLinear"(%346, %94, %93) : (!torch.vtensor<[3,64,1,128],si8>, !torch.vtensor<[],f32>, !torch.vtensor<[],si8>) -> !torch.vtensor<[3,64,1,128],f32>
    %348 = torch.operator "onnx.Gather"(%347, %3) {torch.onnx.axis = 0 : si64} : (!torch.vtensor<[3,64,1,128],f32>, !torch.vtensor<[],si64>) -> !torch.vtensor<[64,1,128],f32>
    %349 = torch.operator "onnx.Gather"(%347, %4) {torch.onnx.axis = 0 : si64} : (!torch.vtensor<[3,64,1,128],f32>, !torch.vtensor<[],si64>) -> !torch.vtensor<[64,1,128],f32>
    %350 = torch.operator "onnx.Gather"(%347, %5) {torch.onnx.axis = 0 : si64} : (!torch.vtensor<[3,64,1,128],f32>, !torch.vtensor<[],si64>) -> !torch.vtensor<[64,1,128],f32>
    %351 = torch.operator "onnx.QuantizeLinear"(%348, %94, %93) : (!torch.vtensor<[64,1,128],f32>, !torch.vtensor<[],f32>, !torch.vtensor<[],si8>) -> !torch.vtensor<[64,1,128],si8>
    %352 = torch.operator "onnx.QuantizeLinear"(%349, %94, %93) : (!torch.vtensor<[64,1,128],f32>, !torch.vtensor<[],f32>, !torch.vtensor<[],si8>) -> !torch.vtensor<[64,1,128],si8>
    %353 = torch.operator "onnx.QuantizeLinear"(%350, %94, %93) : (!torch.vtensor<[64,1,128],f32>, !torch.vtensor<[],f32>, !torch.vtensor<[],si8>) -> !torch.vtensor<[64,1,128],si8>
    %354 = torch.operator "onnx.DequantizeLinear"(%351, %94, %93) : (!torch.vtensor<[64,1,128],si8>, !torch.vtensor<[],f32>, !torch.vtensor<[],si8>) -> !torch.vtensor<[64,1,128],f32>
    %355 = torch.operator "onnx.DequantizeLinear"(%352, %94, %93) : (!torch.vtensor<[64,1,128],si8>, !torch.vtensor<[],f32>, !torch.vtensor<[],si8>) -> !torch.vtensor<[64,1,128],f32>
    %356 = torch.operator "onnx.DequantizeLinear"(%353, %94, %93) : (!torch.vtensor<[64,1,128],si8>, !torch.vtensor<[],f32>, !torch.vtensor<[],si8>) -> !torch.vtensor<[64,1,128],f32>
    %357 = torch.operator "onnx.Reshape"(%354, %6) {torch.onnx.allowzero = 1 : si64} : (!torch.vtensor<[64,1,128],f32>, !torch.vtensor<[3],si64>) -> !torch.vtensor<[64,2,64],f32>
    %358 = torch.operator "onnx.Reshape"(%355, %6) {torch.onnx.allowzero = 1 : si64} : (!torch.vtensor<[64,1,128],f32>, !torch.vtensor<[3],si64>) -> !torch.vtensor<[64,2,64],f32>
    %359 = torch.operator "onnx.Reshape"(%356, %6) {torch.onnx.allowzero = 1 : si64} : (!torch.vtensor<[64,1,128],f32>, !torch.vtensor<[3],si64>) -> !torch.vtensor<[64,2,64],f32>
    %360 = torch.operator "onnx.QuantizeLinear"(%357, %94, %93) : (!torch.vtensor<[64,2,64],f32>, !torch.vtensor<[],f32>, !torch.vtensor<[],si8>) -> !torch.vtensor<[64,2,64],si8>
    %361 = torch.operator "onnx.QuantizeLinear"(%358, %94, %93) : (!torch.vtensor<[64,2,64],f32>, !torch.vtensor<[],f32>, !torch.vtensor<[],si8>) -> !torch.vtensor<[64,2,64],si8>
    %362 = torch.operator "onnx.QuantizeLinear"(%359, %94, %93) : (!torch.vtensor<[64,2,64],f32>, !torch.vtensor<[],f32>, !torch.vtensor<[],si8>) -> !torch.vtensor<[64,2,64],si8>
    %363 = torch.operator "onnx.DequantizeLinear"(%360, %94, %93) : (!torch.vtensor<[64,2,64],si8>, !torch.vtensor<[],f32>, !torch.vtensor<[],si8>) -> !torch.vtensor<[64,2,64],f32>
    %364 = torch.operator "onnx.DequantizeLinear"(%361, %94, %93) : (!torch.vtensor<[64,2,64],si8>, !torch.vtensor<[],f32>, !torch.vtensor<[],si8>) -> !torch.vtensor<[64,2,64],f32>
    %365 = torch.operator "onnx.DequantizeLinear"(%362, %94, %93) : (!torch.vtensor<[64,2,64],si8>, !torch.vtensor<[],f32>, !torch.vtensor<[],si8>) -> !torch.vtensor<[64,2,64],f32>
    %366 = torch.operator "onnx.Transpose"(%363) {torch.onnx.perm = [1 : si64, 0 : si64, 2 : si64]} : (!torch.vtensor<[64,2,64],f32>) -> !torch.vtensor<[2,64,64],f32>
    %367 = torch.operator "onnx.Transpose"(%364) {torch.onnx.perm = [1 : si64, 0 : si64, 2 : si64]} : (!torch.vtensor<[64,2,64],f32>) -> !torch.vtensor<[2,64,64],f32>
    %368 = torch.operator "onnx.Transpose"(%365) {torch.onnx.perm = [1 : si64, 0 : si64, 2 : si64]} : (!torch.vtensor<[64,2,64],f32>) -> !torch.vtensor<[2,64,64],f32>
    %369 = torch.operator "onnx.QuantizeLinear"(%366, %94, %93) : (!torch.vtensor<[2,64,64],f32>, !torch.vtensor<[],f32>, !torch.vtensor<[],si8>) -> !torch.vtensor<[2,64,64],si8>
    %370 = torch.operator "onnx.QuantizeLinear"(%367, %94, %93) : (!torch.vtensor<[2,64,64],f32>, !torch.vtensor<[],f32>, !torch.vtensor<[],si8>) -> !torch.vtensor<[2,64,64],si8>
    %371 = torch.operator "onnx.QuantizeLinear"(%368, %94, %93) : (!torch.vtensor<[2,64,64],f32>, !torch.vtensor<[],f32>, !torch.vtensor<[],si8>) -> !torch.vtensor<[2,64,64],si8>
    %372 = torch.operator "onnx.DequantizeLinear"(%369, %94, %93) : (!torch.vtensor<[2,64,64],si8>, !torch.vtensor<[],f32>, !torch.vtensor<[],si8>) -> !torch.vtensor<[2,64,64],f32>
    %373 = torch.operator "onnx.DequantizeLinear"(%370, %94, %93) : (!torch.vtensor<[2,64,64],si8>, !torch.vtensor<[],f32>, !torch.vtensor<[],si8>) -> !torch.vtensor<[2,64,64],f32>
    %374 = torch.operator "onnx.DequantizeLinear"(%371, %94, %93) : (!torch.vtensor<[2,64,64],si8>, !torch.vtensor<[],f32>, !torch.vtensor<[],si8>) -> !torch.vtensor<[2,64,64],f32>
    %375 = torch.operator "onnx.Reshape"(%372, %7) {torch.onnx.allowzero = 1 : si64} : (!torch.vtensor<[2,64,64],f32>, !torch.vtensor<[4],si64>) -> !torch.vtensor<[1,2,64,64],f32>
    %376 = torch.operator "onnx.Transpose"(%373) {torch.onnx.perm = [0 : si64, 2 : si64, 1 : si64]} : (!torch.vtensor<[2,64,64],f32>) -> !torch.vtensor<[2,64,64],f32>
    %377 = torch.operator "onnx.Reshape"(%374, %7) {torch.onnx.allowzero = 1 : si64} : (!torch.vtensor<[2,64,64],f32>, !torch.vtensor<[4],si64>) -> !torch.vtensor<[1,2,64,64],f32>
    %378 = torch.operator "onnx.QuantizeLinear"(%375, %94, %93) : (!torch.vtensor<[1,2,64,64],f32>, !torch.vtensor<[],f32>, !torch.vtensor<[],si8>) -> !torch.vtensor<[1,2,64,64],si8>
    %379 = torch.operator "onnx.QuantizeLinear"(%376, %94, %93) : (!torch.vtensor<[2,64,64],f32>, !torch.vtensor<[],f32>, !torch.vtensor<[],si8>) -> !torch.vtensor<[2,64,64],si8>
    %380 = torch.operator "onnx.QuantizeLinear"(%377, %94, %93) : (!torch.vtensor<[1,2,64,64],f32>, !torch.vtensor<[],f32>, !torch.vtensor<[],si8>) -> !torch.vtensor<[1,2,64,64],si8>
    %381 = torch.operator "onnx.DequantizeLinear"(%378, %94, %93) : (!torch.vtensor<[1,2,64,64],si8>, !torch.vtensor<[],f32>, !torch.vtensor<[],si8>) -> !torch.vtensor<[1,2,64,64],f32>
    %382 = torch.operator "onnx.DequantizeLinear"(%379, %94, %93) : (!torch.vtensor<[2,64,64],si8>, !torch.vtensor<[],f32>, !torch.vtensor<[],si8>) -> !torch.vtensor<[2,64,64],f32>
    %383 = torch.operator "onnx.DequantizeLinear"(%380, %94, %93) : (!torch.vtensor<[1,2,64,64],si8>, !torch.vtensor<[],f32>, !torch.vtensor<[],si8>) -> !torch.vtensor<[1,2,64,64],f32>
    %384 = torch.operator "onnx.Mul"(%381, %191) : (!torch.vtensor<[1,2,64,64],f32>, !torch.vtensor<[1],f32>) -> !torch.vtensor<[1,2,64,64],f32>
    %385 = torch.operator "onnx.Reshape"(%382, %7) {torch.onnx.allowzero = 0 : si64} : (!torch.vtensor<[2,64,64],f32>, !torch.vtensor<[4],si64>) -> !torch.vtensor<[1,2,64,64],f32>
    %386 = torch.operator "onnx.QuantizeLinear"(%384, %96, %95) : (!torch.vtensor<[1,2,64,64],f32>, !torch.vtensor<[],f32>, !torch.vtensor<[],si8>) -> !torch.vtensor<[1,2,64,64],si8>
    %387 = torch.operator "onnx.QuantizeLinear"(%385, %94, %93) : (!torch.vtensor<[1,2,64,64],f32>, !torch.vtensor<[],f32>, !torch.vtensor<[],si8>) -> !torch.vtensor<[1,2,64,64],si8>
    %388 = torch.operator "onnx.DequantizeLinear"(%386, %96, %95) : (!torch.vtensor<[1,2,64,64],si8>, !torch.vtensor<[],f32>, !torch.vtensor<[],si8>) -> !torch.vtensor<[1,2,64,64],f32>
    %389 = torch.operator "onnx.DequantizeLinear"(%387, %94, %93) : (!torch.vtensor<[1,2,64,64],si8>, !torch.vtensor<[],f32>, !torch.vtensor<[],si8>) -> !torch.vtensor<[1,2,64,64],f32>
    %390 = torch.operator "onnx.Mul"(%389, %191) : (!torch.vtensor<[1,2,64,64],f32>, !torch.vtensor<[1],f32>) -> !torch.vtensor<[1,2,64,64],f32>
    %391 = torch.operator "onnx.QuantizeLinear"(%390, %98, %97) : (!torch.vtensor<[1,2,64,64],f32>, !torch.vtensor<[],f32>, !torch.vtensor<[],si8>) -> !torch.vtensor<[1,2,64,64],si8>
    %392 = torch.operator "onnx.DequantizeLinear"(%391, %98, %97) : (!torch.vtensor<[1,2,64,64],si8>, !torch.vtensor<[],f32>, !torch.vtensor<[],si8>) -> !torch.vtensor<[1,2,64,64],f32>
    %393 = torch.operator "onnx.MatMul"(%388, %392) : (!torch.vtensor<[1,2,64,64],f32>, !torch.vtensor<[1,2,64,64],f32>) -> !torch.vtensor<[1,2,64,64],f32>
    %394 = torch.operator "onnx.QuantizeLinear"(%393, %100, %99) : (!torch.vtensor<[1,2,64,64],f32>, !torch.vtensor<[],f32>, !torch.vtensor<[],si8>) -> !torch.vtensor<[1,2,64,64],si8>
    %395 = torch.operator "onnx.DequantizeLinear"(%394, %100, %99) : (!torch.vtensor<[1,2,64,64],si8>, !torch.vtensor<[],f32>, !torch.vtensor<[],si8>) -> !torch.vtensor<[1,2,64,64],f32>
    %396 = torch.operator "onnx.Softmax"(%395) {torch.onnx.axis = -1 : si64} : (!torch.vtensor<[1,2,64,64],f32>) -> !torch.vtensor<[1,2,64,64],f32>
    %397 = torch.operator "onnx.QuantizeLinear"(%396, %102, %101) : (!torch.vtensor<[1,2,64,64],f32>, !torch.vtensor<[],f32>, !torch.vtensor<[],si8>) -> !torch.vtensor<[1,2,64,64],si8>
    %398 = torch.operator "onnx.DequantizeLinear"(%397, %102, %101) : (!torch.vtensor<[1,2,64,64],si8>, !torch.vtensor<[],f32>, !torch.vtensor<[],si8>) -> !torch.vtensor<[1,2,64,64],f32>
    %399 = torch.operator "onnx.MatMul"(%398, %383) : (!torch.vtensor<[1,2,64,64],f32>, !torch.vtensor<[1,2,64,64],f32>) -> !torch.vtensor<[1,2,64,64],f32>
    %400 = torch.operator "onnx.QuantizeLinear"(%399, %104, %103) : (!torch.vtensor<[1,2,64,64],f32>, !torch.vtensor<[],f32>, !torch.vtensor<[],si8>) -> !torch.vtensor<[1,2,64,64],si8>
    %401 = torch.operator "onnx.DequantizeLinear"(%400, %104, %103) : (!torch.vtensor<[1,2,64,64],si8>, !torch.vtensor<[],f32>, !torch.vtensor<[],si8>) -> !torch.vtensor<[1,2,64,64],f32>
    %402 = torch.operator "onnx.Transpose"(%401) {torch.onnx.perm = [2 : si64, 0 : si64, 1 : si64, 3 : si64]} : (!torch.vtensor<[1,2,64,64],f32>) -> !torch.vtensor<[64,1,2,64],f32>
    %403 = torch.operator "onnx.QuantizeLinear"(%402, %104, %103) : (!torch.vtensor<[64,1,2,64],f32>, !torch.vtensor<[],f32>, !torch.vtensor<[],si8>) -> !torch.vtensor<[64,1,2,64],si8>
    %404 = torch.operator "onnx.DequantizeLinear"(%403, %104, %103) : (!torch.vtensor<[64,1,2,64],si8>, !torch.vtensor<[],f32>, !torch.vtensor<[],si8>) -> !torch.vtensor<[64,1,2,64],f32>
    %405 = torch.operator "onnx.Reshape"(%404, %8) {torch.onnx.allowzero = 1 : si64} : (!torch.vtensor<[64,1,2,64],f32>, !torch.vtensor<[2],si64>) -> !torch.vtensor<[64,128],f32>
    %406 = torch.operator "onnx.QuantizeLinear"(%405, %104, %103) : (!torch.vtensor<[64,128],f32>, !torch.vtensor<[],f32>, !torch.vtensor<[],si8>) -> !torch.vtensor<[64,128],si8>
    %407 = torch.operator "onnx.DequantizeLinear"(%406, %104, %103) : (!torch.vtensor<[64,128],si8>, !torch.vtensor<[],f32>, !torch.vtensor<[],si8>) -> !torch.vtensor<[64,128],f32>
    %408 = torch.operator "onnx.Gemm"(%407, %181, %177) {torch.onnx.alpha = 1.000000e+00 : f32, torch.onnx.beta = 1.000000e+00 : f32, torch.onnx.transA = 0 : si64, torch.onnx.transB = 1 : si64} : (!torch.vtensor<[64,128],f32>, !torch.vtensor<[128,128],f32>, !torch.vtensor<[128],f32>) -> !torch.vtensor<[64,128],f32>
    %409 = torch.operator "onnx.QuantizeLinear"(%408, %106, %105) : (!torch.vtensor<[64,128],f32>, !torch.vtensor<[],f32>, !torch.vtensor<[],si8>) -> !torch.vtensor<[64,128],si8>
    %410 = torch.operator "onnx.DequantizeLinear"(%409, %106, %105) : (!torch.vtensor<[64,128],si8>, !torch.vtensor<[],f32>, !torch.vtensor<[],si8>) -> !torch.vtensor<[64,128],f32>
    %411 = torch.operator "onnx.Reshape"(%410, %9) {torch.onnx.allowzero = 1 : si64} : (!torch.vtensor<[64,128],f32>, !torch.vtensor<[3],si64>) -> !torch.vtensor<[64,1,128],f32>
    %412 = torch.operator "onnx.QuantizeLinear"(%411, %106, %105) : (!torch.vtensor<[64,1,128],f32>, !torch.vtensor<[],f32>, !torch.vtensor<[],si8>) -> !torch.vtensor<[64,1,128],si8>
    %413 = torch.operator "onnx.DequantizeLinear"(%412, %106, %105) : (!torch.vtensor<[64,1,128],si8>, !torch.vtensor<[],f32>, !torch.vtensor<[],si8>) -> !torch.vtensor<[64,1,128],f32>
    %414 = torch.operator "onnx.Transpose"(%413) {torch.onnx.perm = [1 : si64, 0 : si64, 2 : si64]} : (!torch.vtensor<[64,1,128],f32>) -> !torch.vtensor<[1,64,128],f32>
    %415 = torch.operator "onnx.QuantizeLinear"(%414, %106, %105) : (!torch.vtensor<[1,64,128],f32>, !torch.vtensor<[],f32>, !torch.vtensor<[],si8>) -> !torch.vtensor<[1,64,128],si8>
    %416 = torch.operator "onnx.DequantizeLinear"(%415, %106, %105) : (!torch.vtensor<[1,64,128],si8>, !torch.vtensor<[],f32>, !torch.vtensor<[],si8>) -> !torch.vtensor<[1,64,128],f32>
    %417 = torch.operator "onnx.Add"(%323, %416) : (!torch.vtensor<[1,64,128],f32>, !torch.vtensor<[1,64,128],f32>) -> !torch.vtensor<[1,64,128],f32>
    %418 = torch.operator "onnx.QuantizeLinear"(%417, %111, %110) : (!torch.vtensor<[1,64,128],f32>, !torch.vtensor<[],f32>, !torch.vtensor<[],si8>) -> !torch.vtensor<[1,64,128],si8>
    %419 = torch.operator "onnx.DequantizeLinear"(%418, %111, %110) : (!torch.vtensor<[1,64,128],si8>, !torch.vtensor<[],f32>, !torch.vtensor<[],si8>) -> !torch.vtensor<[1,64,128],f32>
    %420 = torch.operator "onnx.LayerNormalization"(%419, %180, %178) {torch.onnx.axis = -1 : si64, torch.onnx.epsilon = 9.99999974E-6 : f32, torch.onnx.stash_type = 1 : si64} : (!torch.vtensor<[1,64,128],f32>, !torch.vtensor<[128],f32>, !torch.vtensor<[128],f32>) -> !torch.vtensor<[1,64,128],f32>
    %421 = torch.operator "onnx.QuantizeLinear"(%420, %113, %112) : (!torch.vtensor<[1,64,128],f32>, !torch.vtensor<[],f32>, !torch.vtensor<[],si8>) -> !torch.vtensor<[1,64,128],si8>
    %422 = torch.operator "onnx.DequantizeLinear"(%421, %113, %112) : (!torch.vtensor<[1,64,128],si8>, !torch.vtensor<[],f32>, !torch.vtensor<[],si8>) -> !torch.vtensor<[1,64,128],f32>
    %423 = torch.operator "onnx.MatMul"(%422, %188) : (!torch.vtensor<[1,64,128],f32>, !torch.vtensor<[128,512],f32>) -> !torch.vtensor<[1,64,512],f32>
    %424 = torch.operator "onnx.QuantizeLinear"(%423, %118, %117) : (!torch.vtensor<[1,64,512],f32>, !torch.vtensor<[],f32>, !torch.vtensor<[],si8>) -> !torch.vtensor<[1,64,512],si8>
    %425 = torch.operator "onnx.DequantizeLinear"(%424, %118, %117) : (!torch.vtensor<[1,64,512],si8>, !torch.vtensor<[],f32>, !torch.vtensor<[],si8>) -> !torch.vtensor<[1,64,512],f32>
    %426 = torch.operator "onnx.Add"(%425, %182) : (!torch.vtensor<[1,64,512],f32>, !torch.vtensor<[512],f32>) -> !torch.vtensor<[1,64,512],f32>
    %427 = torch.operator "onnx.QuantizeLinear"(%426, %123, %122) : (!torch.vtensor<[1,64,512],f32>, !torch.vtensor<[],f32>, !torch.vtensor<[],si8>) -> !torch.vtensor<[1,64,512],si8>
    %428 = torch.operator "onnx.DequantizeLinear"(%427, %123, %122) : (!torch.vtensor<[1,64,512],si8>, !torch.vtensor<[],f32>, !torch.vtensor<[],si8>) -> !torch.vtensor<[1,64,512],f32>
    %429 = torch.operator "onnx.Div"(%428, %10) : (!torch.vtensor<[1,64,512],f32>, !torch.vtensor<[],f32>) -> !torch.vtensor<[1,64,512],f32>
    %430 = torch.operator "onnx.Erf"(%429) : (!torch.vtensor<[1,64,512],f32>) -> !torch.vtensor<[1,64,512],f32>
    %431 = torch.operator "onnx.QuantizeLinear"(%430, %125, %124) : (!torch.vtensor<[1,64,512],f32>, !torch.vtensor<[],f32>, !torch.vtensor<[],si8>) -> !torch.vtensor<[1,64,512],si8>
    %432 = torch.operator "onnx.DequantizeLinear"(%431, %125, %124) : (!torch.vtensor<[1,64,512],si8>, !torch.vtensor<[],f32>, !torch.vtensor<[],si8>) -> !torch.vtensor<[1,64,512],f32>
    %433 = torch.operator "onnx.Add"(%432, %193) : (!torch.vtensor<[1,64,512],f32>, !torch.vtensor<[],f32>) -> !torch.vtensor<[1,64,512],f32>
    %434 = torch.operator "onnx.QuantizeLinear"(%433, %127, %126) : (!torch.vtensor<[1,64,512],f32>, !torch.vtensor<[],f32>, !torch.vtensor<[],si8>) -> !torch.vtensor<[1,64,512],si8>
    %435 = torch.operator "onnx.DequantizeLinear"(%434, %127, %126) : (!torch.vtensor<[1,64,512],si8>, !torch.vtensor<[],f32>, !torch.vtensor<[],si8>) -> !torch.vtensor<[1,64,512],f32>
    %436 = torch.operator "onnx.Mul"(%194, %435) : (!torch.vtensor<[],f32>, !torch.vtensor<[1,64,512],f32>) -> !torch.vtensor<[1,64,512],f32>
    %437 = torch.operator "onnx.QuantizeLinear"(%436, %129, %128) : (!torch.vtensor<[1,64,512],f32>, !torch.vtensor<[],f32>, !torch.vtensor<[],si8>) -> !torch.vtensor<[1,64,512],si8>
    %438 = torch.operator "onnx.DequantizeLinear"(%437, %129, %128) : (!torch.vtensor<[1,64,512],si8>, !torch.vtensor<[],f32>, !torch.vtensor<[],si8>) -> !torch.vtensor<[1,64,512],f32>
    %439 = torch.operator "onnx.Mul"(%428, %438) : (!torch.vtensor<[1,64,512],f32>, !torch.vtensor<[1,64,512],f32>) -> !torch.vtensor<[1,64,512],f32>
    %440 = torch.operator "onnx.QuantizeLinear"(%439, %131, %130) : (!torch.vtensor<[1,64,512],f32>, !torch.vtensor<[],f32>, !torch.vtensor<[],si8>) -> !torch.vtensor<[1,64,512],si8>
    %441 = torch.operator "onnx.DequantizeLinear"(%440, %131, %130) : (!torch.vtensor<[1,64,512],si8>, !torch.vtensor<[],f32>, !torch.vtensor<[],si8>) -> !torch.vtensor<[1,64,512],f32>
    %442 = torch.operator "onnx.MatMul"(%441, %189) : (!torch.vtensor<[1,64,512],f32>, !torch.vtensor<[512,128],f32>) -> !torch.vtensor<[1,64,128],f32>
    %443 = torch.operator "onnx.QuantizeLinear"(%442, %136, %135) : (!torch.vtensor<[1,64,128],f32>, !torch.vtensor<[],f32>, !torch.vtensor<[],si8>) -> !torch.vtensor<[1,64,128],si8>
    %444 = torch.operator "onnx.DequantizeLinear"(%443, %136, %135) : (!torch.vtensor<[1,64,128],si8>, !torch.vtensor<[],f32>, !torch.vtensor<[],si8>) -> !torch.vtensor<[1,64,128],f32>
    %445 = torch.operator "onnx.Add"(%444, %183) : (!torch.vtensor<[1,64,128],f32>, !torch.vtensor<[128],f32>) -> !torch.vtensor<[1,64,128],f32>
    %446 = torch.operator "onnx.QuantizeLinear"(%445, %141, %140) : (!torch.vtensor<[1,64,128],f32>, !torch.vtensor<[],f32>, !torch.vtensor<[],si8>) -> !torch.vtensor<[1,64,128],si8>
    %447 = torch.operator "onnx.DequantizeLinear"(%446, %141, %140) : (!torch.vtensor<[1,64,128],si8>, !torch.vtensor<[],f32>, !torch.vtensor<[],si8>) -> !torch.vtensor<[1,64,128],f32>
    %448 = torch.operator "onnx.Add"(%419, %447) : (!torch.vtensor<[1,64,128],f32>, !torch.vtensor<[1,64,128],f32>) -> !torch.vtensor<[1,64,128],f32>
    %449 = torch.operator "onnx.QuantizeLinear"(%448, %143, %142) : (!torch.vtensor<[1,64,128],f32>, !torch.vtensor<[],f32>, !torch.vtensor<[],si8>) -> !torch.vtensor<[1,64,128],si8>
    %450 = torch.operator "onnx.DequantizeLinear"(%449, %143, %142) : (!torch.vtensor<[1,64,128],si8>, !torch.vtensor<[],f32>, !torch.vtensor<[],si8>) -> !torch.vtensor<[1,64,128],f32>
    %451 = torch.operator "onnx.Gather"(%450, %3) {torch.onnx.axis = 1 : si64} : (!torch.vtensor<[1,64,128],f32>, !torch.vtensor<[],si64>) -> !torch.vtensor<[1,128],f32>
    %452 = torch.operator "onnx.QuantizeLinear"(%451, %143, %142) : (!torch.vtensor<[1,128],f32>, !torch.vtensor<[],f32>, !torch.vtensor<[],si8>) -> !torch.vtensor<[1,128],si8>
    %453 = torch.operator "onnx.DequantizeLinear"(%452, %143, %142) : (!torch.vtensor<[1,128],si8>, !torch.vtensor<[],f32>, !torch.vtensor<[],si8>) -> !torch.vtensor<[1,128],f32>
    %454 = torch.operator "onnx.Gemm"(%453, %185, %184) {torch.onnx.alpha = 1.000000e+00 : f32, torch.onnx.beta = 1.000000e+00 : f32, torch.onnx.transA = 0 : si64, torch.onnx.transB = 1 : si64} : (!torch.vtensor<[1,128],f32>, !torch.vtensor<[16,128],f32>, !torch.vtensor<[16],f32>) -> !torch.vtensor<[1,16],f32>
    %455 = torch.operator "onnx.QuantizeLinear"(%454, %145, %144) : (!torch.vtensor<[1,16],f32>, !torch.vtensor<[],f32>, !torch.vtensor<[],si8>) -> !torch.vtensor<[1,16],si8>
    %456 = torch.operator "onnx.DequantizeLinear"(%455, %145, %144) : (!torch.vtensor<[1,16],si8>, !torch.vtensor<[],f32>, !torch.vtensor<[],si8>) -> !torch.vtensor<[1,16],f32>
    return %456 : !torch.vtensor<[1,16],f32>
  }
}

{-#
  dialect_resources: {
    builtin: {
      val_9: "…",
      val_10: "0x080000000000000000000000",
      val_11: "0x08000000FEFFFFFFFFFFFFFF",
      val_12: "0x080000000000000000000000",
      val_13: "0x080000000100000000000000",
      val_14: "0x080000000200000000000000",
      val_19: "0x08000000400000000000000002000000000000004000000000000000",
      val_35: "…",
      val_80: "0x0800000040000000000000008000000000000000",
      val_85: "0x08000000400000000000000001000000000000008000000000000000",
      val_90: "0x08000000F304B53F",
      _blocks.0.norm1.weight_quantized: "…",
      val_2_quantized: "…",
      _blocks.0.attn.in_proj_bias_quantized: "…",
      val_70_quantized: "0x080000007F",
      _blocks.0.attn.out_proj.weight_quantized: "…",
      val_88_quantized: "…",
      _blocks.0.mlp.0.bias_quantized: "…",
      val_93_quantized: "0x080000007F",
      val_95_quantized: "0x080000007F",
      val_97_quantized: "…",
      _blocks.0.mlp.2.bias_quantized: "…",
      val_101_quantized: "…",
      _blocks.1.attn.out_proj.weight_quantized: "…",
      val_181_quantized: "…",
      _blocks.1.mlp.0.bias_quantized: "…",
      val_190_quantized: "…",
      _blocks.1.mlp.2.bias_quantized: "…",
      _head.weight_quantized: "…",
      _blocks.0.norm1.bias_quantized: "…",
      _blocks.0.norm1.bias_quantized_scale: "0x08000000DF909139",
      _blocks.0.norm1.bias0_quantized: "…",
      _blocks.0.norm1.bias0_quantized_scale: "0x08000000CF013836",
      _blocks.0.norm1.bias1_quantized: "…",
      _blocks.0.norm1.bias1_quantized_scale: "0x080000001A519339",
      _blocks.0.norm1.bias2_quantized: "…",
      _blocks.0.norm1.bias2_quantized_scale: "0x08000000A1EE9739",
      _blocks.0.norm1.bias3_quantized: "…",
      _blocks.0.norm1.bias3_quantized_scale: "0x08000000222B4636",
      _blocks.0.norm1.bias4_quantized: "…",
      _blocks.0.norm1.bias4_quantized_scale: "0x080000001FA19B39",
      _head.bias_quantized: "…",
      _head.bias_quantized_scale: "0x080000009782DE37"
    }
  }
#-}
