// -----// IR Dump After AutoInputConversionPipelinePass (iree-auto-input-conversion) //----- //
module {
  func.func @multiple_results(%arg0: tensor<2xf32>, %arg1: tensor<2xf32>) -> (tensor<2xf32>, tensor<2xf32>) {
    %0 = math.absf %arg0 : tensor<2xf32>
    %1 = math.absf %arg1 : tensor<2xf32>
    return %0, %1 : tensor<2xf32>, tensor<2xf32>
  }
}


// -----// IR Dump After IREEImportPublicPass (iree-import-public) //----- //
module {
  util.func public @multiple_results(%arg0: tensor<2xf32>, %arg1: tensor<2xf32>) -> (tensor<2xf32>, tensor<2xf32>) {
    %0 = math.absf %arg0 : tensor<2xf32>
    %1 = math.absf %arg1 : tensor<2xf32>
    util.return %0, %1 : tensor<2xf32>, tensor<2xf32>
  }
}


// -----// IR Dump After ImportMLProgramPass (iree-import-ml-program) //----- //
module {
  util.func public @multiple_results(%arg0: tensor<2xf32>, %arg1: tensor<2xf32>) -> (tensor<2xf32>, tensor<2xf32>) {
    %0 = math.absf %arg0 : tensor<2xf32>
    %1 = math.absf %arg1 : tensor<2xf32>
    util.return %0, %1 : tensor<2xf32>, tensor<2xf32>
  }
}


// -----// IR Dump After SanitizeModuleNamesPass (iree-sanitize-module-names) //----- //
module {
  util.func public @multiple_results(%arg0: tensor<2xf32>, %arg1: tensor<2xf32>) -> (tensor<2xf32>, tensor<2xf32>) {
    %0 = math.absf %arg0 : tensor<2xf32>
    %1 = math.absf %arg1 : tensor<2xf32>
    util.return %0, %1 : tensor<2xf32>, tensor<2xf32>
  }
}


// -----// IR Dump After ConvertShardToFlowPass (iree-convert-shard-to-flow) //----- //
module {
  util.func public @multiple_results(%arg0: tensor<2xf32>, %arg1: tensor<2xf32>) -> (tensor<2xf32>, tensor<2xf32>) {
    %0 = math.absf %arg0 : tensor<2xf32>
    %1 = math.absf %arg1 : tensor<2xf32>
    util.return %0, %1 : tensor<2xf32>, tensor<2xf32>
  }
}


// -----// IR Dump After DemoteF64ToF32Pass (iree-input-conversion-demote-f64-to-f32) //----- //
module {
  util.func public @multiple_results(%arg0: tensor<2xf32>, %arg1: tensor<2xf32>) -> (tensor<2xf32>, tensor<2xf32>) {
    %0 = math.absf %arg0 : tensor<2xf32>
    %1 = math.absf %arg1 : tensor<2xf32>
    util.return %0, %1 : tensor<2xf32>, tensor<2xf32>
  }
}


// -----// IR Dump After ConvertStreamableOpsPass (iree-abi-convert-streamable-ops) //----- //
module {
  util.func public @multiple_results(%arg0: tensor<2xf32>, %arg1: tensor<2xf32>) -> (tensor<2xf32>, tensor<2xf32>) {
    %0 = math.absf %arg0 : tensor<2xf32>
    %1 = math.absf %arg1 : tensor<2xf32>
    util.return %0, %1 : tensor<2xf32>, tensor<2xf32>
  }
}


// -----// IR Dump After WrapEntryPointsPass (iree-abi-wrap-entry-points) //----- //
module {
  util.func public @multiple_results(%arg0: !hal.buffer_view, %arg1: !hal.buffer_view) -> (!hal.buffer_view, !hal.buffer_view) attributes {iree.abi.stub, iree.reflection = {iree.abi.declaration = "sync func @multiple_results(%input0: tensor<2xf32>, %input1: tensor<2xf32>) -> (%output0: tensor<2xf32>, %output1: tensor<2xf32>)"}} {
    %0 = hal.tensor.import %arg0 "input0" : !hal.buffer_view -> tensor<2xf32>
    %1 = hal.tensor.import %arg1 "input1" : !hal.buffer_view -> tensor<2xf32>
    %2:2 = util.call @_multiple_results(%0, %1) : (tensor<2xf32>, tensor<2xf32>) -> (tensor<2xf32>, tensor<2xf32>)
    %3 = hal.tensor.export %2#0 "output0" : tensor<2xf32> -> !hal.buffer_view
    %4 = hal.tensor.export %2#1 "output1" : tensor<2xf32> -> !hal.buffer_view
    util.return %3, %4 : !hal.buffer_view, !hal.buffer_view
  }
  util.func private @_multiple_results(%arg0: tensor<2xf32>, %arg1: tensor<2xf32>) -> (tensor<2xf32>, tensor<2xf32>) attributes {hal.abi.convention = #hal.abi.convention<synchronous>} {
    %0 = math.absf %arg0 : tensor<2xf32>
    %1 = math.absf %arg1 : tensor<2xf32>
    util.return %0, %1 : tensor<2xf32>, tensor<2xf32>
  }
}


// -----// IR Dump After Canonicalizer (canonicalize) //----- //
util.func private @_multiple_results(%arg0: tensor<2xf32>, %arg1: tensor<2xf32>) -> (tensor<2xf32>, tensor<2xf32>) attributes {hal.abi.convention = #hal.abi.convention<synchronous>} {
  %0 = math.absf %arg0 : tensor<2xf32>
  %1 = math.absf %arg1 : tensor<2xf32>
  util.return %0, %1 : tensor<2xf32>, tensor<2xf32>
}

// -----// IR Dump After Canonicalizer (canonicalize) //----- //
util.func public @multiple_results(%arg0: !hal.buffer_view, %arg1: !hal.buffer_view) -> (!hal.buffer_view, !hal.buffer_view) attributes {iree.abi.stub, iree.reflection = {iree.abi.declaration = "sync func @multiple_results(%input0: tensor<2xf32>, %input1: tensor<2xf32>) -> (%output0: tensor<2xf32>, %output1: tensor<2xf32>)"}} {
  %0 = hal.tensor.import %arg0 "input0" : !hal.buffer_view -> tensor<2xf32>
  %1 = hal.tensor.import %arg1 "input1" : !hal.buffer_view -> tensor<2xf32>
  %2:2 = util.call @_multiple_results(%0, %1) : (tensor<2xf32>, tensor<2xf32>) -> (tensor<2xf32>, tensor<2xf32>)
  %3 = hal.tensor.export %2#0 "output0" : tensor<2xf32> -> !hal.buffer_view
  %4 = hal.tensor.export %2#1 "output1" : tensor<2xf32> -> !hal.buffer_view
  util.return %3, %4 : !hal.buffer_view, !hal.buffer_view
}

// -----// IR Dump After Canonicalizer (canonicalize) //----- //
util.func public @multiple_results(%arg0: !hal.buffer_view, %arg1: !hal.buffer_view) -> (!hal.buffer_view, !hal.buffer_view) attributes {iree.abi.stub, iree.reflection = {iree.abi.declaration = "sync func @multiple_results(%input0: tensor<2xf32>, %input1: tensor<2xf32>) -> (%output0: tensor<2xf32>, %output1: tensor<2xf32>)"}} {
  %0 = hal.tensor.import %arg0 "input0" : !hal.buffer_view -> tensor<2xf32>
  %1 = hal.tensor.import %arg1 "input1" : !hal.buffer_view -> tensor<2xf32>
  %2 = math.absf %0 : tensor<2xf32>
  %3 = math.absf %1 : tensor<2xf32>
  %4 = hal.tensor.export %2 "output0" : tensor<2xf32> -> !hal.buffer_view
  %5 = hal.tensor.export %3 "output1" : tensor<2xf32> -> !hal.buffer_view
  util.return %4, %5 : !hal.buffer_view, !hal.buffer_view
}

// -----// IR Dump After Inliner (inline) //----- //
module {
  util.func public @multiple_results(%arg0: !hal.buffer_view, %arg1: !hal.buffer_view) -> (!hal.buffer_view, !hal.buffer_view) attributes {iree.abi.stub, iree.reflection = {iree.abi.declaration = "sync func @multiple_results(%input0: tensor<2xf32>, %input1: tensor<2xf32>) -> (%output0: tensor<2xf32>, %output1: tensor<2xf32>)"}} {
    %0 = hal.tensor.import %arg0 "input0" : !hal.buffer_view -> tensor<2xf32>
    %1 = hal.tensor.import %arg1 "input1" : !hal.buffer_view -> tensor<2xf32>
    %2 = math.absf %0 : tensor<2xf32>
    %3 = math.absf %1 : tensor<2xf32>
    %4 = hal.tensor.export %2 "output0" : tensor<2xf32> -> !hal.buffer_view
    %5 = hal.tensor.export %3 "output1" : tensor<2xf32> -> !hal.buffer_view
    util.return %4, %5 : !hal.buffer_view, !hal.buffer_view
  }
}


// -----// IR Dump After Canonicalizer (canonicalize) //----- //
util.func public @multiple_results(%arg0: !hal.buffer_view, %arg1: !hal.buffer_view) -> (!hal.buffer_view, !hal.buffer_view) attributes {iree.abi.stub, iree.reflection = {iree.abi.declaration = "sync func @multiple_results(%input0: tensor<2xf32>, %input1: tensor<2xf32>) -> (%output0: tensor<2xf32>, %output1: tensor<2xf32>)"}} {
  %0 = hal.tensor.import %arg0 "input0" : !hal.buffer_view -> tensor<2xf32>
  %1 = hal.tensor.import %arg1 "input1" : !hal.buffer_view -> tensor<2xf32>
  %2 = math.absf %0 : tensor<2xf32>
  %3 = math.absf %1 : tensor<2xf32>
  %4 = hal.tensor.export %2 "output0" : tensor<2xf32> -> !hal.buffer_view
  %5 = hal.tensor.export %3 "output1" : tensor<2xf32> -> !hal.buffer_view
  util.return %4, %5 : !hal.buffer_view, !hal.buffer_view
}

// -----// IR Dump After CSE (cse) //----- //
util.func public @multiple_results(%arg0: !hal.buffer_view, %arg1: !hal.buffer_view) -> (!hal.buffer_view, !hal.buffer_view) attributes {iree.abi.stub, iree.reflection = {iree.abi.declaration = "sync func @multiple_results(%input0: tensor<2xf32>, %input1: tensor<2xf32>) -> (%output0: tensor<2xf32>, %output1: tensor<2xf32>)"}} {
  %0 = hal.tensor.import %arg0 "input0" : !hal.buffer_view -> tensor<2xf32>
  %1 = hal.tensor.import %arg1 "input1" : !hal.buffer_view -> tensor<2xf32>
  %2 = math.absf %0 : tensor<2xf32>
  %3 = math.absf %1 : tensor<2xf32>
  %4 = hal.tensor.export %2 "output0" : tensor<2xf32> -> !hal.buffer_view
  %5 = hal.tensor.export %3 "output1" : tensor<2xf32> -> !hal.buffer_view
  util.return %4, %5 : !hal.buffer_view, !hal.buffer_view
}

// -----// IR Dump After SymbolDCE (symbol-dce) //----- //
module {
  util.func public @multiple_results(%arg0: !hal.buffer_view, %arg1: !hal.buffer_view) -> (!hal.buffer_view, !hal.buffer_view) attributes {iree.abi.stub, iree.reflection = {iree.abi.declaration = "sync func @multiple_results(%input0: tensor<2xf32>, %input1: tensor<2xf32>) -> (%output0: tensor<2xf32>, %output1: tensor<2xf32>)"}} {
    %0 = hal.tensor.import %arg0 "input0" : !hal.buffer_view -> tensor<2xf32>
    %1 = hal.tensor.import %arg1 "input1" : !hal.buffer_view -> tensor<2xf32>
    %2 = math.absf %0 : tensor<2xf32>
    %3 = math.absf %1 : tensor<2xf32>
    %4 = hal.tensor.export %2 "output0" : tensor<2xf32> -> !hal.buffer_view
    %5 = hal.tensor.export %3 "output1" : tensor<2xf32> -> !hal.buffer_view
    util.return %4, %5 : !hal.buffer_view, !hal.buffer_view
  }
}


// -----// IR Dump After AssignLegacyTargetDevicesPass (iree-hal-assign-legacy-target-devices) //----- //
#executable_target_embedded_elf_arm_64 = #hal.executable.target<"llvm-cpu", "embedded-elf-arm_64", {cpu = "", cpu_features = "+reserve-x18", data_layout = "e-m:e-p270:32:32-p271:32:32-p272:64:64-i8:8:32-i16:16:32-i64:64-i128:128-n32:64-S128-Fn32", iree.encoding.resolver = #iree_cpu.cpu_encoding_resolver<>, max_stack_allocation_size = 32768 : i64, native_vector_size = 16 : i64, target_triple = "arm64-unknown-unknown-eabi-elf"}>
#device_target_local = #hal.device.target<"local", [#executable_target_embedded_elf_arm_64]> : !hal.device
module attributes {hal.device.targets = [#device_target_local]} {
  util.func public @multiple_results(%arg0: !hal.buffer_view, %arg1: !hal.buffer_view) -> (!hal.buffer_view, !hal.buffer_view) attributes {iree.abi.stub, iree.reflection = {iree.abi.declaration = "sync func @multiple_results(%input0: tensor<2xf32>, %input1: tensor<2xf32>) -> (%output0: tensor<2xf32>, %output1: tensor<2xf32>)"}} {
    %0 = hal.tensor.import %arg0 "input0" : !hal.buffer_view -> tensor<2xf32>
    %1 = hal.tensor.import %arg1 "input1" : !hal.buffer_view -> tensor<2xf32>
    %2 = math.absf %0 : tensor<2xf32>
    %3 = math.absf %1 : tensor<2xf32>
    %4 = hal.tensor.export %2 "output0" : tensor<2xf32> -> !hal.buffer_view
    %5 = hal.tensor.export %3 "output1" : tensor<2xf32> -> !hal.buffer_view
    util.return %4, %5 : !hal.buffer_view, !hal.buffer_view
  }
}


// -----// IR Dump After MaterializeTargetDevicesPass (iree-hal-materialize-target-devices) //----- //
#executable_target_embedded_elf_arm_64 = #hal.executable.target<"llvm-cpu", "embedded-elf-arm_64", {cpu = "", cpu_features = "+reserve-x18", data_layout = "e-m:e-p270:32:32-p271:32:32-p272:64:64-i8:8:32-i16:16:32-i64:64-i128:128-n32:64-S128-Fn32", iree.encoding.resolver = #iree_cpu.cpu_encoding_resolver<>, max_stack_allocation_size = 32768 : i64, native_vector_size = 16 : i64, target_triple = "arm64-unknown-unknown-eabi-elf"}>
#device_target_local = #hal.device.target<"local", [#executable_target_embedded_elf_arm_64]> : !hal.device
module attributes {stream.affinity.default = #hal.device.affinity<@__device_0>} {
  util.global private @__device_0 = #device_target_local
  util.func public @multiple_results(%arg0: !hal.buffer_view, %arg1: !hal.buffer_view) -> (!hal.buffer_view, !hal.buffer_view) attributes {iree.abi.stub, iree.reflection = {iree.abi.declaration = "sync func @multiple_results(%input0: tensor<2xf32>, %input1: tensor<2xf32>) -> (%output0: tensor<2xf32>, %output1: tensor<2xf32>)"}} {
    %0 = hal.tensor.import %arg0 "input0" : !hal.buffer_view -> tensor<2xf32>
    %1 = hal.tensor.import %arg1 "input1" : !hal.buffer_view -> tensor<2xf32>
    %2 = math.absf %0 : tensor<2xf32>
    %3 = math.absf %1 : tensor<2xf32>
    %4 = hal.tensor.export %2 "output0" : tensor<2xf32> -> !hal.buffer_view
    %5 = hal.tensor.export %3 "output1" : tensor<2xf32> -> !hal.buffer_view
    util.return %4, %5 : !hal.buffer_view, !hal.buffer_view
  }
}


// -----// IR Dump After ResolveDevicePromisesPass (iree-hal-resolve-device-promises) //----- //
#executable_target_embedded_elf_arm_64 = #hal.executable.target<"llvm-cpu", "embedded-elf-arm_64", {cpu = "", cpu_features = "+reserve-x18", data_layout = "e-m:e-p270:32:32-p271:32:32-p272:64:64-i8:8:32-i16:16:32-i64:64-i128:128-n32:64-S128-Fn32", iree.encoding.resolver = #iree_cpu.cpu_encoding_resolver<>, max_stack_allocation_size = 32768 : i64, native_vector_size = 16 : i64, target_triple = "arm64-unknown-unknown-eabi-elf"}>
#device_target_local = #hal.device.target<"local", [#executable_target_embedded_elf_arm_64]> : !hal.device
module attributes {stream.affinity.default = #hal.device.affinity<@__device_0>} {
  util.global private @__device_0 = #device_target_local
  util.func public @multiple_results(%arg0: !hal.buffer_view, %arg1: !hal.buffer_view) -> (!hal.buffer_view, !hal.buffer_view) attributes {iree.abi.stub, iree.reflection = {iree.abi.declaration = "sync func @multiple_results(%input0: tensor<2xf32>, %input1: tensor<2xf32>) -> (%output0: tensor<2xf32>, %output1: tensor<2xf32>)"}} {
    %0 = hal.tensor.import %arg0 "input0" : !hal.buffer_view -> tensor<2xf32>
    %1 = hal.tensor.import %arg1 "input1" : !hal.buffer_view -> tensor<2xf32>
    %2 = math.absf %0 : tensor<2xf32>
    %3 = math.absf %1 : tensor<2xf32>
    %4 = hal.tensor.export %2 "output0" : tensor<2xf32> -> !hal.buffer_view
    %5 = hal.tensor.export %3 "output1" : tensor<2xf32> -> !hal.buffer_view
    util.return %4, %5 : !hal.buffer_view, !hal.buffer_view
  }
}


// -----// IR Dump After ResolveDeviceAliasesPass (iree-hal-resolve-device-aliases) //----- //
#executable_target_embedded_elf_arm_64 = #hal.executable.target<"llvm-cpu", "embedded-elf-arm_64", {cpu = "", cpu_features = "+reserve-x18", data_layout = "e-m:e-p270:32:32-p271:32:32-p272:64:64-i8:8:32-i16:16:32-i64:64-i128:128-n32:64-S128-Fn32", iree.encoding.resolver = #iree_cpu.cpu_encoding_resolver<>, max_stack_allocation_size = 32768 : i64, native_vector_size = 16 : i64, target_triple = "arm64-unknown-unknown-eabi-elf"}>
#device_target_local = #hal.device.target<"local", [#executable_target_embedded_elf_arm_64]> : !hal.device
module attributes {stream.affinity.default = #hal.device.affinity<@__device_0>} {
  util.global private @__device_0 = #device_target_local
  util.func public @multiple_results(%arg0: !hal.buffer_view, %arg1: !hal.buffer_view) -> (!hal.buffer_view, !hal.buffer_view) attributes {iree.abi.stub, iree.reflection = {iree.abi.declaration = "sync func @multiple_results(%input0: tensor<2xf32>, %input1: tensor<2xf32>) -> (%output0: tensor<2xf32>, %output1: tensor<2xf32>)"}} {
    %0 = hal.tensor.import %arg0 "input0" : !hal.buffer_view -> tensor<2xf32>
    %1 = hal.tensor.import %arg1 "input1" : !hal.buffer_view -> tensor<2xf32>
    %2 = math.absf %0 : tensor<2xf32>
    %3 = math.absf %1 : tensor<2xf32>
    %4 = hal.tensor.export %2 "output0" : tensor<2xf32> -> !hal.buffer_view
    %5 = hal.tensor.export %3 "output1" : tensor<2xf32> -> !hal.buffer_view
    util.return %4, %5 : !hal.buffer_view, !hal.buffer_view
  }
}


// -----// IR Dump After VerifyDevicesPass (iree-hal-verify-devices) //----- //
#executable_target_embedded_elf_arm_64 = #hal.executable.target<"llvm-cpu", "embedded-elf-arm_64", {cpu = "", cpu_features = "+reserve-x18", data_layout = "e-m:e-p270:32:32-p271:32:32-p272:64:64-i8:8:32-i16:16:32-i64:64-i128:128-n32:64-S128-Fn32", iree.encoding.resolver = #iree_cpu.cpu_encoding_resolver<>, max_stack_allocation_size = 32768 : i64, native_vector_size = 16 : i64, target_triple = "arm64-unknown-unknown-eabi-elf"}>
#device_target_local = #hal.device.target<"local", [#executable_target_embedded_elf_arm_64]> : !hal.device
module attributes {stream.affinity.default = #hal.device.affinity<@__device_0>} {
  util.global private @__device_0 = #device_target_local
  util.func public @multiple_results(%arg0: !hal.buffer_view, %arg1: !hal.buffer_view) -> (!hal.buffer_view, !hal.buffer_view) attributes {iree.abi.stub, iree.reflection = {iree.abi.declaration = "sync func @multiple_results(%input0: tensor<2xf32>, %input1: tensor<2xf32>) -> (%output0: tensor<2xf32>, %output1: tensor<2xf32>)"}} {
    %0 = hal.tensor.import %arg0 "input0" : !hal.buffer_view -> tensor<2xf32>
    %1 = hal.tensor.import %arg1 "input1" : !hal.buffer_view -> tensor<2xf32>
    %2 = math.absf %0 : tensor<2xf32>
    %3 = math.absf %1 : tensor<2xf32>
    %4 = hal.tensor.export %2 "output0" : tensor<2xf32> -> !hal.buffer_view
    %5 = hal.tensor.export %3 "output1" : tensor<2xf32> -> !hal.buffer_view
    util.return %4, %5 : !hal.buffer_view, !hal.buffer_view
  }
}


// -----// IR Dump After AttrBasedPipelinePass (iree-preprocessing-attr-based-pipeline) //----- //
util.func public @multiple_results(%arg0: !hal.buffer_view, %arg1: !hal.buffer_view) -> (!hal.buffer_view, !hal.buffer_view) attributes {iree.abi.stub, iree.reflection = {iree.abi.declaration = "sync func @multiple_results(%input0: tensor<2xf32>, %input1: tensor<2xf32>) -> (%output0: tensor<2xf32>, %output1: tensor<2xf32>)"}} {
  %0 = hal.tensor.import %arg0 "input0" : !hal.buffer_view -> tensor<2xf32>
  %1 = hal.tensor.import %arg1 "input1" : !hal.buffer_view -> tensor<2xf32>
  %2 = math.absf %0 : tensor<2xf32>
  %3 = math.absf %1 : tensor<2xf32>
  %4 = hal.tensor.export %2 "output0" : tensor<2xf32> -> !hal.buffer_view
  %5 = hal.tensor.export %3 "output1" : tensor<2xf32> -> !hal.buffer_view
  util.return %4, %5 : !hal.buffer_view, !hal.buffer_view
}

// -----// IR Dump After WarnOnUninitializedValuesPass (iree-global-opt-warn-on-uninitialized-values) //----- //
util.func public @multiple_results(%arg0: !hal.buffer_view, %arg1: !hal.buffer_view) -> (!hal.buffer_view, !hal.buffer_view) attributes {iree.abi.stub, iree.reflection = {iree.abi.declaration = "sync func @multiple_results(%input0: tensor<2xf32>, %input1: tensor<2xf32>) -> (%output0: tensor<2xf32>, %output1: tensor<2xf32>)"}} {
  %0 = hal.tensor.import %arg0 "input0" : !hal.buffer_view -> tensor<2xf32>
  %1 = hal.tensor.import %arg1 "input1" : !hal.buffer_view -> tensor<2xf32>
  %2 = math.absf %0 : tensor<2xf32>
  %3 = math.absf %1 : tensor<2xf32>
  %4 = hal.tensor.export %2 "output0" : tensor<2xf32> -> !hal.buffer_view
  %5 = hal.tensor.export %3 "output1" : tensor<2xf32> -> !hal.buffer_view
  util.return %4, %5 : !hal.buffer_view, !hal.buffer_view
}

// -----// IR Dump After OptimizeIntArithmeticPass (iree-util-optimize-int-arithmetic) //----- //
util.func public @multiple_results(%arg0: !hal.buffer_view, %arg1: !hal.buffer_view) -> (!hal.buffer_view, !hal.buffer_view) attributes {iree.abi.stub, iree.reflection = {iree.abi.declaration = "sync func @multiple_results(%input0: tensor<2xf32>, %input1: tensor<2xf32>) -> (%output0: tensor<2xf32>, %output1: tensor<2xf32>)"}} {
  %0 = hal.tensor.import %arg0 "input0" : !hal.buffer_view -> tensor<2xf32>
  %1 = hal.tensor.import %arg1 "input1" : !hal.buffer_view -> tensor<2xf32>
  %2 = math.absf %0 : tensor<2xf32>
  %3 = math.absf %1 : tensor<2xf32>
  %4 = hal.tensor.export %2 "output0" : tensor<2xf32> -> !hal.buffer_view
  %5 = hal.tensor.export %3 "output1" : tensor<2xf32> -> !hal.buffer_view
  util.return %4, %5 : !hal.buffer_view, !hal.buffer_view
}

// -----// IR Dump After LinalgQuantizedConvToConvPass (iree-global-opt-quantized-conv-to-conv) //----- //
util.func public @multiple_results(%arg0: !hal.buffer_view, %arg1: !hal.buffer_view) -> (!hal.buffer_view, !hal.buffer_view) attributes {iree.abi.stub, iree.reflection = {iree.abi.declaration = "sync func @multiple_results(%input0: tensor<2xf32>, %input1: tensor<2xf32>) -> (%output0: tensor<2xf32>, %output1: tensor<2xf32>)"}} {
  %0 = hal.tensor.import %arg0 "input0" : !hal.buffer_view -> tensor<2xf32>
  %1 = hal.tensor.import %arg1 "input1" : !hal.buffer_view -> tensor<2xf32>
  %2 = math.absf %0 : tensor<2xf32>
  %3 = math.absf %1 : tensor<2xf32>
  %4 = hal.tensor.export %2 "output0" : tensor<2xf32> -> !hal.buffer_view
  %5 = hal.tensor.export %3 "output1" : tensor<2xf32> -> !hal.buffer_view
  util.return %4, %5 : !hal.buffer_view, !hal.buffer_view
}

// -----// IR Dump After LinalgQuantizedMatmulToMatmulPass (iree-global-opt-quantized-matmul-to-matmul) //----- //
util.func public @multiple_results(%arg0: !hal.buffer_view, %arg1: !hal.buffer_view) -> (!hal.buffer_view, !hal.buffer_view) attributes {iree.abi.stub, iree.reflection = {iree.abi.declaration = "sync func @multiple_results(%input0: tensor<2xf32>, %input1: tensor<2xf32>) -> (%output0: tensor<2xf32>, %output1: tensor<2xf32>)"}} {
  %0 = hal.tensor.import %arg0 "input0" : !hal.buffer_view -> tensor<2xf32>
  %1 = hal.tensor.import %arg1 "input1" : !hal.buffer_view -> tensor<2xf32>
  %2 = math.absf %0 : tensor<2xf32>
  %3 = math.absf %1 : tensor<2xf32>
  %4 = hal.tensor.export %2 "output0" : tensor<2xf32> -> !hal.buffer_view
  %5 = hal.tensor.export %3 "output1" : tensor<2xf32> -> !hal.buffer_view
  util.return %4, %5 : !hal.buffer_view, !hal.buffer_view
}

// -----// IR Dump After CanonicalizePass (iree-flow-canonicalize) //----- //
util.func public @multiple_results(%arg0: !hal.buffer_view, %arg1: !hal.buffer_view) -> (!hal.buffer_view, !hal.buffer_view) attributes {iree.abi.stub, iree.reflection = {iree.abi.declaration = "sync func @multiple_results(%input0: tensor<2xf32>, %input1: tensor<2xf32>) -> (%output0: tensor<2xf32>, %output1: tensor<2xf32>)"}} {
  %0 = hal.tensor.import %arg0 "input0" : !hal.buffer_view -> tensor<2xf32>
  %1 = hal.tensor.import %arg1 "input1" : !hal.buffer_view -> tensor<2xf32>
  %2 = math.absf %0 : tensor<2xf32>
  %3 = math.absf %1 : tensor<2xf32>
  %4 = hal.tensor.export %2 "output0" : tensor<2xf32> -> !hal.buffer_view
  %5 = hal.tensor.export %3 "output1" : tensor<2xf32> -> !hal.buffer_view
  util.return %4, %5 : !hal.buffer_view, !hal.buffer_view
}

// -----// IR Dump After RemoveZeroExtentTensorsPass (iree-global-opt-remove-zero-extent-tensors) //----- //
util.func public @multiple_results(%arg0: !hal.buffer_view, %arg1: !hal.buffer_view) -> (!hal.buffer_view, !hal.buffer_view) attributes {iree.abi.stub, iree.reflection = {iree.abi.declaration = "sync func @multiple_results(%input0: tensor<2xf32>, %input1: tensor<2xf32>) -> (%output0: tensor<2xf32>, %output1: tensor<2xf32>)"}} {
  %0 = hal.tensor.import %arg0 "input0" : !hal.buffer_view -> tensor<2xf32>
  %1 = hal.tensor.import %arg1 "input1" : !hal.buffer_view -> tensor<2xf32>
  %2 = math.absf %0 : tensor<2xf32>
  %3 = math.absf %1 : tensor<2xf32>
  %4 = hal.tensor.export %2 "output0" : tensor<2xf32> -> !hal.buffer_view
  %5 = hal.tensor.export %3 "output1" : tensor<2xf32> -> !hal.buffer_view
  util.return %4, %5 : !hal.buffer_view, !hal.buffer_view
}

// -----// IR Dump After DetachElementwiseFromNamedOpsPass (iree-global-opt-detach-elementwise-from-named-ops) //----- //
util.func public @multiple_results(%arg0: !hal.buffer_view, %arg1: !hal.buffer_view) -> (!hal.buffer_view, !hal.buffer_view) attributes {iree.abi.stub, iree.reflection = {iree.abi.declaration = "sync func @multiple_results(%input0: tensor<2xf32>, %input1: tensor<2xf32>) -> (%output0: tensor<2xf32>, %output1: tensor<2xf32>)"}} {
  %0 = hal.tensor.import %arg0 "input0" : !hal.buffer_view -> tensor<2xf32>
  %1 = hal.tensor.import %arg1 "input1" : !hal.buffer_view -> tensor<2xf32>
  %2 = math.absf %0 : tensor<2xf32>
  %3 = math.absf %1 : tensor<2xf32>
  %4 = hal.tensor.export %2 "output0" : tensor<2xf32> -> !hal.buffer_view
  %5 = hal.tensor.export %3 "output1" : tensor<2xf32> -> !hal.buffer_view
  util.return %4, %5 : !hal.buffer_view, !hal.buffer_view
}

// -----// IR Dump After SimplifyDepthwiseConvPass (simplify-depthwise-conv) //----- //
util.func public @multiple_results(%arg0: !hal.buffer_view, %arg1: !hal.buffer_view) -> (!hal.buffer_view, !hal.buffer_view) attributes {iree.abi.stub, iree.reflection = {iree.abi.declaration = "sync func @multiple_results(%input0: tensor<2xf32>, %input1: tensor<2xf32>) -> (%output0: tensor<2xf32>, %output1: tensor<2xf32>)"}} {
  %0 = hal.tensor.import %arg0 "input0" : !hal.buffer_view -> tensor<2xf32>
  %1 = hal.tensor.import %arg1 "input1" : !hal.buffer_view -> tensor<2xf32>
  %2 = math.absf %0 : tensor<2xf32>
  %3 = math.absf %1 : tensor<2xf32>
  %4 = hal.tensor.export %2 "output0" : tensor<2xf32> -> !hal.buffer_view
  %5 = hal.tensor.export %3 "output1" : tensor<2xf32> -> !hal.buffer_view
  util.return %4, %5 : !hal.buffer_view, !hal.buffer_view
}

// -----// IR Dump After EraseUnusedLinalgOperandsPass (iree-global-opt-erase-unused-linalg-operands) //----- //
#executable_target_embedded_elf_arm_64 = #hal.executable.target<"llvm-cpu", "embedded-elf-arm_64", {cpu = "", cpu_features = "+reserve-x18", data_layout = "e-m:e-p270:32:32-p271:32:32-p272:64:64-i8:8:32-i16:16:32-i64:64-i128:128-n32:64-S128-Fn32", iree.encoding.resolver = #iree_cpu.cpu_encoding_resolver<>, max_stack_allocation_size = 32768 : i64, native_vector_size = 16 : i64, target_triple = "arm64-unknown-unknown-eabi-elf"}>
#device_target_local = #hal.device.target<"local", [#executable_target_embedded_elf_arm_64]> : !hal.device
module attributes {stream.affinity.default = #hal.device.affinity<@__device_0>} {
  util.global private @__device_0 = #device_target_local
  util.func public @multiple_results(%arg0: !hal.buffer_view, %arg1: !hal.buffer_view) -> (!hal.buffer_view, !hal.buffer_view) attributes {iree.abi.stub, iree.reflection = {iree.abi.declaration = "sync func @multiple_results(%input0: tensor<2xf32>, %input1: tensor<2xf32>) -> (%output0: tensor<2xf32>, %output1: tensor<2xf32>)"}} {
    %0 = hal.tensor.import %arg0 "input0" : !hal.buffer_view -> tensor<2xf32>
    %1 = hal.tensor.import %arg1 "input1" : !hal.buffer_view -> tensor<2xf32>
    %2 = math.absf %0 : tensor<2xf32>
    %3 = math.absf %1 : tensor<2xf32>
    %4 = hal.tensor.export %2 "output0" : tensor<2xf32> -> !hal.buffer_view
    %5 = hal.tensor.export %3 "output1" : tensor<2xf32> -> !hal.buffer_view
    util.return %4, %5 : !hal.buffer_view, !hal.buffer_view
  }
}


// -----// IR Dump After ExpandTensorShapesPass (iree-global-opt-expand-tensor-shapes) //----- //
#executable_target_embedded_elf_arm_64 = #hal.executable.target<"llvm-cpu", "embedded-elf-arm_64", {cpu = "", cpu_features = "+reserve-x18", data_layout = "e-m:e-p270:32:32-p271:32:32-p272:64:64-i8:8:32-i16:16:32-i64:64-i128:128-n32:64-S128-Fn32", iree.encoding.resolver = #iree_cpu.cpu_encoding_resolver<>, max_stack_allocation_size = 32768 : i64, native_vector_size = 16 : i64, target_triple = "arm64-unknown-unknown-eabi-elf"}>
#device_target_local = #hal.device.target<"local", [#executable_target_embedded_elf_arm_64]> : !hal.device
module attributes {stream.affinity.default = #hal.device.affinity<@__device_0>} {
  util.global private @__device_0 = #device_target_local
  util.func public @multiple_results(%arg0: !hal.buffer_view, %arg1: !hal.buffer_view) -> (!hal.buffer_view, !hal.buffer_view) attributes {iree.abi.stub, iree.reflection = {iree.abi.declaration = "sync func @multiple_results(%input0: tensor<2xf32>, %input1: tensor<2xf32>) -> (%output0: tensor<2xf32>, %output1: tensor<2xf32>)"}} {
    %0 = hal.tensor.import %arg0 "input0" : !hal.buffer_view -> tensor<2xf32>
    %1 = hal.tensor.import %arg1 "input1" : !hal.buffer_view -> tensor<2xf32>
    %2 = math.absf %0 : tensor<2xf32>
    %3 = math.absf %1 : tensor<2xf32>
    %4 = hal.tensor.export %2 "output0" : tensor<2xf32> -> !hal.buffer_view
    %5 = hal.tensor.export %3 "output1" : tensor<2xf32> -> !hal.buffer_view
    util.return %4, %5 : !hal.buffer_view, !hal.buffer_view
  }
}


// -----// IR Dump After ConvertElementwiseToLinalgPass (convert-elementwise-to-linalg) //----- //
util.func public @multiple_results(%arg0: !hal.buffer_view, %arg1: !hal.buffer_view) -> (!hal.buffer_view, !hal.buffer_view) attributes {iree.abi.stub, iree.reflection = {iree.abi.declaration = "sync func @multiple_results(%input0: tensor<2xf32>, %input1: tensor<2xf32>) -> (%output0: tensor<2xf32>, %output1: tensor<2xf32>)"}} {
  %0 = hal.tensor.import %arg0 "input0" : !hal.buffer_view -> tensor<2xf32>
  %1 = hal.tensor.import %arg1 "input1" : !hal.buffer_view -> tensor<2xf32>
  %2 = linalg.generic {indexing_maps = [affine_map<(d0) -> (d0)>, affine_map<(d0) -> (d0)>], iterator_types = ["parallel"]} ins(%0 : tensor<2xf32>) outs(%0 : tensor<2xf32>) {
  ^bb0(%in: f32, %out: f32):
    %6 = math.absf %in : f32
    linalg.yield %6 : f32
  } -> tensor<2xf32>
  %3 = linalg.generic {indexing_maps = [affine_map<(d0) -> (d0)>, affine_map<(d0) -> (d0)>], iterator_types = ["parallel"]} ins(%1 : tensor<2xf32>) outs(%1 : tensor<2xf32>) {
  ^bb0(%in: f32, %out: f32):
    %6 = math.absf %in : f32
    linalg.yield %6 : f32
  } -> tensor<2xf32>
  %4 = hal.tensor.export %2 "output0" : tensor<2xf32> -> !hal.buffer_view
  %5 = hal.tensor.export %3 "output1" : tensor<2xf32> -> !hal.buffer_view
  util.return %4, %5 : !hal.buffer_view, !hal.buffer_view
}

// -----// IR Dump After RaiseSpecialOpsPass (iree-global-opt-raise-special-ops) //----- //
util.func public @multiple_results(%arg0: !hal.buffer_view, %arg1: !hal.buffer_view) -> (!hal.buffer_view, !hal.buffer_view) attributes {iree.abi.stub, iree.reflection = {iree.abi.declaration = "sync func @multiple_results(%input0: tensor<2xf32>, %input1: tensor<2xf32>) -> (%output0: tensor<2xf32>, %output1: tensor<2xf32>)"}} {
  %0 = hal.tensor.import %arg0 "input0" : !hal.buffer_view -> tensor<2xf32>
  %1 = hal.tensor.import %arg1 "input1" : !hal.buffer_view -> tensor<2xf32>
  %2 = linalg.generic {indexing_maps = [affine_map<(d0) -> (d0)>, affine_map<(d0) -> (d0)>], iterator_types = ["parallel"]} ins(%0 : tensor<2xf32>) outs(%0 : tensor<2xf32>) {
  ^bb0(%in: f32, %out: f32):
    %6 = math.absf %in : f32
    linalg.yield %6 : f32
  } -> tensor<2xf32>
  %3 = linalg.generic {indexing_maps = [affine_map<(d0) -> (d0)>, affine_map<(d0) -> (d0)>], iterator_types = ["parallel"]} ins(%1 : tensor<2xf32>) outs(%1 : tensor<2xf32>) {
  ^bb0(%in: f32, %out: f32):
    %6 = math.absf %in : f32
    linalg.yield %6 : f32
  } -> tensor<2xf32>
  %4 = hal.tensor.export %2 "output0" : tensor<2xf32> -> !hal.buffer_view
  %5 = hal.tensor.export %3 "output1" : tensor<2xf32> -> !hal.buffer_view
  util.return %4, %5 : !hal.buffer_view, !hal.buffer_view
}

// -----// IR Dump After DecomposeConcatPass (iree-global-opt-decompose-concat) //----- //
util.func public @multiple_results(%arg0: !hal.buffer_view, %arg1: !hal.buffer_view) -> (!hal.buffer_view, !hal.buffer_view) attributes {iree.abi.stub, iree.reflection = {iree.abi.declaration = "sync func @multiple_results(%input0: tensor<2xf32>, %input1: tensor<2xf32>) -> (%output0: tensor<2xf32>, %output1: tensor<2xf32>)"}} {
  %0 = hal.tensor.import %arg0 "input0" : !hal.buffer_view -> tensor<2xf32>
  %1 = hal.tensor.import %arg1 "input1" : !hal.buffer_view -> tensor<2xf32>
  %2 = linalg.generic {indexing_maps = [affine_map<(d0) -> (d0)>, affine_map<(d0) -> (d0)>], iterator_types = ["parallel"]} ins(%0 : tensor<2xf32>) outs(%0 : tensor<2xf32>) {
  ^bb0(%in: f32, %out: f32):
    %6 = math.absf %in : f32
    linalg.yield %6 : f32
  } -> tensor<2xf32>
  %3 = linalg.generic {indexing_maps = [affine_map<(d0) -> (d0)>, affine_map<(d0) -> (d0)>], iterator_types = ["parallel"]} ins(%1 : tensor<2xf32>) outs(%1 : tensor<2xf32>) {
  ^bb0(%in: f32, %out: f32):
    %6 = math.absf %in : f32
    linalg.yield %6 : f32
  } -> tensor<2xf32>
  %4 = hal.tensor.export %2 "output0" : tensor<2xf32> -> !hal.buffer_view
  %5 = hal.tensor.export %3 "output1" : tensor<2xf32> -> !hal.buffer_view
  util.return %4, %5 : !hal.buffer_view, !hal.buffer_view
}

// -----// IR Dump After GeneralizeLinalgNamedOpsPass (iree-global-opt-generalize-linalg-named-ops) //----- //
util.func public @multiple_results(%arg0: !hal.buffer_view, %arg1: !hal.buffer_view) -> (!hal.buffer_view, !hal.buffer_view) attributes {iree.abi.stub, iree.reflection = {iree.abi.declaration = "sync func @multiple_results(%input0: tensor<2xf32>, %input1: tensor<2xf32>) -> (%output0: tensor<2xf32>, %output1: tensor<2xf32>)"}} {
  %0 = hal.tensor.import %arg0 "input0" : !hal.buffer_view -> tensor<2xf32>
  %1 = hal.tensor.import %arg1 "input1" : !hal.buffer_view -> tensor<2xf32>
  %2 = linalg.generic {indexing_maps = [affine_map<(d0) -> (d0)>, affine_map<(d0) -> (d0)>], iterator_types = ["parallel"]} ins(%0 : tensor<2xf32>) outs(%0 : tensor<2xf32>) {
  ^bb0(%in: f32, %out: f32):
    %6 = math.absf %in : f32
    linalg.yield %6 : f32
  } -> tensor<2xf32>
  %3 = linalg.generic {indexing_maps = [affine_map<(d0) -> (d0)>, affine_map<(d0) -> (d0)>], iterator_types = ["parallel"]} ins(%1 : tensor<2xf32>) outs(%1 : tensor<2xf32>) {
  ^bb0(%in: f32, %out: f32):
    %6 = math.absf %in : f32
    linalg.yield %6 : f32
  } -> tensor<2xf32>
  %4 = hal.tensor.export %2 "output0" : tensor<2xf32> -> !hal.buffer_view
  %5 = hal.tensor.export %3 "output1" : tensor<2xf32> -> !hal.buffer_view
  util.return %4, %5 : !hal.buffer_view, !hal.buffer_view
}

// -----// IR Dump After InsertTensorBarriersPass (iree-dispatch-creation-insert-tensor-barriers) //----- //
util.func public @multiple_results(%arg0: !hal.buffer_view, %arg1: !hal.buffer_view) -> (!hal.buffer_view, !hal.buffer_view) attributes {iree.abi.stub, iree.reflection = {iree.abi.declaration = "sync func @multiple_results(%input0: tensor<2xf32>, %input1: tensor<2xf32>) -> (%output0: tensor<2xf32>, %output1: tensor<2xf32>)"}} {
  %0 = hal.tensor.import %arg0 "input0" : !hal.buffer_view -> tensor<2xf32>
  %1 = iree_tensor_ext.compute_barrier.start %0 : tensor<2xf32> -> tensor<2xf32>
  %2 = hal.tensor.import %arg1 "input1" : !hal.buffer_view -> tensor<2xf32>
  %3 = iree_tensor_ext.compute_barrier.start %2 : tensor<2xf32> -> tensor<2xf32>
  %4 = linalg.generic {indexing_maps = [affine_map<(d0) -> (d0)>, affine_map<(d0) -> (d0)>], iterator_types = ["parallel"]} ins(%1 : tensor<2xf32>) outs(%1 : tensor<2xf32>) {
  ^bb0(%in: f32, %out: f32):
    %10 = math.absf %in : f32
    linalg.yield %10 : f32
  } -> tensor<2xf32>
  %5 = iree_tensor_ext.compute_barrier.end %4 : tensor<2xf32> -> tensor<2xf32>
  %6 = linalg.generic {indexing_maps = [affine_map<(d0) -> (d0)>, affine_map<(d0) -> (d0)>], iterator_types = ["parallel"]} ins(%3 : tensor<2xf32>) outs(%3 : tensor<2xf32>) {
  ^bb0(%in: f32, %out: f32):
    %10 = math.absf %in : f32
    linalg.yield %10 : f32
  } -> tensor<2xf32>
  %7 = iree_tensor_ext.compute_barrier.end %6 : tensor<2xf32> -> tensor<2xf32>
  %8 = hal.tensor.export %5 "output0" : tensor<2xf32> -> !hal.buffer_view
  %9 = hal.tensor.export %7 "output1" : tensor<2xf32> -> !hal.buffer_view
  util.return %8, %9 : !hal.buffer_view, !hal.buffer_view
}

// -----// IR Dump After FoldUnitExtentDimsPass (iree-dispatch-creation-fold-unit-extent-dims) //----- //
#executable_target_embedded_elf_arm_64 = #hal.executable.target<"llvm-cpu", "embedded-elf-arm_64", {cpu = "", cpu_features = "+reserve-x18", data_layout = "e-m:e-p270:32:32-p271:32:32-p272:64:64-i8:8:32-i16:16:32-i64:64-i128:128-n32:64-S128-Fn32", iree.encoding.resolver = #iree_cpu.cpu_encoding_resolver<>, max_stack_allocation_size = 32768 : i64, native_vector_size = 16 : i64, target_triple = "arm64-unknown-unknown-eabi-elf"}>
#map = affine_map<(d0) -> (d0)>
#device_target_local = #hal.device.target<"local", [#executable_target_embedded_elf_arm_64]> : !hal.device
module attributes {stream.affinity.default = #hal.device.affinity<@__device_0>} {
  util.global private @__device_0 = #device_target_local
  util.func public @multiple_results(%arg0: !hal.buffer_view, %arg1: !hal.buffer_view) -> (!hal.buffer_view, !hal.buffer_view) attributes {iree.abi.stub, iree.reflection = {iree.abi.declaration = "sync func @multiple_results(%input0: tensor<2xf32>, %input1: tensor<2xf32>) -> (%output0: tensor<2xf32>, %output1: tensor<2xf32>)"}} {
    %0 = hal.tensor.import %arg0 "input0" : !hal.buffer_view -> tensor<2xf32>
    %1 = iree_tensor_ext.compute_barrier.start %0 : tensor<2xf32> -> tensor<2xf32>
    %2 = hal.tensor.import %arg1 "input1" : !hal.buffer_view -> tensor<2xf32>
    %3 = iree_tensor_ext.compute_barrier.start %2 : tensor<2xf32> -> tensor<2xf32>
    %4 = linalg.generic {indexing_maps = [#map, #map], iterator_types = ["parallel"]} ins(%1 : tensor<2xf32>) outs(%1 : tensor<2xf32>) {
    ^bb0(%in: f32, %out: f32):
      %10 = math.absf %in : f32
      linalg.yield %10 : f32
    } -> tensor<2xf32>
    %5 = iree_tensor_ext.compute_barrier.end %4 : tensor<2xf32> -> tensor<2xf32>
    %6 = linalg.generic {indexing_maps = [#map, #map], iterator_types = ["parallel"]} ins(%3 : tensor<2xf32>) outs(%3 : tensor<2xf32>) {
    ^bb0(%in: f32, %out: f32):
      %10 = math.absf %in : f32
      linalg.yield %10 : f32
    } -> tensor<2xf32>
    %7 = iree_tensor_ext.compute_barrier.end %6 : tensor<2xf32> -> tensor<2xf32>
    %8 = hal.tensor.export %5 "output0" : tensor<2xf32> -> !hal.buffer_view
    %9 = hal.tensor.export %7 "output1" : tensor<2xf32> -> !hal.buffer_view
    util.return %8, %9 : !hal.buffer_view, !hal.buffer_view
  }
}


// -----// IR Dump After DemoteContractionInputsToBF16Pass (iree-global-opt-demote-contraction-inputs-to-bf16) //----- //
util.func public @multiple_results(%arg0: !hal.buffer_view, %arg1: !hal.buffer_view) -> (!hal.buffer_view, !hal.buffer_view) attributes {iree.abi.stub, iree.reflection = {iree.abi.declaration = "sync func @multiple_results(%input0: tensor<2xf32>, %input1: tensor<2xf32>) -> (%output0: tensor<2xf32>, %output1: tensor<2xf32>)"}} {
  %0 = hal.tensor.import %arg0 "input0" : !hal.buffer_view -> tensor<2xf32>
  %1 = iree_tensor_ext.compute_barrier.start %0 : tensor<2xf32> -> tensor<2xf32>
  %2 = hal.tensor.import %arg1 "input1" : !hal.buffer_view -> tensor<2xf32>
  %3 = iree_tensor_ext.compute_barrier.start %2 : tensor<2xf32> -> tensor<2xf32>
  %4 = linalg.generic {indexing_maps = [affine_map<(d0) -> (d0)>, affine_map<(d0) -> (d0)>], iterator_types = ["parallel"]} ins(%1 : tensor<2xf32>) outs(%1 : tensor<2xf32>) {
  ^bb0(%in: f32, %out: f32):
    %10 = math.absf %in : f32
    linalg.yield %10 : f32
  } -> tensor<2xf32>
  %5 = iree_tensor_ext.compute_barrier.end %4 : tensor<2xf32> -> tensor<2xf32>
  %6 = linalg.generic {indexing_maps = [affine_map<(d0) -> (d0)>, affine_map<(d0) -> (d0)>], iterator_types = ["parallel"]} ins(%3 : tensor<2xf32>) outs(%3 : tensor<2xf32>) {
  ^bb0(%in: f32, %out: f32):
    %10 = math.absf %in : f32
    linalg.yield %10 : f32
  } -> tensor<2xf32>
  %7 = iree_tensor_ext.compute_barrier.end %6 : tensor<2xf32> -> tensor<2xf32>
  %8 = hal.tensor.export %5 "output0" : tensor<2xf32> -> !hal.buffer_view
  %9 = hal.tensor.export %7 "output1" : tensor<2xf32> -> !hal.buffer_view
  util.return %8, %9 : !hal.buffer_view, !hal.buffer_view
}

// -----// IR Dump After CanonicalizePass (iree-flow-canonicalize) //----- //
util.func public @multiple_results(%arg0: !hal.buffer_view, %arg1: !hal.buffer_view) -> (!hal.buffer_view, !hal.buffer_view) attributes {iree.abi.stub, iree.reflection = {iree.abi.declaration = "sync func @multiple_results(%input0: tensor<2xf32>, %input1: tensor<2xf32>) -> (%output0: tensor<2xf32>, %output1: tensor<2xf32>)"}} {
  %0 = hal.tensor.import %arg0 "input0" : !hal.buffer_view -> tensor<2xf32>
  %1 = iree_tensor_ext.compute_barrier.start %0 : tensor<2xf32> -> tensor<2xf32>
  %2 = hal.tensor.import %arg1 "input1" : !hal.buffer_view -> tensor<2xf32>
  %3 = iree_tensor_ext.compute_barrier.start %2 : tensor<2xf32> -> tensor<2xf32>
  %4 = linalg.generic {indexing_maps = [affine_map<(d0) -> (d0)>, affine_map<(d0) -> (d0)>], iterator_types = ["parallel"]} ins(%1 : tensor<2xf32>) outs(%1 : tensor<2xf32>) {
  ^bb0(%in: f32, %out: f32):
    %10 = math.absf %in : f32
    linalg.yield %10 : f32
  } -> tensor<2xf32>
  %5 = iree_tensor_ext.compute_barrier.end %4 : tensor<2xf32> -> tensor<2xf32>
  %6 = linalg.generic {indexing_maps = [affine_map<(d0) -> (d0)>, affine_map<(d0) -> (d0)>], iterator_types = ["parallel"]} ins(%3 : tensor<2xf32>) outs(%3 : tensor<2xf32>) {
  ^bb0(%in: f32, %out: f32):
    %10 = math.absf %in : f32
    linalg.yield %10 : f32
  } -> tensor<2xf32>
  %7 = iree_tensor_ext.compute_barrier.end %6 : tensor<2xf32> -> tensor<2xf32>
  %8 = hal.tensor.export %5 "output0" : tensor<2xf32> -> !hal.buffer_view
  %9 = hal.tensor.export %7 "output1" : tensor<2xf32> -> !hal.buffer_view
  util.return %8, %9 : !hal.buffer_view, !hal.buffer_view
}

// -----// IR Dump After CSE (cse) //----- //
util.func public @multiple_results(%arg0: !hal.buffer_view, %arg1: !hal.buffer_view) -> (!hal.buffer_view, !hal.buffer_view) attributes {iree.abi.stub, iree.reflection = {iree.abi.declaration = "sync func @multiple_results(%input0: tensor<2xf32>, %input1: tensor<2xf32>) -> (%output0: tensor<2xf32>, %output1: tensor<2xf32>)"}} {
  %0 = hal.tensor.import %arg0 "input0" : !hal.buffer_view -> tensor<2xf32>
  %1 = iree_tensor_ext.compute_barrier.start %0 : tensor<2xf32> -> tensor<2xf32>
  %2 = hal.tensor.import %arg1 "input1" : !hal.buffer_view -> tensor<2xf32>
  %3 = iree_tensor_ext.compute_barrier.start %2 : tensor<2xf32> -> tensor<2xf32>
  %4 = linalg.generic {indexing_maps = [affine_map<(d0) -> (d0)>, affine_map<(d0) -> (d0)>], iterator_types = ["parallel"]} ins(%1 : tensor<2xf32>) outs(%1 : tensor<2xf32>) {
  ^bb0(%in: f32, %out: f32):
    %10 = math.absf %in : f32
    linalg.yield %10 : f32
  } -> tensor<2xf32>
  %5 = iree_tensor_ext.compute_barrier.end %4 : tensor<2xf32> -> tensor<2xf32>
  %6 = linalg.generic {indexing_maps = [affine_map<(d0) -> (d0)>, affine_map<(d0) -> (d0)>], iterator_types = ["parallel"]} ins(%3 : tensor<2xf32>) outs(%3 : tensor<2xf32>) {
  ^bb0(%in: f32, %out: f32):
    %10 = math.absf %in : f32
    linalg.yield %10 : f32
  } -> tensor<2xf32>
  %7 = iree_tensor_ext.compute_barrier.end %6 : tensor<2xf32> -> tensor<2xf32>
  %8 = hal.tensor.export %5 "output0" : tensor<2xf32> -> !hal.buffer_view
  %9 = hal.tensor.export %7 "output1" : tensor<2xf32> -> !hal.buffer_view
  util.return %8, %9 : !hal.buffer_view, !hal.buffer_view
}

// -----// IR Dump After PropagateLinalgTransposePass (iree-global-opt-propagate-linalg-transpose) //----- //
util.func public @multiple_results(%arg0: !hal.buffer_view, %arg1: !hal.buffer_view) -> (!hal.buffer_view, !hal.buffer_view) attributes {iree.abi.stub, iree.reflection = {iree.abi.declaration = "sync func @multiple_results(%input0: tensor<2xf32>, %input1: tensor<2xf32>) -> (%output0: tensor<2xf32>, %output1: tensor<2xf32>)"}} {
  %0 = hal.tensor.import %arg0 "input0" : !hal.buffer_view -> tensor<2xf32>
  %1 = iree_tensor_ext.compute_barrier.start %0 : tensor<2xf32> -> tensor<2xf32>
  %2 = hal.tensor.import %arg1 "input1" : !hal.buffer_view -> tensor<2xf32>
  %3 = iree_tensor_ext.compute_barrier.start %2 : tensor<2xf32> -> tensor<2xf32>
  %4 = linalg.generic {indexing_maps = [affine_map<(d0) -> (d0)>, affine_map<(d0) -> (d0)>], iterator_types = ["parallel"]} ins(%1 : tensor<2xf32>) outs(%1 : tensor<2xf32>) {
  ^bb0(%in: f32, %out: f32):
    %10 = math.absf %in : f32
    linalg.yield %10 : f32
  } -> tensor<2xf32>
  %5 = iree_tensor_ext.compute_barrier.end %4 : tensor<2xf32> -> tensor<2xf32>
  %6 = linalg.generic {indexing_maps = [affine_map<(d0) -> (d0)>, affine_map<(d0) -> (d0)>], iterator_types = ["parallel"]} ins(%3 : tensor<2xf32>) outs(%3 : tensor<2xf32>) {
  ^bb0(%in: f32, %out: f32):
    %10 = math.absf %in : f32
    linalg.yield %10 : f32
  } -> tensor<2xf32>
  %7 = iree_tensor_ext.compute_barrier.end %6 : tensor<2xf32> -> tensor<2xf32>
  %8 = hal.tensor.export %5 "output0" : tensor<2xf32> -> !hal.buffer_view
  %9 = hal.tensor.export %7 "output1" : tensor<2xf32> -> !hal.buffer_view
  util.return %8, %9 : !hal.buffer_view, !hal.buffer_view
}

// -----// IR Dump After CanonicalizePass (iree-flow-canonicalize) //----- //
util.func public @multiple_results(%arg0: !hal.buffer_view, %arg1: !hal.buffer_view) -> (!hal.buffer_view, !hal.buffer_view) attributes {iree.abi.stub, iree.reflection = {iree.abi.declaration = "sync func @multiple_results(%input0: tensor<2xf32>, %input1: tensor<2xf32>) -> (%output0: tensor<2xf32>, %output1: tensor<2xf32>)"}} {
  %0 = hal.tensor.import %arg0 "input0" : !hal.buffer_view -> tensor<2xf32>
  %1 = iree_tensor_ext.compute_barrier.start %0 : tensor<2xf32> -> tensor<2xf32>
  %2 = hal.tensor.import %arg1 "input1" : !hal.buffer_view -> tensor<2xf32>
  %3 = iree_tensor_ext.compute_barrier.start %2 : tensor<2xf32> -> tensor<2xf32>
  %4 = linalg.generic {indexing_maps = [affine_map<(d0) -> (d0)>, affine_map<(d0) -> (d0)>], iterator_types = ["parallel"]} ins(%1 : tensor<2xf32>) outs(%1 : tensor<2xf32>) {
  ^bb0(%in: f32, %out: f32):
    %10 = math.absf %in : f32
    linalg.yield %10 : f32
  } -> tensor<2xf32>
  %5 = iree_tensor_ext.compute_barrier.end %4 : tensor<2xf32> -> tensor<2xf32>
  %6 = linalg.generic {indexing_maps = [affine_map<(d0) -> (d0)>, affine_map<(d0) -> (d0)>], iterator_types = ["parallel"]} ins(%3 : tensor<2xf32>) outs(%3 : tensor<2xf32>) {
  ^bb0(%in: f32, %out: f32):
    %10 = math.absf %in : f32
    linalg.yield %10 : f32
  } -> tensor<2xf32>
  %7 = iree_tensor_ext.compute_barrier.end %6 : tensor<2xf32> -> tensor<2xf32>
  %8 = hal.tensor.export %5 "output0" : tensor<2xf32> -> !hal.buffer_view
  %9 = hal.tensor.export %7 "output1" : tensor<2xf32> -> !hal.buffer_view
  util.return %8, %9 : !hal.buffer_view, !hal.buffer_view
}

// -----// IR Dump After CSE (cse) //----- //
util.func public @multiple_results(%arg0: !hal.buffer_view, %arg1: !hal.buffer_view) -> (!hal.buffer_view, !hal.buffer_view) attributes {iree.abi.stub, iree.reflection = {iree.abi.declaration = "sync func @multiple_results(%input0: tensor<2xf32>, %input1: tensor<2xf32>) -> (%output0: tensor<2xf32>, %output1: tensor<2xf32>)"}} {
  %0 = hal.tensor.import %arg0 "input0" : !hal.buffer_view -> tensor<2xf32>
  %1 = iree_tensor_ext.compute_barrier.start %0 : tensor<2xf32> -> tensor<2xf32>
  %2 = hal.tensor.import %arg1 "input1" : !hal.buffer_view -> tensor<2xf32>
  %3 = iree_tensor_ext.compute_barrier.start %2 : tensor<2xf32> -> tensor<2xf32>
  %4 = linalg.generic {indexing_maps = [affine_map<(d0) -> (d0)>, affine_map<(d0) -> (d0)>], iterator_types = ["parallel"]} ins(%1 : tensor<2xf32>) outs(%1 : tensor<2xf32>) {
  ^bb0(%in: f32, %out: f32):
    %10 = math.absf %in : f32
    linalg.yield %10 : f32
  } -> tensor<2xf32>
  %5 = iree_tensor_ext.compute_barrier.end %4 : tensor<2xf32> -> tensor<2xf32>
  %6 = linalg.generic {indexing_maps = [affine_map<(d0) -> (d0)>, affine_map<(d0) -> (d0)>], iterator_types = ["parallel"]} ins(%3 : tensor<2xf32>) outs(%3 : tensor<2xf32>) {
  ^bb0(%in: f32, %out: f32):
    %10 = math.absf %in : f32
    linalg.yield %10 : f32
  } -> tensor<2xf32>
  %7 = iree_tensor_ext.compute_barrier.end %6 : tensor<2xf32> -> tensor<2xf32>
  %8 = hal.tensor.export %5 "output0" : tensor<2xf32> -> !hal.buffer_view
  %9 = hal.tensor.export %7 "output1" : tensor<2xf32> -> !hal.buffer_view
  util.return %8, %9 : !hal.buffer_view, !hal.buffer_view
}

// -----// IR Dump After ConvertStridedContractionToContractionPass (iree-global-opt-convert-strided-contraction-to-contraction) //----- //
#executable_target_embedded_elf_arm_64 = #hal.executable.target<"llvm-cpu", "embedded-elf-arm_64", {cpu = "", cpu_features = "+reserve-x18", data_layout = "e-m:e-p270:32:32-p271:32:32-p272:64:64-i8:8:32-i16:16:32-i64:64-i128:128-n32:64-S128-Fn32", iree.encoding.resolver = #iree_cpu.cpu_encoding_resolver<>, max_stack_allocation_size = 32768 : i64, native_vector_size = 16 : i64, target_triple = "arm64-unknown-unknown-eabi-elf"}>
#map = affine_map<(d0) -> (d0)>
#device_target_local = #hal.device.target<"local", [#executable_target_embedded_elf_arm_64]> : !hal.device
module attributes {stream.affinity.default = #hal.device.affinity<@__device_0>} {
  util.global private @__device_0 = #device_target_local
  util.func public @multiple_results(%arg0: !hal.buffer_view, %arg1: !hal.buffer_view) -> (!hal.buffer_view, !hal.buffer_view) attributes {iree.abi.stub, iree.reflection = {iree.abi.declaration = "sync func @multiple_results(%input0: tensor<2xf32>, %input1: tensor<2xf32>) -> (%output0: tensor<2xf32>, %output1: tensor<2xf32>)"}} {
    %0 = hal.tensor.import %arg0 "input0" : !hal.buffer_view -> tensor<2xf32>
    %1 = iree_tensor_ext.compute_barrier.start %0 : tensor<2xf32> -> tensor<2xf32>
    %2 = hal.tensor.import %arg1 "input1" : !hal.buffer_view -> tensor<2xf32>
    %3 = iree_tensor_ext.compute_barrier.start %2 : tensor<2xf32> -> tensor<2xf32>
    %4 = linalg.generic {indexing_maps = [#map, #map], iterator_types = ["parallel"]} ins(%1 : tensor<2xf32>) outs(%1 : tensor<2xf32>) {
    ^bb0(%in: f32, %out: f32):
      %10 = math.absf %in : f32
      linalg.yield %10 : f32
    } -> tensor<2xf32>
    %5 = iree_tensor_ext.compute_barrier.end %4 : tensor<2xf32> -> tensor<2xf32>
    %6 = linalg.generic {indexing_maps = [#map, #map], iterator_types = ["parallel"]} ins(%3 : tensor<2xf32>) outs(%3 : tensor<2xf32>) {
    ^bb0(%in: f32, %out: f32):
      %10 = math.absf %in : f32
      linalg.yield %10 : f32
    } -> tensor<2xf32>
    %7 = iree_tensor_ext.compute_barrier.end %6 : tensor<2xf32> -> tensor<2xf32>
    %8 = hal.tensor.export %5 "output0" : tensor<2xf32> -> !hal.buffer_view
    %9 = hal.tensor.export %7 "output1" : tensor<2xf32> -> !hal.buffer_view
    util.return %8, %9 : !hal.buffer_view, !hal.buffer_view
  }
}


// -----// IR Dump After GeneralizeLinalgNamedOpsPass (iree-global-opt-generalize-linalg-named-ops) //----- //
util.func public @multiple_results(%arg0: !hal.buffer_view, %arg1: !hal.buffer_view) -> (!hal.buffer_view, !hal.buffer_view) attributes {iree.abi.stub, iree.reflection = {iree.abi.declaration = "sync func @multiple_results(%input0: tensor<2xf32>, %input1: tensor<2xf32>) -> (%output0: tensor<2xf32>, %output1: tensor<2xf32>)"}} {
  %0 = hal.tensor.import %arg0 "input0" : !hal.buffer_view -> tensor<2xf32>
  %1 = iree_tensor_ext.compute_barrier.start %0 : tensor<2xf32> -> tensor<2xf32>
  %2 = hal.tensor.import %arg1 "input1" : !hal.buffer_view -> tensor<2xf32>
  %3 = iree_tensor_ext.compute_barrier.start %2 : tensor<2xf32> -> tensor<2xf32>
  %4 = linalg.generic {indexing_maps = [affine_map<(d0) -> (d0)>, affine_map<(d0) -> (d0)>], iterator_types = ["parallel"]} ins(%1 : tensor<2xf32>) outs(%1 : tensor<2xf32>) {
  ^bb0(%in: f32, %out: f32):
    %10 = math.absf %in : f32
    linalg.yield %10 : f32
  } -> tensor<2xf32>
  %5 = iree_tensor_ext.compute_barrier.end %4 : tensor<2xf32> -> tensor<2xf32>
  %6 = linalg.generic {indexing_maps = [affine_map<(d0) -> (d0)>, affine_map<(d0) -> (d0)>], iterator_types = ["parallel"]} ins(%3 : tensor<2xf32>) outs(%3 : tensor<2xf32>) {
  ^bb0(%in: f32, %out: f32):
    %10 = math.absf %in : f32
    linalg.yield %10 : f32
  } -> tensor<2xf32>
  %7 = iree_tensor_ext.compute_barrier.end %6 : tensor<2xf32> -> tensor<2xf32>
  %8 = hal.tensor.export %5 "output0" : tensor<2xf32> -> !hal.buffer_view
  %9 = hal.tensor.export %7 "output1" : tensor<2xf32> -> !hal.buffer_view
  util.return %8, %9 : !hal.buffer_view, !hal.buffer_view
}

// -----// IR Dump After GlobalLoopInvariantCodeMotionPass (iree-global-opt-loop-invariant-code-motion) //----- //
util.func public @multiple_results(%arg0: !hal.buffer_view, %arg1: !hal.buffer_view) -> (!hal.buffer_view, !hal.buffer_view) attributes {iree.abi.stub, iree.reflection = {iree.abi.declaration = "sync func @multiple_results(%input0: tensor<2xf32>, %input1: tensor<2xf32>) -> (%output0: tensor<2xf32>, %output1: tensor<2xf32>)"}} {
  %0 = hal.tensor.import %arg0 "input0" : !hal.buffer_view -> tensor<2xf32>
  %1 = iree_tensor_ext.compute_barrier.start %0 : tensor<2xf32> -> tensor<2xf32>
  %2 = hal.tensor.import %arg1 "input1" : !hal.buffer_view -> tensor<2xf32>
  %3 = iree_tensor_ext.compute_barrier.start %2 : tensor<2xf32> -> tensor<2xf32>
  %4 = linalg.generic {indexing_maps = [affine_map<(d0) -> (d0)>, affine_map<(d0) -> (d0)>], iterator_types = ["parallel"]} ins(%1 : tensor<2xf32>) outs(%1 : tensor<2xf32>) {
  ^bb0(%in: f32, %out: f32):
    %10 = math.absf %in : f32
    linalg.yield %10 : f32
  } -> tensor<2xf32>
  %5 = iree_tensor_ext.compute_barrier.end %4 : tensor<2xf32> -> tensor<2xf32>
  %6 = linalg.generic {indexing_maps = [affine_map<(d0) -> (d0)>, affine_map<(d0) -> (d0)>], iterator_types = ["parallel"]} ins(%3 : tensor<2xf32>) outs(%3 : tensor<2xf32>) {
  ^bb0(%in: f32, %out: f32):
    %10 = math.absf %in : f32
    linalg.yield %10 : f32
  } -> tensor<2xf32>
  %7 = iree_tensor_ext.compute_barrier.end %6 : tensor<2xf32> -> tensor<2xf32>
  %8 = hal.tensor.export %5 "output0" : tensor<2xf32> -> !hal.buffer_view
  %9 = hal.tensor.export %7 "output1" : tensor<2xf32> -> !hal.buffer_view
  util.return %8, %9 : !hal.buffer_view, !hal.buffer_view
}

// -----// IR Dump After CanonicalizePass (iree-flow-canonicalize) //----- //
util.func public @multiple_results(%arg0: !hal.buffer_view, %arg1: !hal.buffer_view) -> (!hal.buffer_view, !hal.buffer_view) attributes {iree.abi.stub, iree.reflection = {iree.abi.declaration = "sync func @multiple_results(%input0: tensor<2xf32>, %input1: tensor<2xf32>) -> (%output0: tensor<2xf32>, %output1: tensor<2xf32>)"}} {
  %0 = hal.tensor.import %arg0 "input0" : !hal.buffer_view -> tensor<2xf32>
  %1 = iree_tensor_ext.compute_barrier.start %0 : tensor<2xf32> -> tensor<2xf32>
  %2 = hal.tensor.import %arg1 "input1" : !hal.buffer_view -> tensor<2xf32>
  %3 = iree_tensor_ext.compute_barrier.start %2 : tensor<2xf32> -> tensor<2xf32>
  %4 = linalg.generic {indexing_maps = [affine_map<(d0) -> (d0)>, affine_map<(d0) -> (d0)>], iterator_types = ["parallel"]} ins(%1 : tensor<2xf32>) outs(%1 : tensor<2xf32>) {
  ^bb0(%in: f32, %out: f32):
    %10 = math.absf %in : f32
    linalg.yield %10 : f32
  } -> tensor<2xf32>
  %5 = iree_tensor_ext.compute_barrier.end %4 : tensor<2xf32> -> tensor<2xf32>
  %6 = linalg.generic {indexing_maps = [affine_map<(d0) -> (d0)>, affine_map<(d0) -> (d0)>], iterator_types = ["parallel"]} ins(%3 : tensor<2xf32>) outs(%3 : tensor<2xf32>) {
  ^bb0(%in: f32, %out: f32):
    %10 = math.absf %in : f32
    linalg.yield %10 : f32
  } -> tensor<2xf32>
  %7 = iree_tensor_ext.compute_barrier.end %6 : tensor<2xf32> -> tensor<2xf32>
  %8 = hal.tensor.export %5 "output0" : tensor<2xf32> -> !hal.buffer_view
  %9 = hal.tensor.export %7 "output1" : tensor<2xf32> -> !hal.buffer_view
  util.return %8, %9 : !hal.buffer_view, !hal.buffer_view
}

// -----// IR Dump After CSE (cse) //----- //
util.func public @multiple_results(%arg0: !hal.buffer_view, %arg1: !hal.buffer_view) -> (!hal.buffer_view, !hal.buffer_view) attributes {iree.abi.stub, iree.reflection = {iree.abi.declaration = "sync func @multiple_results(%input0: tensor<2xf32>, %input1: tensor<2xf32>) -> (%output0: tensor<2xf32>, %output1: tensor<2xf32>)"}} {
  %0 = hal.tensor.import %arg0 "input0" : !hal.buffer_view -> tensor<2xf32>
  %1 = iree_tensor_ext.compute_barrier.start %0 : tensor<2xf32> -> tensor<2xf32>
  %2 = hal.tensor.import %arg1 "input1" : !hal.buffer_view -> tensor<2xf32>
  %3 = iree_tensor_ext.compute_barrier.start %2 : tensor<2xf32> -> tensor<2xf32>
  %4 = linalg.generic {indexing_maps = [affine_map<(d0) -> (d0)>, affine_map<(d0) -> (d0)>], iterator_types = ["parallel"]} ins(%1 : tensor<2xf32>) outs(%1 : tensor<2xf32>) {
  ^bb0(%in: f32, %out: f32):
    %10 = math.absf %in : f32
    linalg.yield %10 : f32
  } -> tensor<2xf32>
  %5 = iree_tensor_ext.compute_barrier.end %4 : tensor<2xf32> -> tensor<2xf32>
  %6 = linalg.generic {indexing_maps = [affine_map<(d0) -> (d0)>, affine_map<(d0) -> (d0)>], iterator_types = ["parallel"]} ins(%3 : tensor<2xf32>) outs(%3 : tensor<2xf32>) {
  ^bb0(%in: f32, %out: f32):
    %10 = math.absf %in : f32
    linalg.yield %10 : f32
  } -> tensor<2xf32>
  %7 = iree_tensor_ext.compute_barrier.end %6 : tensor<2xf32> -> tensor<2xf32>
  %8 = hal.tensor.export %5 "output0" : tensor<2xf32> -> !hal.buffer_view
  %9 = hal.tensor.export %7 "output1" : tensor<2xf32> -> !hal.buffer_view
  util.return %8, %9 : !hal.buffer_view, !hal.buffer_view
}

// -----// IR Dump After SimplifyGlobalAccessesPass (iree-util-simplify-global-accesses) //----- //
util.func public @multiple_results(%arg0: !hal.buffer_view, %arg1: !hal.buffer_view) -> (!hal.buffer_view, !hal.buffer_view) attributes {iree.abi.stub, iree.reflection = {iree.abi.declaration = "sync func @multiple_results(%input0: tensor<2xf32>, %input1: tensor<2xf32>) -> (%output0: tensor<2xf32>, %output1: tensor<2xf32>)"}} {
  %0 = hal.tensor.import %arg0 "input0" : !hal.buffer_view -> tensor<2xf32>
  %1 = iree_tensor_ext.compute_barrier.start %0 : tensor<2xf32> -> tensor<2xf32>
  %2 = hal.tensor.import %arg1 "input1" : !hal.buffer_view -> tensor<2xf32>
  %3 = iree_tensor_ext.compute_barrier.start %2 : tensor<2xf32> -> tensor<2xf32>
  %4 = linalg.generic {indexing_maps = [affine_map<(d0) -> (d0)>, affine_map<(d0) -> (d0)>], iterator_types = ["parallel"]} ins(%1 : tensor<2xf32>) outs(%1 : tensor<2xf32>) {
  ^bb0(%in: f32, %out: f32):
    %10 = math.absf %in : f32
    linalg.yield %10 : f32
  } -> tensor<2xf32>
  %5 = iree_tensor_ext.compute_barrier.end %4 : tensor<2xf32> -> tensor<2xf32>
  %6 = linalg.generic {indexing_maps = [affine_map<(d0) -> (d0)>, affine_map<(d0) -> (d0)>], iterator_types = ["parallel"]} ins(%3 : tensor<2xf32>) outs(%3 : tensor<2xf32>) {
  ^bb0(%in: f32, %out: f32):
    %10 = math.absf %in : f32
    linalg.yield %10 : f32
  } -> tensor<2xf32>
  %7 = iree_tensor_ext.compute_barrier.end %6 : tensor<2xf32> -> tensor<2xf32>
  %8 = hal.tensor.export %5 "output0" : tensor<2xf32> -> !hal.buffer_view
  %9 = hal.tensor.export %7 "output1" : tensor<2xf32> -> !hal.buffer_view
  util.return %8, %9 : !hal.buffer_view, !hal.buffer_view
}

// -----// IR Dump After ApplyPatternsPass (iree-util-apply-patterns) //----- //
util.func public @multiple_results(%arg0: !hal.buffer_view, %arg1: !hal.buffer_view) -> (!hal.buffer_view, !hal.buffer_view) attributes {iree.abi.stub, iree.reflection = {iree.abi.declaration = "sync func @multiple_results(%input0: tensor<2xf32>, %input1: tensor<2xf32>) -> (%output0: tensor<2xf32>, %output1: tensor<2xf32>)"}} {
  %0 = hal.tensor.import %arg0 "input0" : !hal.buffer_view -> tensor<2xf32>
  %1 = iree_tensor_ext.compute_barrier.start %0 : tensor<2xf32> -> tensor<2xf32>
  %2 = hal.tensor.import %arg1 "input1" : !hal.buffer_view -> tensor<2xf32>
  %3 = iree_tensor_ext.compute_barrier.start %2 : tensor<2xf32> -> tensor<2xf32>
  %4 = linalg.generic {indexing_maps = [affine_map<(d0) -> (d0)>, affine_map<(d0) -> (d0)>], iterator_types = ["parallel"]} ins(%1 : tensor<2xf32>) outs(%1 : tensor<2xf32>) {
  ^bb0(%in: f32, %out: f32):
    %10 = math.absf %in : f32
    linalg.yield %10 : f32
  } -> tensor<2xf32>
  %5 = iree_tensor_ext.compute_barrier.end %4 : tensor<2xf32> -> tensor<2xf32>
  %6 = linalg.generic {indexing_maps = [affine_map<(d0) -> (d0)>, affine_map<(d0) -> (d0)>], iterator_types = ["parallel"]} ins(%3 : tensor<2xf32>) outs(%3 : tensor<2xf32>) {
  ^bb0(%in: f32, %out: f32):
    %10 = math.absf %in : f32
    linalg.yield %10 : f32
  } -> tensor<2xf32>
  %7 = iree_tensor_ext.compute_barrier.end %6 : tensor<2xf32> -> tensor<2xf32>
  %8 = hal.tensor.export %5 "output0" : tensor<2xf32> -> !hal.buffer_view
  %9 = hal.tensor.export %7 "output1" : tensor<2xf32> -> !hal.buffer_view
  util.return %8, %9 : !hal.buffer_view, !hal.buffer_view
}

// -----// IR Dump After FoldGlobalsPass (iree-util-fold-globals) //----- //
#executable_target_embedded_elf_arm_64 = #hal.executable.target<"llvm-cpu", "embedded-elf-arm_64", {cpu = "", cpu_features = "+reserve-x18", data_layout = "e-m:e-p270:32:32-p271:32:32-p272:64:64-i8:8:32-i16:16:32-i64:64-i128:128-n32:64-S128-Fn32", iree.encoding.resolver = #iree_cpu.cpu_encoding_resolver<>, max_stack_allocation_size = 32768 : i64, native_vector_size = 16 : i64, target_triple = "arm64-unknown-unknown-eabi-elf"}>
#map = affine_map<(d0) -> (d0)>
#device_target_local = #hal.device.target<"local", [#executable_target_embedded_elf_arm_64]> : !hal.device
module attributes {stream.affinity.default = #hal.device.affinity<@__device_0>} {
  util.global private @__device_0 = #device_target_local
  util.func public @multiple_results(%arg0: !hal.buffer_view, %arg1: !hal.buffer_view) -> (!hal.buffer_view, !hal.buffer_view) attributes {iree.abi.stub, iree.reflection = {iree.abi.declaration = "sync func @multiple_results(%input0: tensor<2xf32>, %input1: tensor<2xf32>) -> (%output0: tensor<2xf32>, %output1: tensor<2xf32>)"}} {
    %0 = hal.tensor.import %arg0 "input0" : !hal.buffer_view -> tensor<2xf32>
    %1 = iree_tensor_ext.compute_barrier.start %0 : tensor<2xf32> -> tensor<2xf32>
    %2 = hal.tensor.import %arg1 "input1" : !hal.buffer_view -> tensor<2xf32>
    %3 = iree_tensor_ext.compute_barrier.start %2 : tensor<2xf32> -> tensor<2xf32>
    %4 = linalg.generic {indexing_maps = [#map, #map], iterator_types = ["parallel"]} ins(%1 : tensor<2xf32>) outs(%1 : tensor<2xf32>) {
    ^bb0(%in: f32, %out: f32):
      %10 = math.absf %in : f32
      linalg.yield %10 : f32
    } -> tensor<2xf32>
    %5 = iree_tensor_ext.compute_barrier.end %4 : tensor<2xf32> -> tensor<2xf32>
    %6 = linalg.generic {indexing_maps = [#map, #map], iterator_types = ["parallel"]} ins(%3 : tensor<2xf32>) outs(%3 : tensor<2xf32>) {
    ^bb0(%in: f32, %out: f32):
      %10 = math.absf %in : f32
      linalg.yield %10 : f32
    } -> tensor<2xf32>
    %7 = iree_tensor_ext.compute_barrier.end %6 : tensor<2xf32> -> tensor<2xf32>
    %8 = hal.tensor.export %5 "output0" : tensor<2xf32> -> !hal.buffer_view
    %9 = hal.tensor.export %7 "output1" : tensor<2xf32> -> !hal.buffer_view
    util.return %8, %9 : !hal.buffer_view, !hal.buffer_view
  }
}


// -----// IR Dump After IPOPass (iree-util-ipo) //----- //
#executable_target_embedded_elf_arm_64 = #hal.executable.target<"llvm-cpu", "embedded-elf-arm_64", {cpu = "", cpu_features = "+reserve-x18", data_layout = "e-m:e-p270:32:32-p271:32:32-p272:64:64-i8:8:32-i16:16:32-i64:64-i128:128-n32:64-S128-Fn32", iree.encoding.resolver = #iree_cpu.cpu_encoding_resolver<>, max_stack_allocation_size = 32768 : i64, native_vector_size = 16 : i64, target_triple = "arm64-unknown-unknown-eabi-elf"}>
#map = affine_map<(d0) -> (d0)>
#device_target_local = #hal.device.target<"local", [#executable_target_embedded_elf_arm_64]> : !hal.device
module attributes {stream.affinity.default = #hal.device.affinity<@__device_0>} {
  util.global private @__device_0 = #device_target_local
  util.func public @multiple_results(%arg0: !hal.buffer_view, %arg1: !hal.buffer_view) -> (!hal.buffer_view, !hal.buffer_view) attributes {iree.abi.stub, iree.reflection = {iree.abi.declaration = "sync func @multiple_results(%input0: tensor<2xf32>, %input1: tensor<2xf32>) -> (%output0: tensor<2xf32>, %output1: tensor<2xf32>)"}} {
    %0 = hal.tensor.import %arg0 "input0" : !hal.buffer_view -> tensor<2xf32>
    %1 = iree_tensor_ext.compute_barrier.start %0 : tensor<2xf32> -> tensor<2xf32>
    %2 = hal.tensor.import %arg1 "input1" : !hal.buffer_view -> tensor<2xf32>
    %3 = iree_tensor_ext.compute_barrier.start %2 : tensor<2xf32> -> tensor<2xf32>
    %4 = linalg.generic {indexing_maps = [#map, #map], iterator_types = ["parallel"]} ins(%1 : tensor<2xf32>) outs(%1 : tensor<2xf32>) {
    ^bb0(%in: f32, %out: f32):
      %10 = math.absf %in : f32
      linalg.yield %10 : f32
    } -> tensor<2xf32>
    %5 = iree_tensor_ext.compute_barrier.end %4 : tensor<2xf32> -> tensor<2xf32>
    %6 = linalg.generic {indexing_maps = [#map, #map], iterator_types = ["parallel"]} ins(%3 : tensor<2xf32>) outs(%3 : tensor<2xf32>) {
    ^bb0(%in: f32, %out: f32):
      %10 = math.absf %in : f32
      linalg.yield %10 : f32
    } -> tensor<2xf32>
    %7 = iree_tensor_ext.compute_barrier.end %6 : tensor<2xf32> -> tensor<2xf32>
    %8 = hal.tensor.export %5 "output0" : tensor<2xf32> -> !hal.buffer_view
    %9 = hal.tensor.export %7 "output1" : tensor<2xf32> -> !hal.buffer_view
    util.return %8, %9 : !hal.buffer_view, !hal.buffer_view
  }
}


// -----// IR Dump After OptimizeIntArithmeticPass (iree-util-optimize-int-arithmetic) //----- //
util.func public @multiple_results(%arg0: !hal.buffer_view, %arg1: !hal.buffer_view) -> (!hal.buffer_view, !hal.buffer_view) attributes {iree.abi.stub, iree.reflection = {iree.abi.declaration = "sync func @multiple_results(%input0: tensor<2xf32>, %input1: tensor<2xf32>) -> (%output0: tensor<2xf32>, %output1: tensor<2xf32>)"}} {
  %0 = hal.tensor.import %arg0 "input0" : !hal.buffer_view -> tensor<2xf32>
  %1 = iree_tensor_ext.compute_barrier.start %0 : tensor<2xf32> -> tensor<2xf32>
  %2 = hal.tensor.import %arg1 "input1" : !hal.buffer_view -> tensor<2xf32>
  %3 = iree_tensor_ext.compute_barrier.start %2 : tensor<2xf32> -> tensor<2xf32>
  %4 = linalg.generic {indexing_maps = [affine_map<(d0) -> (d0)>, affine_map<(d0) -> (d0)>], iterator_types = ["parallel"]} ins(%1 : tensor<2xf32>) outs(%1 : tensor<2xf32>) {
  ^bb0(%in: f32, %out: f32):
    %10 = math.absf %in : f32
    linalg.yield %10 : f32
  } -> tensor<2xf32>
  %5 = iree_tensor_ext.compute_barrier.end %4 : tensor<2xf32> -> tensor<2xf32>
  %6 = linalg.generic {indexing_maps = [affine_map<(d0) -> (d0)>, affine_map<(d0) -> (d0)>], iterator_types = ["parallel"]} ins(%3 : tensor<2xf32>) outs(%3 : tensor<2xf32>) {
  ^bb0(%in: f32, %out: f32):
    %10 = math.absf %in : f32
    linalg.yield %10 : f32
  } -> tensor<2xf32>
  %7 = iree_tensor_ext.compute_barrier.end %6 : tensor<2xf32> -> tensor<2xf32>
  %8 = hal.tensor.export %5 "output0" : tensor<2xf32> -> !hal.buffer_view
  %9 = hal.tensor.export %7 "output1" : tensor<2xf32> -> !hal.buffer_view
  util.return %8, %9 : !hal.buffer_view, !hal.buffer_view
}

// -----// IR Dump After CanonicalizePass (iree-flow-canonicalize) //----- //
util.func public @multiple_results(%arg0: !hal.buffer_view, %arg1: !hal.buffer_view) -> (!hal.buffer_view, !hal.buffer_view) attributes {iree.abi.stub, iree.reflection = {iree.abi.declaration = "sync func @multiple_results(%input0: tensor<2xf32>, %input1: tensor<2xf32>) -> (%output0: tensor<2xf32>, %output1: tensor<2xf32>)"}} {
  %0 = hal.tensor.import %arg0 "input0" : !hal.buffer_view -> tensor<2xf32>
  %1 = iree_tensor_ext.compute_barrier.start %0 : tensor<2xf32> -> tensor<2xf32>
  %2 = hal.tensor.import %arg1 "input1" : !hal.buffer_view -> tensor<2xf32>
  %3 = iree_tensor_ext.compute_barrier.start %2 : tensor<2xf32> -> tensor<2xf32>
  %4 = linalg.generic {indexing_maps = [affine_map<(d0) -> (d0)>, affine_map<(d0) -> (d0)>], iterator_types = ["parallel"]} ins(%1 : tensor<2xf32>) outs(%1 : tensor<2xf32>) {
  ^bb0(%in: f32, %out: f32):
    %10 = math.absf %in : f32
    linalg.yield %10 : f32
  } -> tensor<2xf32>
  %5 = iree_tensor_ext.compute_barrier.end %4 : tensor<2xf32> -> tensor<2xf32>
  %6 = linalg.generic {indexing_maps = [affine_map<(d0) -> (d0)>, affine_map<(d0) -> (d0)>], iterator_types = ["parallel"]} ins(%3 : tensor<2xf32>) outs(%3 : tensor<2xf32>) {
  ^bb0(%in: f32, %out: f32):
    %10 = math.absf %in : f32
    linalg.yield %10 : f32
  } -> tensor<2xf32>
  %7 = iree_tensor_ext.compute_barrier.end %6 : tensor<2xf32> -> tensor<2xf32>
  %8 = hal.tensor.export %5 "output0" : tensor<2xf32> -> !hal.buffer_view
  %9 = hal.tensor.export %7 "output1" : tensor<2xf32> -> !hal.buffer_view
  util.return %8, %9 : !hal.buffer_view, !hal.buffer_view
}

// -----// IR Dump After CSE (cse) //----- //
util.func public @multiple_results(%arg0: !hal.buffer_view, %arg1: !hal.buffer_view) -> (!hal.buffer_view, !hal.buffer_view) attributes {iree.abi.stub, iree.reflection = {iree.abi.declaration = "sync func @multiple_results(%input0: tensor<2xf32>, %input1: tensor<2xf32>) -> (%output0: tensor<2xf32>, %output1: tensor<2xf32>)"}} {
  %0 = hal.tensor.import %arg0 "input0" : !hal.buffer_view -> tensor<2xf32>
  %1 = iree_tensor_ext.compute_barrier.start %0 : tensor<2xf32> -> tensor<2xf32>
  %2 = hal.tensor.import %arg1 "input1" : !hal.buffer_view -> tensor<2xf32>
  %3 = iree_tensor_ext.compute_barrier.start %2 : tensor<2xf32> -> tensor<2xf32>
  %4 = linalg.generic {indexing_maps = [affine_map<(d0) -> (d0)>, affine_map<(d0) -> (d0)>], iterator_types = ["parallel"]} ins(%1 : tensor<2xf32>) outs(%1 : tensor<2xf32>) {
  ^bb0(%in: f32, %out: f32):
    %10 = math.absf %in : f32
    linalg.yield %10 : f32
  } -> tensor<2xf32>
  %5 = iree_tensor_ext.compute_barrier.end %4 : tensor<2xf32> -> tensor<2xf32>
  %6 = linalg.generic {indexing_maps = [affine_map<(d0) -> (d0)>, affine_map<(d0) -> (d0)>], iterator_types = ["parallel"]} ins(%3 : tensor<2xf32>) outs(%3 : tensor<2xf32>) {
  ^bb0(%in: f32, %out: f32):
    %10 = math.absf %in : f32
    linalg.yield %10 : f32
  } -> tensor<2xf32>
  %7 = iree_tensor_ext.compute_barrier.end %6 : tensor<2xf32> -> tensor<2xf32>
  %8 = hal.tensor.export %5 "output0" : tensor<2xf32> -> !hal.buffer_view
  %9 = hal.tensor.export %7 "output1" : tensor<2xf32> -> !hal.buffer_view
  util.return %8, %9 : !hal.buffer_view, !hal.buffer_view
}

// -----// IR Dump After HoistIntoGlobalsPass (iree-util-hoist-into-globals) //----- //
#executable_target_embedded_elf_arm_64 = #hal.executable.target<"llvm-cpu", "embedded-elf-arm_64", {cpu = "", cpu_features = "+reserve-x18", data_layout = "e-m:e-p270:32:32-p271:32:32-p272:64:64-i8:8:32-i16:16:32-i64:64-i128:128-n32:64-S128-Fn32", iree.encoding.resolver = #iree_cpu.cpu_encoding_resolver<>, max_stack_allocation_size = 32768 : i64, native_vector_size = 16 : i64, target_triple = "arm64-unknown-unknown-eabi-elf"}>
#map = affine_map<(d0) -> (d0)>
#device_target_local = #hal.device.target<"local", [#executable_target_embedded_elf_arm_64]> : !hal.device
module attributes {stream.affinity.default = #hal.device.affinity<@__device_0>} {
  util.global private @__device_0 = #device_target_local
  util.func public @multiple_results(%arg0: !hal.buffer_view, %arg1: !hal.buffer_view) -> (!hal.buffer_view, !hal.buffer_view) attributes {iree.abi.stub, iree.reflection = {iree.abi.declaration = "sync func @multiple_results(%input0: tensor<2xf32>, %input1: tensor<2xf32>) -> (%output0: tensor<2xf32>, %output1: tensor<2xf32>)"}} {
    %0 = hal.tensor.import %arg0 "input0" : !hal.buffer_view -> tensor<2xf32>
    %1 = iree_tensor_ext.compute_barrier.start %0 : tensor<2xf32> -> tensor<2xf32>
    %2 = hal.tensor.import %arg1 "input1" : !hal.buffer_view -> tensor<2xf32>
    %3 = iree_tensor_ext.compute_barrier.start %2 : tensor<2xf32> -> tensor<2xf32>
    %4 = linalg.generic {indexing_maps = [#map, #map], iterator_types = ["parallel"]} ins(%1 : tensor<2xf32>) outs(%1 : tensor<2xf32>) {
    ^bb0(%in: f32, %out: f32):
      %10 = math.absf %in : f32
      linalg.yield %10 : f32
    } -> tensor<2xf32>
    %5 = iree_tensor_ext.compute_barrier.end %4 : tensor<2xf32> -> tensor<2xf32>
    %6 = linalg.generic {indexing_maps = [#map, #map], iterator_types = ["parallel"]} ins(%3 : tensor<2xf32>) outs(%3 : tensor<2xf32>) {
    ^bb0(%in: f32, %out: f32):
      %10 = math.absf %in : f32
      linalg.yield %10 : f32
    } -> tensor<2xf32>
    %7 = iree_tensor_ext.compute_barrier.end %6 : tensor<2xf32> -> tensor<2xf32>
    %8 = hal.tensor.export %5 "output0" : tensor<2xf32> -> !hal.buffer_view
    %9 = hal.tensor.export %7 "output1" : tensor<2xf32> -> !hal.buffer_view
    util.return %8, %9 : !hal.buffer_view, !hal.buffer_view
  }
}


// -----// IR Dump After JitGlobalsPass (iree-consteval-jit-globals) //----- //
#executable_target_embedded_elf_arm_64 = #hal.executable.target<"llvm-cpu", "embedded-elf-arm_64", {cpu = "", cpu_features = "+reserve-x18", data_layout = "e-m:e-p270:32:32-p271:32:32-p272:64:64-i8:8:32-i16:16:32-i64:64-i128:128-n32:64-S128-Fn32", iree.encoding.resolver = #iree_cpu.cpu_encoding_resolver<>, max_stack_allocation_size = 32768 : i64, native_vector_size = 16 : i64, target_triple = "arm64-unknown-unknown-eabi-elf"}>
#map = affine_map<(d0) -> (d0)>
#device_target_local = #hal.device.target<"local", [#executable_target_embedded_elf_arm_64]> : !hal.device
module attributes {stream.affinity.default = #hal.device.affinity<@__device_0>} {
  util.global private @__device_0 = #device_target_local
  util.func public @multiple_results(%arg0: !hal.buffer_view, %arg1: !hal.buffer_view) -> (!hal.buffer_view, !hal.buffer_view) attributes {iree.abi.stub, iree.reflection = {iree.abi.declaration = "sync func @multiple_results(%input0: tensor<2xf32>, %input1: tensor<2xf32>) -> (%output0: tensor<2xf32>, %output1: tensor<2xf32>)"}} {
    %0 = hal.tensor.import %arg0 "input0" : !hal.buffer_view -> tensor<2xf32>
    %1 = iree_tensor_ext.compute_barrier.start %0 : tensor<2xf32> -> tensor<2xf32>
    %2 = hal.tensor.import %arg1 "input1" : !hal.buffer_view -> tensor<2xf32>
    %3 = iree_tensor_ext.compute_barrier.start %2 : tensor<2xf32> -> tensor<2xf32>
    %4 = linalg.generic {indexing_maps = [#map, #map], iterator_types = ["parallel"]} ins(%1 : tensor<2xf32>) outs(%1 : tensor<2xf32>) {
    ^bb0(%in: f32, %out: f32):
      %10 = math.absf %in : f32
      linalg.yield %10 : f32
    } -> tensor<2xf32>
    %5 = iree_tensor_ext.compute_barrier.end %4 : tensor<2xf32> -> tensor<2xf32>
    %6 = linalg.generic {indexing_maps = [#map, #map], iterator_types = ["parallel"]} ins(%3 : tensor<2xf32>) outs(%3 : tensor<2xf32>) {
    ^bb0(%in: f32, %out: f32):
      %10 = math.absf %in : f32
      linalg.yield %10 : f32
    } -> tensor<2xf32>
    %7 = iree_tensor_ext.compute_barrier.end %6 : tensor<2xf32> -> tensor<2xf32>
    %8 = hal.tensor.export %5 "output0" : tensor<2xf32> -> !hal.buffer_view
    %9 = hal.tensor.export %7 "output1" : tensor<2xf32> -> !hal.buffer_view
    util.return %8, %9 : !hal.buffer_view, !hal.buffer_view
  }
}


// -----// IR Dump After CanonicalizePass (iree-flow-canonicalize) //----- //
util.func public @multiple_results(%arg0: !hal.buffer_view, %arg1: !hal.buffer_view) -> (!hal.buffer_view, !hal.buffer_view) attributes {iree.abi.stub, iree.reflection = {iree.abi.declaration = "sync func @multiple_results(%input0: tensor<2xf32>, %input1: tensor<2xf32>) -> (%output0: tensor<2xf32>, %output1: tensor<2xf32>)"}} {
  %0 = hal.tensor.import %arg0 "input0" : !hal.buffer_view -> tensor<2xf32>
  %1 = iree_tensor_ext.compute_barrier.start %0 : tensor<2xf32> -> tensor<2xf32>
  %2 = hal.tensor.import %arg1 "input1" : !hal.buffer_view -> tensor<2xf32>
  %3 = iree_tensor_ext.compute_barrier.start %2 : tensor<2xf32> -> tensor<2xf32>
  %4 = linalg.generic {indexing_maps = [affine_map<(d0) -> (d0)>, affine_map<(d0) -> (d0)>], iterator_types = ["parallel"]} ins(%1 : tensor<2xf32>) outs(%1 : tensor<2xf32>) {
  ^bb0(%in: f32, %out: f32):
    %10 = math.absf %in : f32
    linalg.yield %10 : f32
  } -> tensor<2xf32>
  %5 = iree_tensor_ext.compute_barrier.end %4 : tensor<2xf32> -> tensor<2xf32>
  %6 = linalg.generic {indexing_maps = [affine_map<(d0) -> (d0)>, affine_map<(d0) -> (d0)>], iterator_types = ["parallel"]} ins(%3 : tensor<2xf32>) outs(%3 : tensor<2xf32>) {
  ^bb0(%in: f32, %out: f32):
    %10 = math.absf %in : f32
    linalg.yield %10 : f32
  } -> tensor<2xf32>
  %7 = iree_tensor_ext.compute_barrier.end %6 : tensor<2xf32> -> tensor<2xf32>
  %8 = hal.tensor.export %5 "output0" : tensor<2xf32> -> !hal.buffer_view
  %9 = hal.tensor.export %7 "output1" : tensor<2xf32> -> !hal.buffer_view
  util.return %8, %9 : !hal.buffer_view, !hal.buffer_view
}

// -----// IR Dump After CSE (cse) //----- //
util.func public @multiple_results(%arg0: !hal.buffer_view, %arg1: !hal.buffer_view) -> (!hal.buffer_view, !hal.buffer_view) attributes {iree.abi.stub, iree.reflection = {iree.abi.declaration = "sync func @multiple_results(%input0: tensor<2xf32>, %input1: tensor<2xf32>) -> (%output0: tensor<2xf32>, %output1: tensor<2xf32>)"}} {
  %0 = hal.tensor.import %arg0 "input0" : !hal.buffer_view -> tensor<2xf32>
  %1 = iree_tensor_ext.compute_barrier.start %0 : tensor<2xf32> -> tensor<2xf32>
  %2 = hal.tensor.import %arg1 "input1" : !hal.buffer_view -> tensor<2xf32>
  %3 = iree_tensor_ext.compute_barrier.start %2 : tensor<2xf32> -> tensor<2xf32>
  %4 = linalg.generic {indexing_maps = [affine_map<(d0) -> (d0)>, affine_map<(d0) -> (d0)>], iterator_types = ["parallel"]} ins(%1 : tensor<2xf32>) outs(%1 : tensor<2xf32>) {
  ^bb0(%in: f32, %out: f32):
    %10 = math.absf %in : f32
    linalg.yield %10 : f32
  } -> tensor<2xf32>
  %5 = iree_tensor_ext.compute_barrier.end %4 : tensor<2xf32> -> tensor<2xf32>
  %6 = linalg.generic {indexing_maps = [affine_map<(d0) -> (d0)>, affine_map<(d0) -> (d0)>], iterator_types = ["parallel"]} ins(%3 : tensor<2xf32>) outs(%3 : tensor<2xf32>) {
  ^bb0(%in: f32, %out: f32):
    %10 = math.absf %in : f32
    linalg.yield %10 : f32
  } -> tensor<2xf32>
  %7 = iree_tensor_ext.compute_barrier.end %6 : tensor<2xf32> -> tensor<2xf32>
  %8 = hal.tensor.export %5 "output0" : tensor<2xf32> -> !hal.buffer_view
  %9 = hal.tensor.export %7 "output1" : tensor<2xf32> -> !hal.buffer_view
  util.return %8, %9 : !hal.buffer_view, !hal.buffer_view
}

// -----// IR Dump After RaiseSpecialOpsPass (iree-global-opt-raise-special-ops) //----- //
util.func public @multiple_results(%arg0: !hal.buffer_view, %arg1: !hal.buffer_view) -> (!hal.buffer_view, !hal.buffer_view) attributes {iree.abi.stub, iree.reflection = {iree.abi.declaration = "sync func @multiple_results(%input0: tensor<2xf32>, %input1: tensor<2xf32>) -> (%output0: tensor<2xf32>, %output1: tensor<2xf32>)"}} {
  %0 = hal.tensor.import %arg0 "input0" : !hal.buffer_view -> tensor<2xf32>
  %1 = iree_tensor_ext.compute_barrier.start %0 : tensor<2xf32> -> tensor<2xf32>
  %2 = hal.tensor.import %arg1 "input1" : !hal.buffer_view -> tensor<2xf32>
  %3 = iree_tensor_ext.compute_barrier.start %2 : tensor<2xf32> -> tensor<2xf32>
  %4 = linalg.generic {indexing_maps = [affine_map<(d0) -> (d0)>, affine_map<(d0) -> (d0)>], iterator_types = ["parallel"]} ins(%1 : tensor<2xf32>) outs(%1 : tensor<2xf32>) {
  ^bb0(%in: f32, %out: f32):
    %10 = math.absf %in : f32
    linalg.yield %10 : f32
  } -> tensor<2xf32>
  %5 = iree_tensor_ext.compute_barrier.end %4 : tensor<2xf32> -> tensor<2xf32>
  %6 = linalg.generic {indexing_maps = [affine_map<(d0) -> (d0)>, affine_map<(d0) -> (d0)>], iterator_types = ["parallel"]} ins(%3 : tensor<2xf32>) outs(%3 : tensor<2xf32>) {
  ^bb0(%in: f32, %out: f32):
    %10 = math.absf %in : f32
    linalg.yield %10 : f32
  } -> tensor<2xf32>
  %7 = iree_tensor_ext.compute_barrier.end %6 : tensor<2xf32> -> tensor<2xf32>
  %8 = hal.tensor.export %5 "output0" : tensor<2xf32> -> !hal.buffer_view
  %9 = hal.tensor.export %7 "output1" : tensor<2xf32> -> !hal.buffer_view
  util.return %8, %9 : !hal.buffer_view, !hal.buffer_view
}

// -----// IR Dump After InjectTensorTracingPass (iree-flow-inject-tensor-tracing) //----- //
util.func public @multiple_results(%arg0: !hal.buffer_view, %arg1: !hal.buffer_view) -> (!hal.buffer_view, !hal.buffer_view) attributes {iree.abi.stub, iree.reflection = {iree.abi.declaration = "sync func @multiple_results(%input0: tensor<2xf32>, %input1: tensor<2xf32>) -> (%output0: tensor<2xf32>, %output1: tensor<2xf32>)"}} {
  %0 = hal.tensor.import %arg0 "input0" : !hal.buffer_view -> tensor<2xf32>
  %1 = iree_tensor_ext.compute_barrier.start %0 : tensor<2xf32> -> tensor<2xf32>
  %2 = hal.tensor.import %arg1 "input1" : !hal.buffer_view -> tensor<2xf32>
  %3 = iree_tensor_ext.compute_barrier.start %2 : tensor<2xf32> -> tensor<2xf32>
  %4 = linalg.generic {indexing_maps = [affine_map<(d0) -> (d0)>, affine_map<(d0) -> (d0)>], iterator_types = ["parallel"]} ins(%1 : tensor<2xf32>) outs(%1 : tensor<2xf32>) {
  ^bb0(%in: f32, %out: f32):
    %10 = math.absf %in : f32
    linalg.yield %10 : f32
  } -> tensor<2xf32>
  %5 = iree_tensor_ext.compute_barrier.end %4 : tensor<2xf32> -> tensor<2xf32>
  %6 = linalg.generic {indexing_maps = [affine_map<(d0) -> (d0)>, affine_map<(d0) -> (d0)>], iterator_types = ["parallel"]} ins(%3 : tensor<2xf32>) outs(%3 : tensor<2xf32>) {
  ^bb0(%in: f32, %out: f32):
    %10 = math.absf %in : f32
    linalg.yield %10 : f32
  } -> tensor<2xf32>
  %7 = iree_tensor_ext.compute_barrier.end %6 : tensor<2xf32> -> tensor<2xf32>
  %8 = hal.tensor.export %5 "output0" : tensor<2xf32> -> !hal.buffer_view
  %9 = hal.tensor.export %7 "output1" : tensor<2xf32> -> !hal.buffer_view
  util.return %8, %9 : !hal.buffer_view, !hal.buffer_view
}

// -----// IR Dump After TensorPadToTensorInsertSlicePass (iree-dispatch-creation-tensor-pad-to-tensor-insert-slice) //----- //
#executable_target_embedded_elf_arm_64 = #hal.executable.target<"llvm-cpu", "embedded-elf-arm_64", {cpu = "", cpu_features = "+reserve-x18", data_layout = "e-m:e-p270:32:32-p271:32:32-p272:64:64-i8:8:32-i16:16:32-i64:64-i128:128-n32:64-S128-Fn32", iree.encoding.resolver = #iree_cpu.cpu_encoding_resolver<>, max_stack_allocation_size = 32768 : i64, native_vector_size = 16 : i64, target_triple = "arm64-unknown-unknown-eabi-elf"}>
#map = affine_map<(d0) -> (d0)>
#device_target_local = #hal.device.target<"local", [#executable_target_embedded_elf_arm_64]> : !hal.device
module attributes {stream.affinity.default = #hal.device.affinity<@__device_0>} {
  util.global private @__device_0 = #device_target_local
  util.func public @multiple_results(%arg0: !hal.buffer_view, %arg1: !hal.buffer_view) -> (!hal.buffer_view, !hal.buffer_view) attributes {iree.abi.stub, iree.reflection = {iree.abi.declaration = "sync func @multiple_results(%input0: tensor<2xf32>, %input1: tensor<2xf32>) -> (%output0: tensor<2xf32>, %output1: tensor<2xf32>)"}} {
    %0 = hal.tensor.import %arg0 "input0" : !hal.buffer_view -> tensor<2xf32>
    %1 = iree_tensor_ext.compute_barrier.start %0 : tensor<2xf32> -> tensor<2xf32>
    %2 = hal.tensor.import %arg1 "input1" : !hal.buffer_view -> tensor<2xf32>
    %3 = iree_tensor_ext.compute_barrier.start %2 : tensor<2xf32> -> tensor<2xf32>
    %4 = linalg.generic {indexing_maps = [#map, #map], iterator_types = ["parallel"]} ins(%1 : tensor<2xf32>) outs(%1 : tensor<2xf32>) {
    ^bb0(%in: f32, %out: f32):
      %10 = math.absf %in : f32
      linalg.yield %10 : f32
    } -> tensor<2xf32>
    %5 = iree_tensor_ext.compute_barrier.end %4 : tensor<2xf32> -> tensor<2xf32>
    %6 = linalg.generic {indexing_maps = [#map, #map], iterator_types = ["parallel"]} ins(%3 : tensor<2xf32>) outs(%3 : tensor<2xf32>) {
    ^bb0(%in: f32, %out: f32):
      %10 = math.absf %in : f32
      linalg.yield %10 : f32
    } -> tensor<2xf32>
    %7 = iree_tensor_ext.compute_barrier.end %6 : tensor<2xf32> -> tensor<2xf32>
    %8 = hal.tensor.export %5 "output0" : tensor<2xf32> -> !hal.buffer_view
    %9 = hal.tensor.export %7 "output1" : tensor<2xf32> -> !hal.buffer_view
    util.return %8, %9 : !hal.buffer_view, !hal.buffer_view
  }
}


// -----// IR Dump After CanonicalizePass (iree-flow-canonicalize) //----- //
util.func public @multiple_results(%arg0: !hal.buffer_view, %arg1: !hal.buffer_view) -> (!hal.buffer_view, !hal.buffer_view) attributes {iree.abi.stub, iree.reflection = {iree.abi.declaration = "sync func @multiple_results(%input0: tensor<2xf32>, %input1: tensor<2xf32>) -> (%output0: tensor<2xf32>, %output1: tensor<2xf32>)"}} {
  %0 = hal.tensor.import %arg0 "input0" : !hal.buffer_view -> tensor<2xf32>
  %1 = iree_tensor_ext.compute_barrier.start %0 : tensor<2xf32> -> tensor<2xf32>
  %2 = hal.tensor.import %arg1 "input1" : !hal.buffer_view -> tensor<2xf32>
  %3 = iree_tensor_ext.compute_barrier.start %2 : tensor<2xf32> -> tensor<2xf32>
  %4 = linalg.generic {indexing_maps = [affine_map<(d0) -> (d0)>, affine_map<(d0) -> (d0)>], iterator_types = ["parallel"]} ins(%1 : tensor<2xf32>) outs(%1 : tensor<2xf32>) {
  ^bb0(%in: f32, %out: f32):
    %10 = math.absf %in : f32
    linalg.yield %10 : f32
  } -> tensor<2xf32>
  %5 = iree_tensor_ext.compute_barrier.end %4 : tensor<2xf32> -> tensor<2xf32>
  %6 = linalg.generic {indexing_maps = [affine_map<(d0) -> (d0)>, affine_map<(d0) -> (d0)>], iterator_types = ["parallel"]} ins(%3 : tensor<2xf32>) outs(%3 : tensor<2xf32>) {
  ^bb0(%in: f32, %out: f32):
    %10 = math.absf %in : f32
    linalg.yield %10 : f32
  } -> tensor<2xf32>
  %7 = iree_tensor_ext.compute_barrier.end %6 : tensor<2xf32> -> tensor<2xf32>
  %8 = hal.tensor.export %5 "output0" : tensor<2xf32> -> !hal.buffer_view
  %9 = hal.tensor.export %7 "output1" : tensor<2xf32> -> !hal.buffer_view
  util.return %8, %9 : !hal.buffer_view, !hal.buffer_view
}

// -----// IR Dump After CSE (cse) //----- //
util.func public @multiple_results(%arg0: !hal.buffer_view, %arg1: !hal.buffer_view) -> (!hal.buffer_view, !hal.buffer_view) attributes {iree.abi.stub, iree.reflection = {iree.abi.declaration = "sync func @multiple_results(%input0: tensor<2xf32>, %input1: tensor<2xf32>) -> (%output0: tensor<2xf32>, %output1: tensor<2xf32>)"}} {
  %0 = hal.tensor.import %arg0 "input0" : !hal.buffer_view -> tensor<2xf32>
  %1 = iree_tensor_ext.compute_barrier.start %0 : tensor<2xf32> -> tensor<2xf32>
  %2 = hal.tensor.import %arg1 "input1" : !hal.buffer_view -> tensor<2xf32>
  %3 = iree_tensor_ext.compute_barrier.start %2 : tensor<2xf32> -> tensor<2xf32>
  %4 = linalg.generic {indexing_maps = [affine_map<(d0) -> (d0)>, affine_map<(d0) -> (d0)>], iterator_types = ["parallel"]} ins(%1 : tensor<2xf32>) outs(%1 : tensor<2xf32>) {
  ^bb0(%in: f32, %out: f32):
    %10 = math.absf %in : f32
    linalg.yield %10 : f32
  } -> tensor<2xf32>
  %5 = iree_tensor_ext.compute_barrier.end %4 : tensor<2xf32> -> tensor<2xf32>
  %6 = linalg.generic {indexing_maps = [affine_map<(d0) -> (d0)>, affine_map<(d0) -> (d0)>], iterator_types = ["parallel"]} ins(%3 : tensor<2xf32>) outs(%3 : tensor<2xf32>) {
  ^bb0(%in: f32, %out: f32):
    %10 = math.absf %in : f32
    linalg.yield %10 : f32
  } -> tensor<2xf32>
  %7 = iree_tensor_ext.compute_barrier.end %6 : tensor<2xf32> -> tensor<2xf32>
  %8 = hal.tensor.export %5 "output0" : tensor<2xf32> -> !hal.buffer_view
  %9 = hal.tensor.export %7 "output1" : tensor<2xf32> -> !hal.buffer_view
  util.return %8, %9 : !hal.buffer_view, !hal.buffer_view
}

// -----// IR Dump After SimplifyGlobalAccessesPass (iree-util-simplify-global-accesses) //----- //
util.func public @multiple_results(%arg0: !hal.buffer_view, %arg1: !hal.buffer_view) -> (!hal.buffer_view, !hal.buffer_view) attributes {iree.abi.stub, iree.reflection = {iree.abi.declaration = "sync func @multiple_results(%input0: tensor<2xf32>, %input1: tensor<2xf32>) -> (%output0: tensor<2xf32>, %output1: tensor<2xf32>)"}} {
  %0 = hal.tensor.import %arg0 "input0" : !hal.buffer_view -> tensor<2xf32>
  %1 = iree_tensor_ext.compute_barrier.start %0 : tensor<2xf32> -> tensor<2xf32>
  %2 = hal.tensor.import %arg1 "input1" : !hal.buffer_view -> tensor<2xf32>
  %3 = iree_tensor_ext.compute_barrier.start %2 : tensor<2xf32> -> tensor<2xf32>
  %4 = linalg.generic {indexing_maps = [affine_map<(d0) -> (d0)>, affine_map<(d0) -> (d0)>], iterator_types = ["parallel"]} ins(%1 : tensor<2xf32>) outs(%1 : tensor<2xf32>) {
  ^bb0(%in: f32, %out: f32):
    %10 = math.absf %in : f32
    linalg.yield %10 : f32
  } -> tensor<2xf32>
  %5 = iree_tensor_ext.compute_barrier.end %4 : tensor<2xf32> -> tensor<2xf32>
  %6 = linalg.generic {indexing_maps = [affine_map<(d0) -> (d0)>, affine_map<(d0) -> (d0)>], iterator_types = ["parallel"]} ins(%3 : tensor<2xf32>) outs(%3 : tensor<2xf32>) {
  ^bb0(%in: f32, %out: f32):
    %10 = math.absf %in : f32
    linalg.yield %10 : f32
  } -> tensor<2xf32>
  %7 = iree_tensor_ext.compute_barrier.end %6 : tensor<2xf32> -> tensor<2xf32>
  %8 = hal.tensor.export %5 "output0" : tensor<2xf32> -> !hal.buffer_view
  %9 = hal.tensor.export %7 "output1" : tensor<2xf32> -> !hal.buffer_view
  util.return %8, %9 : !hal.buffer_view, !hal.buffer_view
}

// -----// IR Dump After ApplyPatternsPass (iree-util-apply-patterns) //----- //
util.func public @multiple_results(%arg0: !hal.buffer_view, %arg1: !hal.buffer_view) -> (!hal.buffer_view, !hal.buffer_view) attributes {iree.abi.stub, iree.reflection = {iree.abi.declaration = "sync func @multiple_results(%input0: tensor<2xf32>, %input1: tensor<2xf32>) -> (%output0: tensor<2xf32>, %output1: tensor<2xf32>)"}} {
  %0 = hal.tensor.import %arg0 "input0" : !hal.buffer_view -> tensor<2xf32>
  %1 = iree_tensor_ext.compute_barrier.start %0 : tensor<2xf32> -> tensor<2xf32>
  %2 = hal.tensor.import %arg1 "input1" : !hal.buffer_view -> tensor<2xf32>
  %3 = iree_tensor_ext.compute_barrier.start %2 : tensor<2xf32> -> tensor<2xf32>
  %4 = linalg.generic {indexing_maps = [affine_map<(d0) -> (d0)>, affine_map<(d0) -> (d0)>], iterator_types = ["parallel"]} ins(%1 : tensor<2xf32>) outs(%1 : tensor<2xf32>) {
  ^bb0(%in: f32, %out: f32):
    %10 = math.absf %in : f32
    linalg.yield %10 : f32
  } -> tensor<2xf32>
  %5 = iree_tensor_ext.compute_barrier.end %4 : tensor<2xf32> -> tensor<2xf32>
  %6 = linalg.generic {indexing_maps = [affine_map<(d0) -> (d0)>, affine_map<(d0) -> (d0)>], iterator_types = ["parallel"]} ins(%3 : tensor<2xf32>) outs(%3 : tensor<2xf32>) {
  ^bb0(%in: f32, %out: f32):
    %10 = math.absf %in : f32
    linalg.yield %10 : f32
  } -> tensor<2xf32>
  %7 = iree_tensor_ext.compute_barrier.end %6 : tensor<2xf32> -> tensor<2xf32>
  %8 = hal.tensor.export %5 "output0" : tensor<2xf32> -> !hal.buffer_view
  %9 = hal.tensor.export %7 "output1" : tensor<2xf32> -> !hal.buffer_view
  util.return %8, %9 : !hal.buffer_view, !hal.buffer_view
}

// -----// IR Dump After FoldGlobalsPass (iree-util-fold-globals) //----- //
#executable_target_embedded_elf_arm_64 = #hal.executable.target<"llvm-cpu", "embedded-elf-arm_64", {cpu = "", cpu_features = "+reserve-x18", data_layout = "e-m:e-p270:32:32-p271:32:32-p272:64:64-i8:8:32-i16:16:32-i64:64-i128:128-n32:64-S128-Fn32", iree.encoding.resolver = #iree_cpu.cpu_encoding_resolver<>, max_stack_allocation_size = 32768 : i64, native_vector_size = 16 : i64, target_triple = "arm64-unknown-unknown-eabi-elf"}>
#map = affine_map<(d0) -> (d0)>
#device_target_local = #hal.device.target<"local", [#executable_target_embedded_elf_arm_64]> : !hal.device
module attributes {iree.fixedpoint.iteration = 0 : index, stream.affinity.default = #hal.device.affinity<@__device_0>} {
  util.global private @__device_0 = #device_target_local
  util.func public @multiple_results(%arg0: !hal.buffer_view, %arg1: !hal.buffer_view) -> (!hal.buffer_view, !hal.buffer_view) attributes {iree.abi.stub, iree.reflection = {iree.abi.declaration = "sync func @multiple_results(%input0: tensor<2xf32>, %input1: tensor<2xf32>) -> (%output0: tensor<2xf32>, %output1: tensor<2xf32>)"}} {
    %0 = hal.tensor.import %arg0 "input0" : !hal.buffer_view -> tensor<2xf32>
    %1 = iree_tensor_ext.compute_barrier.start %0 : tensor<2xf32> -> tensor<2xf32>
    %2 = hal.tensor.import %arg1 "input1" : !hal.buffer_view -> tensor<2xf32>
    %3 = iree_tensor_ext.compute_barrier.start %2 : tensor<2xf32> -> tensor<2xf32>
    %4 = linalg.generic {indexing_maps = [#map, #map], iterator_types = ["parallel"]} ins(%1 : tensor<2xf32>) outs(%1 : tensor<2xf32>) {
    ^bb0(%in: f32, %out: f32):
      %10 = math.absf %in : f32
      linalg.yield %10 : f32
    } -> tensor<2xf32>
    %5 = iree_tensor_ext.compute_barrier.end %4 : tensor<2xf32> -> tensor<2xf32>
    %6 = linalg.generic {indexing_maps = [#map, #map], iterator_types = ["parallel"]} ins(%3 : tensor<2xf32>) outs(%3 : tensor<2xf32>) {
    ^bb0(%in: f32, %out: f32):
      %10 = math.absf %in : f32
      linalg.yield %10 : f32
    } -> tensor<2xf32>
    %7 = iree_tensor_ext.compute_barrier.end %6 : tensor<2xf32> -> tensor<2xf32>
    %8 = hal.tensor.export %5 "output0" : tensor<2xf32> -> !hal.buffer_view
    %9 = hal.tensor.export %7 "output1" : tensor<2xf32> -> !hal.buffer_view
    util.return %8, %9 : !hal.buffer_view, !hal.buffer_view
  }
}


// -----// IR Dump After FuseGlobalsPass (iree-util-fuse-globals) //----- //
#executable_target_embedded_elf_arm_64 = #hal.executable.target<"llvm-cpu", "embedded-elf-arm_64", {cpu = "", cpu_features = "+reserve-x18", data_layout = "e-m:e-p270:32:32-p271:32:32-p272:64:64-i8:8:32-i16:16:32-i64:64-i128:128-n32:64-S128-Fn32", iree.encoding.resolver = #iree_cpu.cpu_encoding_resolver<>, max_stack_allocation_size = 32768 : i64, native_vector_size = 16 : i64, target_triple = "arm64-unknown-unknown-eabi-elf"}>
#map = affine_map<(d0) -> (d0)>
#device_target_local = #hal.device.target<"local", [#executable_target_embedded_elf_arm_64]> : !hal.device
module attributes {iree.fixedpoint.iteration = 0 : index, stream.affinity.default = #hal.device.affinity<@__device_0>} {
  util.global private @__device_0 = #device_target_local
  util.func public @multiple_results(%arg0: !hal.buffer_view, %arg1: !hal.buffer_view) -> (!hal.buffer_view, !hal.buffer_view) attributes {iree.abi.stub, iree.reflection = {iree.abi.declaration = "sync func @multiple_results(%input0: tensor<2xf32>, %input1: tensor<2xf32>) -> (%output0: tensor<2xf32>, %output1: tensor<2xf32>)"}} {
    %0 = hal.tensor.import %arg0 "input0" : !hal.buffer_view -> tensor<2xf32>
    %1 = iree_tensor_ext.compute_barrier.start %0 : tensor<2xf32> -> tensor<2xf32>
    %2 = hal.tensor.import %arg1 "input1" : !hal.buffer_view -> tensor<2xf32>
    %3 = iree_tensor_ext.compute_barrier.start %2 : tensor<2xf32> -> tensor<2xf32>
    %4 = linalg.generic {indexing_maps = [#map, #map], iterator_types = ["parallel"]} ins(%1 : tensor<2xf32>) outs(%1 : tensor<2xf32>) {
    ^bb0(%in: f32, %out: f32):
      %10 = math.absf %in : f32
      linalg.yield %10 : f32
    } -> tensor<2xf32>
    %5 = iree_tensor_ext.compute_barrier.end %4 : tensor<2xf32> -> tensor<2xf32>
    %6 = linalg.generic {indexing_maps = [#map, #map], iterator_types = ["parallel"]} ins(%3 : tensor<2xf32>) outs(%3 : tensor<2xf32>) {
    ^bb0(%in: f32, %out: f32):
      %10 = math.absf %in : f32
      linalg.yield %10 : f32
    } -> tensor<2xf32>
    %7 = iree_tensor_ext.compute_barrier.end %6 : tensor<2xf32> -> tensor<2xf32>
    %8 = hal.tensor.export %5 "output0" : tensor<2xf32> -> !hal.buffer_view
    %9 = hal.tensor.export %7 "output1" : tensor<2xf32> -> !hal.buffer_view
    util.return %8, %9 : !hal.buffer_view, !hal.buffer_view
  }
}


// -----// IR Dump After IPOPass (iree-util-ipo) //----- //
#executable_target_embedded_elf_arm_64 = #hal.executable.target<"llvm-cpu", "embedded-elf-arm_64", {cpu = "", cpu_features = "+reserve-x18", data_layout = "e-m:e-p270:32:32-p271:32:32-p272:64:64-i8:8:32-i16:16:32-i64:64-i128:128-n32:64-S128-Fn32", iree.encoding.resolver = #iree_cpu.cpu_encoding_resolver<>, max_stack_allocation_size = 32768 : i64, native_vector_size = 16 : i64, target_triple = "arm64-unknown-unknown-eabi-elf"}>
#map = affine_map<(d0) -> (d0)>
#device_target_local = #hal.device.target<"local", [#executable_target_embedded_elf_arm_64]> : !hal.device
module attributes {iree.fixedpoint.iteration = 0 : index, stream.affinity.default = #hal.device.affinity<@__device_0>} {
  util.global private @__device_0 = #device_target_local
  util.func public @multiple_results(%arg0: !hal.buffer_view, %arg1: !hal.buffer_view) -> (!hal.buffer_view, !hal.buffer_view) attributes {iree.abi.stub, iree.reflection = {iree.abi.declaration = "sync func @multiple_results(%input0: tensor<2xf32>, %input1: tensor<2xf32>) -> (%output0: tensor<2xf32>, %output1: tensor<2xf32>)"}} {
    %0 = hal.tensor.import %arg0 "input0" : !hal.buffer_view -> tensor<2xf32>
    %1 = iree_tensor_ext.compute_barrier.start %0 : tensor<2xf32> -> tensor<2xf32>
    %2 = hal.tensor.import %arg1 "input1" : !hal.buffer_view -> tensor<2xf32>
    %3 = iree_tensor_ext.compute_barrier.start %2 : tensor<2xf32> -> tensor<2xf32>
    %4 = linalg.generic {indexing_maps = [#map, #map], iterator_types = ["parallel"]} ins(%1 : tensor<2xf32>) outs(%1 : tensor<2xf32>) {
    ^bb0(%in: f32, %out: f32):
      %10 = math.absf %in : f32
      linalg.yield %10 : f32
    } -> tensor<2xf32>
    %5 = iree_tensor_ext.compute_barrier.end %4 : tensor<2xf32> -> tensor<2xf32>
    %6 = linalg.generic {indexing_maps = [#map, #map], iterator_types = ["parallel"]} ins(%3 : tensor<2xf32>) outs(%3 : tensor<2xf32>) {
    ^bb0(%in: f32, %out: f32):
      %10 = math.absf %in : f32
      linalg.yield %10 : f32
    } -> tensor<2xf32>
    %7 = iree_tensor_ext.compute_barrier.end %6 : tensor<2xf32> -> tensor<2xf32>
    %8 = hal.tensor.export %5 "output0" : tensor<2xf32> -> !hal.buffer_view
    %9 = hal.tensor.export %7 "output1" : tensor<2xf32> -> !hal.buffer_view
    util.return %8, %9 : !hal.buffer_view, !hal.buffer_view
  }
}


// -----// IR Dump After FixedPointIteratorPass (iree-util-fixed-point-iterator) //----- //
#executable_target_embedded_elf_arm_64 = #hal.executable.target<"llvm-cpu", "embedded-elf-arm_64", {cpu = "", cpu_features = "+reserve-x18", data_layout = "e-m:e-p270:32:32-p271:32:32-p272:64:64-i8:8:32-i16:16:32-i64:64-i128:128-n32:64-S128-Fn32", iree.encoding.resolver = #iree_cpu.cpu_encoding_resolver<>, max_stack_allocation_size = 32768 : i64, native_vector_size = 16 : i64, target_triple = "arm64-unknown-unknown-eabi-elf"}>
#map = affine_map<(d0) -> (d0)>
#device_target_local = #hal.device.target<"local", [#executable_target_embedded_elf_arm_64]> : !hal.device
module attributes {stream.affinity.default = #hal.device.affinity<@__device_0>} {
  util.global private @__device_0 = #device_target_local
  util.func public @multiple_results(%arg0: !hal.buffer_view, %arg1: !hal.buffer_view) -> (!hal.buffer_view, !hal.buffer_view) attributes {iree.abi.stub, iree.reflection = {iree.abi.declaration = "sync func @multiple_results(%input0: tensor<2xf32>, %input1: tensor<2xf32>) -> (%output0: tensor<2xf32>, %output1: tensor<2xf32>)"}} {
    %0 = hal.tensor.import %arg0 "input0" : !hal.buffer_view -> tensor<2xf32>
    %1 = iree_tensor_ext.compute_barrier.start %0 : tensor<2xf32> -> tensor<2xf32>
    %2 = hal.tensor.import %arg1 "input1" : !hal.buffer_view -> tensor<2xf32>
    %3 = iree_tensor_ext.compute_barrier.start %2 : tensor<2xf32> -> tensor<2xf32>
    %4 = linalg.generic {indexing_maps = [#map, #map], iterator_types = ["parallel"]} ins(%1 : tensor<2xf32>) outs(%1 : tensor<2xf32>) {
    ^bb0(%in: f32, %out: f32):
      %10 = math.absf %in : f32
      linalg.yield %10 : f32
    } -> tensor<2xf32>
    %5 = iree_tensor_ext.compute_barrier.end %4 : tensor<2xf32> -> tensor<2xf32>
    %6 = linalg.generic {indexing_maps = [#map, #map], iterator_types = ["parallel"]} ins(%3 : tensor<2xf32>) outs(%3 : tensor<2xf32>) {
    ^bb0(%in: f32, %out: f32):
      %10 = math.absf %in : f32
      linalg.yield %10 : f32
    } -> tensor<2xf32>
    %7 = iree_tensor_ext.compute_barrier.end %6 : tensor<2xf32> -> tensor<2xf32>
    %8 = hal.tensor.export %5 "output0" : tensor<2xf32> -> !hal.buffer_view
    %9 = hal.tensor.export %7 "output1" : tensor<2xf32> -> !hal.buffer_view
    util.return %8, %9 : !hal.buffer_view, !hal.buffer_view
  }
}


// -----// IR Dump After FusionPreprocessingPass (iree-dispatch-creation-fusion-preprocessing) //----- //
util.func public @multiple_results(%arg0: !hal.buffer_view, %arg1: !hal.buffer_view) -> (!hal.buffer_view, !hal.buffer_view) attributes {iree.abi.stub, iree.reflection = {iree.abi.declaration = "sync func @multiple_results(%input0: tensor<2xf32>, %input1: tensor<2xf32>) -> (%output0: tensor<2xf32>, %output1: tensor<2xf32>)"}} {
  %0 = hal.tensor.import %arg0 "input0" : !hal.buffer_view -> tensor<2xf32>
  %1 = iree_tensor_ext.compute_barrier.start %0 : tensor<2xf32> -> tensor<2xf32>
  %2 = hal.tensor.import %arg1 "input1" : !hal.buffer_view -> tensor<2xf32>
  %3 = iree_tensor_ext.compute_barrier.start %2 : tensor<2xf32> -> tensor<2xf32>
  %4 = linalg.generic {indexing_maps = [affine_map<(d0) -> (d0)>, affine_map<(d0) -> (d0)>], iterator_types = ["parallel"]} ins(%1 : tensor<2xf32>) outs(%1 : tensor<2xf32>) {
  ^bb0(%in: f32, %out: f32):
    %10 = math.absf %in : f32
    linalg.yield %10 : f32
  } -> tensor<2xf32>
  %5 = iree_tensor_ext.compute_barrier.end %4 : tensor<2xf32> -> tensor<2xf32>
  %6 = linalg.generic {indexing_maps = [affine_map<(d0) -> (d0)>, affine_map<(d0) -> (d0)>], iterator_types = ["parallel"]} ins(%3 : tensor<2xf32>) outs(%3 : tensor<2xf32>) {
  ^bb0(%in: f32, %out: f32):
    %10 = math.absf %in : f32
    linalg.yield %10 : f32
  } -> tensor<2xf32>
  %7 = iree_tensor_ext.compute_barrier.end %6 : tensor<2xf32> -> tensor<2xf32>
  %8 = hal.tensor.export %5 "output0" : tensor<2xf32> -> !hal.buffer_view
  %9 = hal.tensor.export %7 "output1" : tensor<2xf32> -> !hal.buffer_view
  util.return %8, %9 : !hal.buffer_view, !hal.buffer_view
}

// -----// IR Dump After CanonicalizePass (iree-flow-canonicalize) //----- //
util.func public @multiple_results(%arg0: !hal.buffer_view, %arg1: !hal.buffer_view) -> (!hal.buffer_view, !hal.buffer_view) attributes {iree.abi.stub, iree.reflection = {iree.abi.declaration = "sync func @multiple_results(%input0: tensor<2xf32>, %input1: tensor<2xf32>) -> (%output0: tensor<2xf32>, %output1: tensor<2xf32>)"}} {
  %0 = hal.tensor.import %arg0 "input0" : !hal.buffer_view -> tensor<2xf32>
  %1 = iree_tensor_ext.compute_barrier.start %0 : tensor<2xf32> -> tensor<2xf32>
  %2 = hal.tensor.import %arg1 "input1" : !hal.buffer_view -> tensor<2xf32>
  %3 = iree_tensor_ext.compute_barrier.start %2 : tensor<2xf32> -> tensor<2xf32>
  %4 = linalg.generic {indexing_maps = [affine_map<(d0) -> (d0)>, affine_map<(d0) -> (d0)>], iterator_types = ["parallel"]} ins(%1 : tensor<2xf32>) outs(%1 : tensor<2xf32>) {
  ^bb0(%in: f32, %out: f32):
    %10 = math.absf %in : f32
    linalg.yield %10 : f32
  } -> tensor<2xf32>
  %5 = iree_tensor_ext.compute_barrier.end %4 : tensor<2xf32> -> tensor<2xf32>
  %6 = linalg.generic {indexing_maps = [affine_map<(d0) -> (d0)>, affine_map<(d0) -> (d0)>], iterator_types = ["parallel"]} ins(%3 : tensor<2xf32>) outs(%3 : tensor<2xf32>) {
  ^bb0(%in: f32, %out: f32):
    %10 = math.absf %in : f32
    linalg.yield %10 : f32
  } -> tensor<2xf32>
  %7 = iree_tensor_ext.compute_barrier.end %6 : tensor<2xf32> -> tensor<2xf32>
  %8 = hal.tensor.export %5 "output0" : tensor<2xf32> -> !hal.buffer_view
  %9 = hal.tensor.export %7 "output1" : tensor<2xf32> -> !hal.buffer_view
  util.return %8, %9 : !hal.buffer_view, !hal.buffer_view
}

// -----// IR Dump After CSE (cse) //----- //
util.func public @multiple_results(%arg0: !hal.buffer_view, %arg1: !hal.buffer_view) -> (!hal.buffer_view, !hal.buffer_view) attributes {iree.abi.stub, iree.reflection = {iree.abi.declaration = "sync func @multiple_results(%input0: tensor<2xf32>, %input1: tensor<2xf32>) -> (%output0: tensor<2xf32>, %output1: tensor<2xf32>)"}} {
  %0 = hal.tensor.import %arg0 "input0" : !hal.buffer_view -> tensor<2xf32>
  %1 = iree_tensor_ext.compute_barrier.start %0 : tensor<2xf32> -> tensor<2xf32>
  %2 = hal.tensor.import %arg1 "input1" : !hal.buffer_view -> tensor<2xf32>
  %3 = iree_tensor_ext.compute_barrier.start %2 : tensor<2xf32> -> tensor<2xf32>
  %4 = linalg.generic {indexing_maps = [affine_map<(d0) -> (d0)>, affine_map<(d0) -> (d0)>], iterator_types = ["parallel"]} ins(%1 : tensor<2xf32>) outs(%1 : tensor<2xf32>) {
  ^bb0(%in: f32, %out: f32):
    %10 = math.absf %in : f32
    linalg.yield %10 : f32
  } -> tensor<2xf32>
  %5 = iree_tensor_ext.compute_barrier.end %4 : tensor<2xf32> -> tensor<2xf32>
  %6 = linalg.generic {indexing_maps = [affine_map<(d0) -> (d0)>, affine_map<(d0) -> (d0)>], iterator_types = ["parallel"]} ins(%3 : tensor<2xf32>) outs(%3 : tensor<2xf32>) {
  ^bb0(%in: f32, %out: f32):
    %10 = math.absf %in : f32
    linalg.yield %10 : f32
  } -> tensor<2xf32>
  %7 = iree_tensor_ext.compute_barrier.end %6 : tensor<2xf32> -> tensor<2xf32>
  %8 = hal.tensor.export %5 "output0" : tensor<2xf32> -> !hal.buffer_view
  %9 = hal.tensor.export %7 "output1" : tensor<2xf32> -> !hal.buffer_view
  util.return %8, %9 : !hal.buffer_view, !hal.buffer_view
}

// -----// IR Dump After ElementwiseOpFusionPass (iree-dispatch-creation-elementwise-op-fusion) //----- //
util.func public @multiple_results(%arg0: !hal.buffer_view, %arg1: !hal.buffer_view) -> (!hal.buffer_view, !hal.buffer_view) attributes {iree.abi.stub, iree.reflection = {iree.abi.declaration = "sync func @multiple_results(%input0: tensor<2xf32>, %input1: tensor<2xf32>) -> (%output0: tensor<2xf32>, %output1: tensor<2xf32>)"}} {
  %0 = hal.tensor.import %arg0 "input0" : !hal.buffer_view -> tensor<2xf32>
  %1 = iree_tensor_ext.compute_barrier.start %0 : tensor<2xf32> -> tensor<2xf32>
  %2 = hal.tensor.import %arg1 "input1" : !hal.buffer_view -> tensor<2xf32>
  %3 = iree_tensor_ext.compute_barrier.start %2 : tensor<2xf32> -> tensor<2xf32>
  %4 = tensor.empty() : tensor<2xf32>
  %5 = linalg.generic {indexing_maps = [affine_map<(d0) -> (d0)>, affine_map<(d0) -> (d0)>], iterator_types = ["parallel"]} ins(%1 : tensor<2xf32>) outs(%4 : tensor<2xf32>) {
  ^bb0(%in: f32, %out: f32):
    %12 = math.absf %in : f32
    linalg.yield %12 : f32
  } -> tensor<2xf32>
  %6 = iree_tensor_ext.compute_barrier.end %5 : tensor<2xf32> -> tensor<2xf32>
  %7 = tensor.empty() : tensor<2xf32>
  %8 = linalg.generic {indexing_maps = [affine_map<(d0) -> (d0)>, affine_map<(d0) -> (d0)>], iterator_types = ["parallel"]} ins(%3 : tensor<2xf32>) outs(%7 : tensor<2xf32>) {
  ^bb0(%in: f32, %out: f32):
    %12 = math.absf %in : f32
    linalg.yield %12 : f32
  } -> tensor<2xf32>
  %9 = iree_tensor_ext.compute_barrier.end %8 : tensor<2xf32> -> tensor<2xf32>
  %10 = hal.tensor.export %6 "output0" : tensor<2xf32> -> !hal.buffer_view
  %11 = hal.tensor.export %9 "output1" : tensor<2xf32> -> !hal.buffer_view
  util.return %10, %11 : !hal.buffer_view, !hal.buffer_view
}

// -----// IR Dump After CanonicalizePass (iree-flow-canonicalize) //----- //
util.func public @multiple_results(%arg0: !hal.buffer_view, %arg1: !hal.buffer_view) -> (!hal.buffer_view, !hal.buffer_view) attributes {iree.abi.stub, iree.reflection = {iree.abi.declaration = "sync func @multiple_results(%input0: tensor<2xf32>, %input1: tensor<2xf32>) -> (%output0: tensor<2xf32>, %output1: tensor<2xf32>)"}} {
  %0 = hal.tensor.import %arg0 "input0" : !hal.buffer_view -> tensor<2xf32>
  %1 = iree_tensor_ext.compute_barrier.start %0 : tensor<2xf32> -> tensor<2xf32>
  %2 = hal.tensor.import %arg1 "input1" : !hal.buffer_view -> tensor<2xf32>
  %3 = iree_tensor_ext.compute_barrier.start %2 : tensor<2xf32> -> tensor<2xf32>
  %4 = tensor.empty() : tensor<2xf32>
  %5 = linalg.generic {indexing_maps = [affine_map<(d0) -> (d0)>, affine_map<(d0) -> (d0)>], iterator_types = ["parallel"]} ins(%1 : tensor<2xf32>) outs(%4 : tensor<2xf32>) {
  ^bb0(%in: f32, %out: f32):
    %12 = math.absf %in : f32
    linalg.yield %12 : f32
  } -> tensor<2xf32>
  %6 = iree_tensor_ext.compute_barrier.end %5 : tensor<2xf32> -> tensor<2xf32>
  %7 = tensor.empty() : tensor<2xf32>
  %8 = linalg.generic {indexing_maps = [affine_map<(d0) -> (d0)>, affine_map<(d0) -> (d0)>], iterator_types = ["parallel"]} ins(%3 : tensor<2xf32>) outs(%7 : tensor<2xf32>) {
  ^bb0(%in: f32, %out: f32):
    %12 = math.absf %in : f32
    linalg.yield %12 : f32
  } -> tensor<2xf32>
  %9 = iree_tensor_ext.compute_barrier.end %8 : tensor<2xf32> -> tensor<2xf32>
  %10 = hal.tensor.export %6 "output0" : tensor<2xf32> -> !hal.buffer_view
  %11 = hal.tensor.export %9 "output1" : tensor<2xf32> -> !hal.buffer_view
  util.return %10, %11 : !hal.buffer_view, !hal.buffer_view
}

// -----// IR Dump After CSE (cse) //----- //
util.func public @multiple_results(%arg0: !hal.buffer_view, %arg1: !hal.buffer_view) -> (!hal.buffer_view, !hal.buffer_view) attributes {iree.abi.stub, iree.reflection = {iree.abi.declaration = "sync func @multiple_results(%input0: tensor<2xf32>, %input1: tensor<2xf32>) -> (%output0: tensor<2xf32>, %output1: tensor<2xf32>)"}} {
  %0 = hal.tensor.import %arg0 "input0" : !hal.buffer_view -> tensor<2xf32>
  %1 = iree_tensor_ext.compute_barrier.start %0 : tensor<2xf32> -> tensor<2xf32>
  %2 = hal.tensor.import %arg1 "input1" : !hal.buffer_view -> tensor<2xf32>
  %3 = iree_tensor_ext.compute_barrier.start %2 : tensor<2xf32> -> tensor<2xf32>
  %4 = tensor.empty() : tensor<2xf32>
  %5 = linalg.generic {indexing_maps = [affine_map<(d0) -> (d0)>, affine_map<(d0) -> (d0)>], iterator_types = ["parallel"]} ins(%1 : tensor<2xf32>) outs(%4 : tensor<2xf32>) {
  ^bb0(%in: f32, %out: f32):
    %11 = math.absf %in : f32
    linalg.yield %11 : f32
  } -> tensor<2xf32>
  %6 = iree_tensor_ext.compute_barrier.end %5 : tensor<2xf32> -> tensor<2xf32>
  %7 = linalg.generic {indexing_maps = [affine_map<(d0) -> (d0)>, affine_map<(d0) -> (d0)>], iterator_types = ["parallel"]} ins(%3 : tensor<2xf32>) outs(%4 : tensor<2xf32>) {
  ^bb0(%in: f32, %out: f32):
    %11 = math.absf %in : f32
    linalg.yield %11 : f32
  } -> tensor<2xf32>
  %8 = iree_tensor_ext.compute_barrier.end %7 : tensor<2xf32> -> tensor<2xf32>
  %9 = hal.tensor.export %6 "output0" : tensor<2xf32> -> !hal.buffer_view
  %10 = hal.tensor.export %8 "output1" : tensor<2xf32> -> !hal.buffer_view
  util.return %9, %10 : !hal.buffer_view, !hal.buffer_view
}

// -----// IR Dump After BubbleUpExpandShapesPass (iree-dispatch-creation-bubble-up-expand-shapes) //----- //
util.func public @multiple_results(%arg0: !hal.buffer_view, %arg1: !hal.buffer_view) -> (!hal.buffer_view, !hal.buffer_view) attributes {iree.abi.stub, iree.reflection = {iree.abi.declaration = "sync func @multiple_results(%input0: tensor<2xf32>, %input1: tensor<2xf32>) -> (%output0: tensor<2xf32>, %output1: tensor<2xf32>)"}} {
  %0 = hal.tensor.import %arg0 "input0" : !hal.buffer_view -> tensor<2xf32>
  %1 = iree_tensor_ext.compute_barrier.start %0 : tensor<2xf32> -> tensor<2xf32>
  %2 = hal.tensor.import %arg1 "input1" : !hal.buffer_view -> tensor<2xf32>
  %3 = iree_tensor_ext.compute_barrier.start %2 : tensor<2xf32> -> tensor<2xf32>
  %4 = tensor.empty() : tensor<2xf32>
  %5 = linalg.generic {indexing_maps = [affine_map<(d0) -> (d0)>, affine_map<(d0) -> (d0)>], iterator_types = ["parallel"]} ins(%1 : tensor<2xf32>) outs(%4 : tensor<2xf32>) {
  ^bb0(%in: f32, %out: f32):
    %11 = math.absf %in : f32
    linalg.yield %11 : f32
  } -> tensor<2xf32>
  %6 = iree_tensor_ext.compute_barrier.end %5 : tensor<2xf32> -> tensor<2xf32>
  %7 = linalg.generic {indexing_maps = [affine_map<(d0) -> (d0)>, affine_map<(d0) -> (d0)>], iterator_types = ["parallel"]} ins(%3 : tensor<2xf32>) outs(%4 : tensor<2xf32>) {
  ^bb0(%in: f32, %out: f32):
    %11 = math.absf %in : f32
    linalg.yield %11 : f32
  } -> tensor<2xf32>
  %8 = iree_tensor_ext.compute_barrier.end %7 : tensor<2xf32> -> tensor<2xf32>
  %9 = hal.tensor.export %6 "output0" : tensor<2xf32> -> !hal.buffer_view
  %10 = hal.tensor.export %8 "output1" : tensor<2xf32> -> !hal.buffer_view
  util.return %9, %10 : !hal.buffer_view, !hal.buffer_view
}

// -----// IR Dump After CanonicalizePass (iree-flow-canonicalize) //----- //
util.func public @multiple_results(%arg0: !hal.buffer_view, %arg1: !hal.buffer_view) -> (!hal.buffer_view, !hal.buffer_view) attributes {iree.abi.stub, iree.reflection = {iree.abi.declaration = "sync func @multiple_results(%input0: tensor<2xf32>, %input1: tensor<2xf32>) -> (%output0: tensor<2xf32>, %output1: tensor<2xf32>)"}} {
  %0 = hal.tensor.import %arg0 "input0" : !hal.buffer_view -> tensor<2xf32>
  %1 = iree_tensor_ext.compute_barrier.start %0 : tensor<2xf32> -> tensor<2xf32>
  %2 = hal.tensor.import %arg1 "input1" : !hal.buffer_view -> tensor<2xf32>
  %3 = iree_tensor_ext.compute_barrier.start %2 : tensor<2xf32> -> tensor<2xf32>
  %4 = tensor.empty() : tensor<2xf32>
  %5 = linalg.generic {indexing_maps = [affine_map<(d0) -> (d0)>, affine_map<(d0) -> (d0)>], iterator_types = ["parallel"]} ins(%1 : tensor<2xf32>) outs(%4 : tensor<2xf32>) {
  ^bb0(%in: f32, %out: f32):
    %11 = math.absf %in : f32
    linalg.yield %11 : f32
  } -> tensor<2xf32>
  %6 = iree_tensor_ext.compute_barrier.end %5 : tensor<2xf32> -> tensor<2xf32>
  %7 = linalg.generic {indexing_maps = [affine_map<(d0) -> (d0)>, affine_map<(d0) -> (d0)>], iterator_types = ["parallel"]} ins(%3 : tensor<2xf32>) outs(%4 : tensor<2xf32>) {
  ^bb0(%in: f32, %out: f32):
    %11 = math.absf %in : f32
    linalg.yield %11 : f32
  } -> tensor<2xf32>
  %8 = iree_tensor_ext.compute_barrier.end %7 : tensor<2xf32> -> tensor<2xf32>
  %9 = hal.tensor.export %6 "output0" : tensor<2xf32> -> !hal.buffer_view
  %10 = hal.tensor.export %8 "output1" : tensor<2xf32> -> !hal.buffer_view
  util.return %9, %10 : !hal.buffer_view, !hal.buffer_view
}

// -----// IR Dump After CSE (cse) //----- //
util.func public @multiple_results(%arg0: !hal.buffer_view, %arg1: !hal.buffer_view) -> (!hal.buffer_view, !hal.buffer_view) attributes {iree.abi.stub, iree.reflection = {iree.abi.declaration = "sync func @multiple_results(%input0: tensor<2xf32>, %input1: tensor<2xf32>) -> (%output0: tensor<2xf32>, %output1: tensor<2xf32>)"}} {
  %0 = hal.tensor.import %arg0 "input0" : !hal.buffer_view -> tensor<2xf32>
  %1 = iree_tensor_ext.compute_barrier.start %0 : tensor<2xf32> -> tensor<2xf32>
  %2 = hal.tensor.import %arg1 "input1" : !hal.buffer_view -> tensor<2xf32>
  %3 = iree_tensor_ext.compute_barrier.start %2 : tensor<2xf32> -> tensor<2xf32>
  %4 = tensor.empty() : tensor<2xf32>
  %5 = linalg.generic {indexing_maps = [affine_map<(d0) -> (d0)>, affine_map<(d0) -> (d0)>], iterator_types = ["parallel"]} ins(%1 : tensor<2xf32>) outs(%4 : tensor<2xf32>) {
  ^bb0(%in: f32, %out: f32):
    %11 = math.absf %in : f32
    linalg.yield %11 : f32
  } -> tensor<2xf32>
  %6 = iree_tensor_ext.compute_barrier.end %5 : tensor<2xf32> -> tensor<2xf32>
  %7 = linalg.generic {indexing_maps = [affine_map<(d0) -> (d0)>, affine_map<(d0) -> (d0)>], iterator_types = ["parallel"]} ins(%3 : tensor<2xf32>) outs(%4 : tensor<2xf32>) {
  ^bb0(%in: f32, %out: f32):
    %11 = math.absf %in : f32
    linalg.yield %11 : f32
  } -> tensor<2xf32>
  %8 = iree_tensor_ext.compute_barrier.end %7 : tensor<2xf32> -> tensor<2xf32>
  %9 = hal.tensor.export %6 "output0" : tensor<2xf32> -> !hal.buffer_view
  %10 = hal.tensor.export %8 "output1" : tensor<2xf32> -> !hal.buffer_view
  util.return %9, %10 : !hal.buffer_view, !hal.buffer_view
}

// -----// IR Dump After ElementwiseOpFusionPass (iree-dispatch-creation-elementwise-op-fusion) //----- //
util.func public @multiple_results(%arg0: !hal.buffer_view, %arg1: !hal.buffer_view) -> (!hal.buffer_view, !hal.buffer_view) attributes {iree.abi.stub, iree.reflection = {iree.abi.declaration = "sync func @multiple_results(%input0: tensor<2xf32>, %input1: tensor<2xf32>) -> (%output0: tensor<2xf32>, %output1: tensor<2xf32>)"}} {
  %0 = hal.tensor.import %arg0 "input0" : !hal.buffer_view -> tensor<2xf32>
  %1 = iree_tensor_ext.compute_barrier.start %0 : tensor<2xf32> -> tensor<2xf32>
  %2 = hal.tensor.import %arg1 "input1" : !hal.buffer_view -> tensor<2xf32>
  %3 = iree_tensor_ext.compute_barrier.start %2 : tensor<2xf32> -> tensor<2xf32>
  %4 = tensor.empty() : tensor<2xf32>
  %5 = linalg.generic {indexing_maps = [affine_map<(d0) -> (d0)>, affine_map<(d0) -> (d0)>], iterator_types = ["parallel"]} ins(%1 : tensor<2xf32>) outs(%4 : tensor<2xf32>) {
  ^bb0(%in: f32, %out: f32):
    %11 = math.absf %in : f32
    linalg.yield %11 : f32
  } -> tensor<2xf32>
  %6 = iree_tensor_ext.compute_barrier.end %5 : tensor<2xf32> -> tensor<2xf32>
  %7 = linalg.generic {indexing_maps = [affine_map<(d0) -> (d0)>, affine_map<(d0) -> (d0)>], iterator_types = ["parallel"]} ins(%3 : tensor<2xf32>) outs(%4 : tensor<2xf32>) {
  ^bb0(%in: f32, %out: f32):
    %11 = math.absf %in : f32
    linalg.yield %11 : f32
  } -> tensor<2xf32>
  %8 = iree_tensor_ext.compute_barrier.end %7 : tensor<2xf32> -> tensor<2xf32>
  %9 = hal.tensor.export %6 "output0" : tensor<2xf32> -> !hal.buffer_view
  %10 = hal.tensor.export %8 "output1" : tensor<2xf32> -> !hal.buffer_view
  util.return %9, %10 : !hal.buffer_view, !hal.buffer_view
}

// -----// IR Dump After CanonicalizePass (iree-flow-canonicalize) //----- //
util.func public @multiple_results(%arg0: !hal.buffer_view, %arg1: !hal.buffer_view) -> (!hal.buffer_view, !hal.buffer_view) attributes {iree.abi.stub, iree.reflection = {iree.abi.declaration = "sync func @multiple_results(%input0: tensor<2xf32>, %input1: tensor<2xf32>) -> (%output0: tensor<2xf32>, %output1: tensor<2xf32>)"}} {
  %0 = hal.tensor.import %arg0 "input0" : !hal.buffer_view -> tensor<2xf32>
  %1 = iree_tensor_ext.compute_barrier.start %0 : tensor<2xf32> -> tensor<2xf32>
  %2 = hal.tensor.import %arg1 "input1" : !hal.buffer_view -> tensor<2xf32>
  %3 = iree_tensor_ext.compute_barrier.start %2 : tensor<2xf32> -> tensor<2xf32>
  %4 = tensor.empty() : tensor<2xf32>
  %5 = linalg.generic {indexing_maps = [affine_map<(d0) -> (d0)>, affine_map<(d0) -> (d0)>], iterator_types = ["parallel"]} ins(%1 : tensor<2xf32>) outs(%4 : tensor<2xf32>) {
  ^bb0(%in: f32, %out: f32):
    %11 = math.absf %in : f32
    linalg.yield %11 : f32
  } -> tensor<2xf32>
  %6 = iree_tensor_ext.compute_barrier.end %5 : tensor<2xf32> -> tensor<2xf32>
  %7 = linalg.generic {indexing_maps = [affine_map<(d0) -> (d0)>, affine_map<(d0) -> (d0)>], iterator_types = ["parallel"]} ins(%3 : tensor<2xf32>) outs(%4 : tensor<2xf32>) {
  ^bb0(%in: f32, %out: f32):
    %11 = math.absf %in : f32
    linalg.yield %11 : f32
  } -> tensor<2xf32>
  %8 = iree_tensor_ext.compute_barrier.end %7 : tensor<2xf32> -> tensor<2xf32>
  %9 = hal.tensor.export %6 "output0" : tensor<2xf32> -> !hal.buffer_view
  %10 = hal.tensor.export %8 "output1" : tensor<2xf32> -> !hal.buffer_view
  util.return %9, %10 : !hal.buffer_view, !hal.buffer_view
}

// -----// IR Dump After CSE (cse) //----- //
util.func public @multiple_results(%arg0: !hal.buffer_view, %arg1: !hal.buffer_view) -> (!hal.buffer_view, !hal.buffer_view) attributes {iree.abi.stub, iree.reflection = {iree.abi.declaration = "sync func @multiple_results(%input0: tensor<2xf32>, %input1: tensor<2xf32>) -> (%output0: tensor<2xf32>, %output1: tensor<2xf32>)"}} {
  %0 = hal.tensor.import %arg0 "input0" : !hal.buffer_view -> tensor<2xf32>
  %1 = iree_tensor_ext.compute_barrier.start %0 : tensor<2xf32> -> tensor<2xf32>
  %2 = hal.tensor.import %arg1 "input1" : !hal.buffer_view -> tensor<2xf32>
  %3 = iree_tensor_ext.compute_barrier.start %2 : tensor<2xf32> -> tensor<2xf32>
  %4 = tensor.empty() : tensor<2xf32>
  %5 = linalg.generic {indexing_maps = [affine_map<(d0) -> (d0)>, affine_map<(d0) -> (d0)>], iterator_types = ["parallel"]} ins(%1 : tensor<2xf32>) outs(%4 : tensor<2xf32>) {
  ^bb0(%in: f32, %out: f32):
    %11 = math.absf %in : f32
    linalg.yield %11 : f32
  } -> tensor<2xf32>
  %6 = iree_tensor_ext.compute_barrier.end %5 : tensor<2xf32> -> tensor<2xf32>
  %7 = linalg.generic {indexing_maps = [affine_map<(d0) -> (d0)>, affine_map<(d0) -> (d0)>], iterator_types = ["parallel"]} ins(%3 : tensor<2xf32>) outs(%4 : tensor<2xf32>) {
  ^bb0(%in: f32, %out: f32):
    %11 = math.absf %in : f32
    linalg.yield %11 : f32
  } -> tensor<2xf32>
  %8 = iree_tensor_ext.compute_barrier.end %7 : tensor<2xf32> -> tensor<2xf32>
  %9 = hal.tensor.export %6 "output0" : tensor<2xf32> -> !hal.buffer_view
  %10 = hal.tensor.export %8 "output1" : tensor<2xf32> -> !hal.buffer_view
  util.return %9, %10 : !hal.buffer_view, !hal.buffer_view
}

// -----// IR Dump After SinkReshapesPass (iree-dispatch-creation-sink-reshapes) //----- //
util.func public @multiple_results(%arg0: !hal.buffer_view, %arg1: !hal.buffer_view) -> (!hal.buffer_view, !hal.buffer_view) attributes {iree.abi.stub, iree.reflection = {iree.abi.declaration = "sync func @multiple_results(%input0: tensor<2xf32>, %input1: tensor<2xf32>) -> (%output0: tensor<2xf32>, %output1: tensor<2xf32>)"}} {
  %0 = hal.tensor.import %arg0 "input0" : !hal.buffer_view -> tensor<2xf32>
  %1 = iree_tensor_ext.compute_barrier.start %0 : tensor<2xf32> -> tensor<2xf32>
  %2 = hal.tensor.import %arg1 "input1" : !hal.buffer_view -> tensor<2xf32>
  %3 = iree_tensor_ext.compute_barrier.start %2 : tensor<2xf32> -> tensor<2xf32>
  %4 = tensor.empty() : tensor<2xf32>
  %5 = linalg.generic {indexing_maps = [affine_map<(d0) -> (d0)>, affine_map<(d0) -> (d0)>], iterator_types = ["parallel"]} ins(%1 : tensor<2xf32>) outs(%4 : tensor<2xf32>) {
  ^bb0(%in: f32, %out: f32):
    %11 = math.absf %in : f32
    linalg.yield %11 : f32
  } -> tensor<2xf32>
  %6 = iree_tensor_ext.compute_barrier.end %5 : tensor<2xf32> -> tensor<2xf32>
  %7 = linalg.generic {indexing_maps = [affine_map<(d0) -> (d0)>, affine_map<(d0) -> (d0)>], iterator_types = ["parallel"]} ins(%3 : tensor<2xf32>) outs(%4 : tensor<2xf32>) {
  ^bb0(%in: f32, %out: f32):
    %11 = math.absf %in : f32
    linalg.yield %11 : f32
  } -> tensor<2xf32>
  %8 = iree_tensor_ext.compute_barrier.end %7 : tensor<2xf32> -> tensor<2xf32>
  %9 = hal.tensor.export %6 "output0" : tensor<2xf32> -> !hal.buffer_view
  %10 = hal.tensor.export %8 "output1" : tensor<2xf32> -> !hal.buffer_view
  util.return %9, %10 : !hal.buffer_view, !hal.buffer_view
}

// -----// IR Dump After CanonicalizePass (iree-flow-canonicalize) //----- //
util.func public @multiple_results(%arg0: !hal.buffer_view, %arg1: !hal.buffer_view) -> (!hal.buffer_view, !hal.buffer_view) attributes {iree.abi.stub, iree.reflection = {iree.abi.declaration = "sync func @multiple_results(%input0: tensor<2xf32>, %input1: tensor<2xf32>) -> (%output0: tensor<2xf32>, %output1: tensor<2xf32>)"}} {
  %0 = hal.tensor.import %arg0 "input0" : !hal.buffer_view -> tensor<2xf32>
  %1 = iree_tensor_ext.compute_barrier.start %0 : tensor<2xf32> -> tensor<2xf32>
  %2 = hal.tensor.import %arg1 "input1" : !hal.buffer_view -> tensor<2xf32>
  %3 = iree_tensor_ext.compute_barrier.start %2 : tensor<2xf32> -> tensor<2xf32>
  %4 = tensor.empty() : tensor<2xf32>
  %5 = linalg.generic {indexing_maps = [affine_map<(d0) -> (d0)>, affine_map<(d0) -> (d0)>], iterator_types = ["parallel"]} ins(%1 : tensor<2xf32>) outs(%4 : tensor<2xf32>) {
  ^bb0(%in: f32, %out: f32):
    %11 = math.absf %in : f32
    linalg.yield %11 : f32
  } -> tensor<2xf32>
  %6 = iree_tensor_ext.compute_barrier.end %5 : tensor<2xf32> -> tensor<2xf32>
  %7 = linalg.generic {indexing_maps = [affine_map<(d0) -> (d0)>, affine_map<(d0) -> (d0)>], iterator_types = ["parallel"]} ins(%3 : tensor<2xf32>) outs(%4 : tensor<2xf32>) {
  ^bb0(%in: f32, %out: f32):
    %11 = math.absf %in : f32
    linalg.yield %11 : f32
  } -> tensor<2xf32>
  %8 = iree_tensor_ext.compute_barrier.end %7 : tensor<2xf32> -> tensor<2xf32>
  %9 = hal.tensor.export %6 "output0" : tensor<2xf32> -> !hal.buffer_view
  %10 = hal.tensor.export %8 "output1" : tensor<2xf32> -> !hal.buffer_view
  util.return %9, %10 : !hal.buffer_view, !hal.buffer_view
}

// -----// IR Dump After CSE (cse) //----- //
util.func public @multiple_results(%arg0: !hal.buffer_view, %arg1: !hal.buffer_view) -> (!hal.buffer_view, !hal.buffer_view) attributes {iree.abi.stub, iree.reflection = {iree.abi.declaration = "sync func @multiple_results(%input0: tensor<2xf32>, %input1: tensor<2xf32>) -> (%output0: tensor<2xf32>, %output1: tensor<2xf32>)"}} {
  %0 = hal.tensor.import %arg0 "input0" : !hal.buffer_view -> tensor<2xf32>
  %1 = iree_tensor_ext.compute_barrier.start %0 : tensor<2xf32> -> tensor<2xf32>
  %2 = hal.tensor.import %arg1 "input1" : !hal.buffer_view -> tensor<2xf32>
  %3 = iree_tensor_ext.compute_barrier.start %2 : tensor<2xf32> -> tensor<2xf32>
  %4 = tensor.empty() : tensor<2xf32>
  %5 = linalg.generic {indexing_maps = [affine_map<(d0) -> (d0)>, affine_map<(d0) -> (d0)>], iterator_types = ["parallel"]} ins(%1 : tensor<2xf32>) outs(%4 : tensor<2xf32>) {
  ^bb0(%in: f32, %out: f32):
    %11 = math.absf %in : f32
    linalg.yield %11 : f32
  } -> tensor<2xf32>
  %6 = iree_tensor_ext.compute_barrier.end %5 : tensor<2xf32> -> tensor<2xf32>
  %7 = linalg.generic {indexing_maps = [affine_map<(d0) -> (d0)>, affine_map<(d0) -> (d0)>], iterator_types = ["parallel"]} ins(%3 : tensor<2xf32>) outs(%4 : tensor<2xf32>) {
  ^bb0(%in: f32, %out: f32):
    %11 = math.absf %in : f32
    linalg.yield %11 : f32
  } -> tensor<2xf32>
  %8 = iree_tensor_ext.compute_barrier.end %7 : tensor<2xf32> -> tensor<2xf32>
  %9 = hal.tensor.export %6 "output0" : tensor<2xf32> -> !hal.buffer_view
  %10 = hal.tensor.export %8 "output1" : tensor<2xf32> -> !hal.buffer_view
  util.return %9, %10 : !hal.buffer_view, !hal.buffer_view
}

// -----// IR Dump After FuseMultiUseElementwiseProducerPass (iree-dispatch-creation-fuse-multi-use-elementwise-producer) //----- //
util.func public @multiple_results(%arg0: !hal.buffer_view, %arg1: !hal.buffer_view) -> (!hal.buffer_view, !hal.buffer_view) attributes {iree.abi.stub, iree.reflection = {iree.abi.declaration = "sync func @multiple_results(%input0: tensor<2xf32>, %input1: tensor<2xf32>) -> (%output0: tensor<2xf32>, %output1: tensor<2xf32>)"}} {
  %0 = hal.tensor.import %arg0 "input0" : !hal.buffer_view -> tensor<2xf32>
  %1 = iree_tensor_ext.compute_barrier.start %0 : tensor<2xf32> -> tensor<2xf32>
  %2 = hal.tensor.import %arg1 "input1" : !hal.buffer_view -> tensor<2xf32>
  %3 = iree_tensor_ext.compute_barrier.start %2 : tensor<2xf32> -> tensor<2xf32>
  %4 = tensor.empty() : tensor<2xf32>
  %5 = linalg.generic {indexing_maps = [affine_map<(d0) -> (d0)>, affine_map<(d0) -> (d0)>], iterator_types = ["parallel"]} ins(%1 : tensor<2xf32>) outs(%4 : tensor<2xf32>) {
  ^bb0(%in: f32, %out: f32):
    %11 = math.absf %in : f32
    linalg.yield %11 : f32
  } -> tensor<2xf32>
  %6 = iree_tensor_ext.compute_barrier.end %5 : tensor<2xf32> -> tensor<2xf32>
  %7 = linalg.generic {indexing_maps = [affine_map<(d0) -> (d0)>, affine_map<(d0) -> (d0)>], iterator_types = ["parallel"]} ins(%3 : tensor<2xf32>) outs(%4 : tensor<2xf32>) {
  ^bb0(%in: f32, %out: f32):
    %11 = math.absf %in : f32
    linalg.yield %11 : f32
  } -> tensor<2xf32>
  %8 = iree_tensor_ext.compute_barrier.end %7 : tensor<2xf32> -> tensor<2xf32>
  %9 = hal.tensor.export %6 "output0" : tensor<2xf32> -> !hal.buffer_view
  %10 = hal.tensor.export %8 "output1" : tensor<2xf32> -> !hal.buffer_view
  util.return %9, %10 : !hal.buffer_view, !hal.buffer_view
}

// -----// IR Dump After CanonicalizePass (iree-flow-canonicalize) //----- //
util.func public @multiple_results(%arg0: !hal.buffer_view, %arg1: !hal.buffer_view) -> (!hal.buffer_view, !hal.buffer_view) attributes {iree.abi.stub, iree.reflection = {iree.abi.declaration = "sync func @multiple_results(%input0: tensor<2xf32>, %input1: tensor<2xf32>) -> (%output0: tensor<2xf32>, %output1: tensor<2xf32>)"}} {
  %0 = hal.tensor.import %arg0 "input0" : !hal.buffer_view -> tensor<2xf32>
  %1 = iree_tensor_ext.compute_barrier.start %0 : tensor<2xf32> -> tensor<2xf32>
  %2 = hal.tensor.import %arg1 "input1" : !hal.buffer_view -> tensor<2xf32>
  %3 = iree_tensor_ext.compute_barrier.start %2 : tensor<2xf32> -> tensor<2xf32>
  %4 = tensor.empty() : tensor<2xf32>
  %5 = linalg.generic {indexing_maps = [affine_map<(d0) -> (d0)>, affine_map<(d0) -> (d0)>], iterator_types = ["parallel"]} ins(%1 : tensor<2xf32>) outs(%4 : tensor<2xf32>) {
  ^bb0(%in: f32, %out: f32):
    %11 = math.absf %in : f32
    linalg.yield %11 : f32
  } -> tensor<2xf32>
  %6 = iree_tensor_ext.compute_barrier.end %5 : tensor<2xf32> -> tensor<2xf32>
  %7 = linalg.generic {indexing_maps = [affine_map<(d0) -> (d0)>, affine_map<(d0) -> (d0)>], iterator_types = ["parallel"]} ins(%3 : tensor<2xf32>) outs(%4 : tensor<2xf32>) {
  ^bb0(%in: f32, %out: f32):
    %11 = math.absf %in : f32
    linalg.yield %11 : f32
  } -> tensor<2xf32>
  %8 = iree_tensor_ext.compute_barrier.end %7 : tensor<2xf32> -> tensor<2xf32>
  %9 = hal.tensor.export %6 "output0" : tensor<2xf32> -> !hal.buffer_view
  %10 = hal.tensor.export %8 "output1" : tensor<2xf32> -> !hal.buffer_view
  util.return %9, %10 : !hal.buffer_view, !hal.buffer_view
}

// -----// IR Dump After CSE (cse) //----- //
util.func public @multiple_results(%arg0: !hal.buffer_view, %arg1: !hal.buffer_view) -> (!hal.buffer_view, !hal.buffer_view) attributes {iree.abi.stub, iree.reflection = {iree.abi.declaration = "sync func @multiple_results(%input0: tensor<2xf32>, %input1: tensor<2xf32>) -> (%output0: tensor<2xf32>, %output1: tensor<2xf32>)"}} {
  %0 = hal.tensor.import %arg0 "input0" : !hal.buffer_view -> tensor<2xf32>
  %1 = iree_tensor_ext.compute_barrier.start %0 : tensor<2xf32> -> tensor<2xf32>
  %2 = hal.tensor.import %arg1 "input1" : !hal.buffer_view -> tensor<2xf32>
  %3 = iree_tensor_ext.compute_barrier.start %2 : tensor<2xf32> -> tensor<2xf32>
  %4 = tensor.empty() : tensor<2xf32>
  %5 = linalg.generic {indexing_maps = [affine_map<(d0) -> (d0)>, affine_map<(d0) -> (d0)>], iterator_types = ["parallel"]} ins(%1 : tensor<2xf32>) outs(%4 : tensor<2xf32>) {
  ^bb0(%in: f32, %out: f32):
    %11 = math.absf %in : f32
    linalg.yield %11 : f32
  } -> tensor<2xf32>
  %6 = iree_tensor_ext.compute_barrier.end %5 : tensor<2xf32> -> tensor<2xf32>
  %7 = linalg.generic {indexing_maps = [affine_map<(d0) -> (d0)>, affine_map<(d0) -> (d0)>], iterator_types = ["parallel"]} ins(%3 : tensor<2xf32>) outs(%4 : tensor<2xf32>) {
  ^bb0(%in: f32, %out: f32):
    %11 = math.absf %in : f32
    linalg.yield %11 : f32
  } -> tensor<2xf32>
  %8 = iree_tensor_ext.compute_barrier.end %7 : tensor<2xf32> -> tensor<2xf32>
  %9 = hal.tensor.export %6 "output0" : tensor<2xf32> -> !hal.buffer_view
  %10 = hal.tensor.export %8 "output1" : tensor<2xf32> -> !hal.buffer_view
  util.return %9, %10 : !hal.buffer_view, !hal.buffer_view
}

// -----// IR Dump After SplitReductionPass (iree-dispatch-creation-split-reduction-ops) //----- //
util.func public @multiple_results(%arg0: !hal.buffer_view, %arg1: !hal.buffer_view) -> (!hal.buffer_view, !hal.buffer_view) attributes {iree.abi.stub, iree.reflection = {iree.abi.declaration = "sync func @multiple_results(%input0: tensor<2xf32>, %input1: tensor<2xf32>) -> (%output0: tensor<2xf32>, %output1: tensor<2xf32>)"}} {
  %0 = hal.tensor.import %arg0 "input0" : !hal.buffer_view -> tensor<2xf32>
  %1 = iree_tensor_ext.compute_barrier.start %0 : tensor<2xf32> -> tensor<2xf32>
  %2 = hal.tensor.import %arg1 "input1" : !hal.buffer_view -> tensor<2xf32>
  %3 = iree_tensor_ext.compute_barrier.start %2 : tensor<2xf32> -> tensor<2xf32>
  %4 = tensor.empty() : tensor<2xf32>
  %5 = linalg.generic {indexing_maps = [affine_map<(d0) -> (d0)>, affine_map<(d0) -> (d0)>], iterator_types = ["parallel"]} ins(%1 : tensor<2xf32>) outs(%4 : tensor<2xf32>) {
  ^bb0(%in: f32, %out: f32):
    %11 = math.absf %in : f32
    linalg.yield %11 : f32
  } -> tensor<2xf32>
  %6 = iree_tensor_ext.compute_barrier.end %5 : tensor<2xf32> -> tensor<2xf32>
  %7 = linalg.generic {indexing_maps = [affine_map<(d0) -> (d0)>, affine_map<(d0) -> (d0)>], iterator_types = ["parallel"]} ins(%3 : tensor<2xf32>) outs(%4 : tensor<2xf32>) {
  ^bb0(%in: f32, %out: f32):
    %11 = math.absf %in : f32
    linalg.yield %11 : f32
  } -> tensor<2xf32>
  %8 = iree_tensor_ext.compute_barrier.end %7 : tensor<2xf32> -> tensor<2xf32>
  %9 = hal.tensor.export %6 "output0" : tensor<2xf32> -> !hal.buffer_view
  %10 = hal.tensor.export %8 "output1" : tensor<2xf32> -> !hal.buffer_view
  util.return %9, %10 : !hal.buffer_view, !hal.buffer_view
}

// -----// IR Dump After FormSplitReductionDispatchesPass (iree-dispatch-creation-form-split-reduction-dispatches) //----- //
util.func public @multiple_results(%arg0: !hal.buffer_view, %arg1: !hal.buffer_view) -> (!hal.buffer_view, !hal.buffer_view) attributes {iree.abi.stub, iree.reflection = {iree.abi.declaration = "sync func @multiple_results(%input0: tensor<2xf32>, %input1: tensor<2xf32>) -> (%output0: tensor<2xf32>, %output1: tensor<2xf32>)"}} {
  %0 = hal.tensor.import %arg0 "input0" : !hal.buffer_view -> tensor<2xf32>
  %1 = iree_tensor_ext.compute_barrier.start %0 : tensor<2xf32> -> tensor<2xf32>
  %2 = hal.tensor.import %arg1 "input1" : !hal.buffer_view -> tensor<2xf32>
  %3 = iree_tensor_ext.compute_barrier.start %2 : tensor<2xf32> -> tensor<2xf32>
  %4 = tensor.empty() : tensor<2xf32>
  %5 = linalg.generic {indexing_maps = [affine_map<(d0) -> (d0)>, affine_map<(d0) -> (d0)>], iterator_types = ["parallel"]} ins(%1 : tensor<2xf32>) outs(%4 : tensor<2xf32>) {
  ^bb0(%in: f32, %out: f32):
    %11 = math.absf %in : f32
    linalg.yield %11 : f32
  } -> tensor<2xf32>
  %6 = iree_tensor_ext.compute_barrier.end %5 : tensor<2xf32> -> tensor<2xf32>
  %7 = linalg.generic {indexing_maps = [affine_map<(d0) -> (d0)>, affine_map<(d0) -> (d0)>], iterator_types = ["parallel"]} ins(%3 : tensor<2xf32>) outs(%4 : tensor<2xf32>) {
  ^bb0(%in: f32, %out: f32):
    %11 = math.absf %in : f32
    linalg.yield %11 : f32
  } -> tensor<2xf32>
  %8 = iree_tensor_ext.compute_barrier.end %7 : tensor<2xf32> -> tensor<2xf32>
  %9 = hal.tensor.export %6 "output0" : tensor<2xf32> -> !hal.buffer_view
  %10 = hal.tensor.export %8 "output1" : tensor<2xf32> -> !hal.buffer_view
  util.return %9, %10 : !hal.buffer_view, !hal.buffer_view
}

// -----// IR Dump After TransposeGenericOpsPass (iree-dispatch-creation-transpose-generic-ops) //----- //
util.func public @multiple_results(%arg0: !hal.buffer_view, %arg1: !hal.buffer_view) -> (!hal.buffer_view, !hal.buffer_view) attributes {iree.abi.stub, iree.reflection = {iree.abi.declaration = "sync func @multiple_results(%input0: tensor<2xf32>, %input1: tensor<2xf32>) -> (%output0: tensor<2xf32>, %output1: tensor<2xf32>)"}} {
  %0 = hal.tensor.import %arg0 "input0" : !hal.buffer_view -> tensor<2xf32>
  %1 = iree_tensor_ext.compute_barrier.start %0 : tensor<2xf32> -> tensor<2xf32>
  %2 = hal.tensor.import %arg1 "input1" : !hal.buffer_view -> tensor<2xf32>
  %3 = iree_tensor_ext.compute_barrier.start %2 : tensor<2xf32> -> tensor<2xf32>
  %4 = tensor.empty() : tensor<2xf32>
  %5 = linalg.generic {indexing_maps = [affine_map<(d0) -> (d0)>, affine_map<(d0) -> (d0)>], iterator_types = ["parallel"]} ins(%1 : tensor<2xf32>) outs(%4 : tensor<2xf32>) {
  ^bb0(%in: f32, %out: f32):
    %11 = math.absf %in : f32
    linalg.yield %11 : f32
  } -> tensor<2xf32>
  %6 = iree_tensor_ext.compute_barrier.end %5 : tensor<2xf32> -> tensor<2xf32>
  %7 = linalg.generic {indexing_maps = [affine_map<(d0) -> (d0)>, affine_map<(d0) -> (d0)>], iterator_types = ["parallel"]} ins(%3 : tensor<2xf32>) outs(%4 : tensor<2xf32>) {
  ^bb0(%in: f32, %out: f32):
    %11 = math.absf %in : f32
    linalg.yield %11 : f32
  } -> tensor<2xf32>
  %8 = iree_tensor_ext.compute_barrier.end %7 : tensor<2xf32> -> tensor<2xf32>
  %9 = hal.tensor.export %6 "output0" : tensor<2xf32> -> !hal.buffer_view
  %10 = hal.tensor.export %8 "output1" : tensor<2xf32> -> !hal.buffer_view
  util.return %9, %10 : !hal.buffer_view, !hal.buffer_view
}

// -----// IR Dump After PropagateEncodingsPass (iree-dispatch-creation-propagate-encodings) //----- //
util.func public @multiple_results(%arg0: !hal.buffer_view, %arg1: !hal.buffer_view) -> (!hal.buffer_view, !hal.buffer_view) attributes {iree.abi.stub, iree.reflection = {iree.abi.declaration = "sync func @multiple_results(%input0: tensor<2xf32>, %input1: tensor<2xf32>) -> (%output0: tensor<2xf32>, %output1: tensor<2xf32>)"}} {
  %0 = hal.tensor.import %arg0 "input0" : !hal.buffer_view -> tensor<2xf32>
  %1 = iree_tensor_ext.compute_barrier.start %0 : tensor<2xf32> -> tensor<2xf32>
  %2 = hal.tensor.import %arg1 "input1" : !hal.buffer_view -> tensor<2xf32>
  %3 = iree_tensor_ext.compute_barrier.start %2 : tensor<2xf32> -> tensor<2xf32>
  %4 = tensor.empty() : tensor<2xf32>
  %5 = linalg.generic {indexing_maps = [affine_map<(d0) -> (d0)>, affine_map<(d0) -> (d0)>], iterator_types = ["parallel"]} ins(%1 : tensor<2xf32>) outs(%4 : tensor<2xf32>) {
  ^bb0(%in: f32, %out: f32):
    %11 = math.absf %in : f32
    linalg.yield %11 : f32
  } -> tensor<2xf32>
  %6 = iree_tensor_ext.compute_barrier.end %5 : tensor<2xf32> -> tensor<2xf32>
  %7 = linalg.generic {indexing_maps = [affine_map<(d0) -> (d0)>, affine_map<(d0) -> (d0)>], iterator_types = ["parallel"]} ins(%3 : tensor<2xf32>) outs(%4 : tensor<2xf32>) {
  ^bb0(%in: f32, %out: f32):
    %11 = math.absf %in : f32
    linalg.yield %11 : f32
  } -> tensor<2xf32>
  %8 = iree_tensor_ext.compute_barrier.end %7 : tensor<2xf32> -> tensor<2xf32>
  %9 = hal.tensor.export %6 "output0" : tensor<2xf32> -> !hal.buffer_view
  %10 = hal.tensor.export %8 "output1" : tensor<2xf32> -> !hal.buffer_view
  util.return %9, %10 : !hal.buffer_view, !hal.buffer_view
}

// -----// IR Dump After HoistIntoGlobalsPass (iree-util-hoist-into-globals) //----- //
#executable_target_embedded_elf_arm_64 = #hal.executable.target<"llvm-cpu", "embedded-elf-arm_64", {cpu = "", cpu_features = "+reserve-x18", data_layout = "e-m:e-p270:32:32-p271:32:32-p272:64:64-i8:8:32-i16:16:32-i64:64-i128:128-n32:64-S128-Fn32", iree.encoding.resolver = #iree_cpu.cpu_encoding_resolver<>, max_stack_allocation_size = 32768 : i64, native_vector_size = 16 : i64, target_triple = "arm64-unknown-unknown-eabi-elf"}>
#map = affine_map<(d0) -> (d0)>
#device_target_local = #hal.device.target<"local", [#executable_target_embedded_elf_arm_64]> : !hal.device
module attributes {stream.affinity.default = #hal.device.affinity<@__device_0>} {
  util.global private @__device_0 = #device_target_local
  util.func public @multiple_results(%arg0: !hal.buffer_view, %arg1: !hal.buffer_view) -> (!hal.buffer_view, !hal.buffer_view) attributes {iree.abi.stub, iree.reflection = {iree.abi.declaration = "sync func @multiple_results(%input0: tensor<2xf32>, %input1: tensor<2xf32>) -> (%output0: tensor<2xf32>, %output1: tensor<2xf32>)"}} {
    %0 = hal.tensor.import %arg0 "input0" : !hal.buffer_view -> tensor<2xf32>
    %1 = iree_tensor_ext.compute_barrier.start %0 : tensor<2xf32> -> tensor<2xf32>
    %2 = hal.tensor.import %arg1 "input1" : !hal.buffer_view -> tensor<2xf32>
    %3 = iree_tensor_ext.compute_barrier.start %2 : tensor<2xf32> -> tensor<2xf32>
    %4 = tensor.empty() : tensor<2xf32>
    %5 = linalg.generic {indexing_maps = [#map, #map], iterator_types = ["parallel"]} ins(%1 : tensor<2xf32>) outs(%4 : tensor<2xf32>) {
    ^bb0(%in: f32, %out: f32):
      %11 = math.absf %in : f32
      linalg.yield %11 : f32
    } -> tensor<2xf32>
    %6 = iree_tensor_ext.compute_barrier.end %5 : tensor<2xf32> -> tensor<2xf32>
    %7 = linalg.generic {indexing_maps = [#map, #map], iterator_types = ["parallel"]} ins(%3 : tensor<2xf32>) outs(%4 : tensor<2xf32>) {
    ^bb0(%in: f32, %out: f32):
      %11 = math.absf %in : f32
      linalg.yield %11 : f32
    } -> tensor<2xf32>
    %8 = iree_tensor_ext.compute_barrier.end %7 : tensor<2xf32> -> tensor<2xf32>
    %9 = hal.tensor.export %6 "output0" : tensor<2xf32> -> !hal.buffer_view
    %10 = hal.tensor.export %8 "output1" : tensor<2xf32> -> !hal.buffer_view
    util.return %9, %10 : !hal.buffer_view, !hal.buffer_view
  }
}


// -----// IR Dump After CanonicalizePass (iree-flow-canonicalize) //----- //
util.func public @multiple_results(%arg0: !hal.buffer_view, %arg1: !hal.buffer_view) -> (!hal.buffer_view, !hal.buffer_view) attributes {iree.abi.stub, iree.reflection = {iree.abi.declaration = "sync func @multiple_results(%input0: tensor<2xf32>, %input1: tensor<2xf32>) -> (%output0: tensor<2xf32>, %output1: tensor<2xf32>)"}} {
  %0 = hal.tensor.import %arg0 "input0" : !hal.buffer_view -> tensor<2xf32>
  %1 = iree_tensor_ext.compute_barrier.start %0 : tensor<2xf32> -> tensor<2xf32>
  %2 = hal.tensor.import %arg1 "input1" : !hal.buffer_view -> tensor<2xf32>
  %3 = iree_tensor_ext.compute_barrier.start %2 : tensor<2xf32> -> tensor<2xf32>
  %4 = tensor.empty() : tensor<2xf32>
  %5 = linalg.generic {indexing_maps = [affine_map<(d0) -> (d0)>, affine_map<(d0) -> (d0)>], iterator_types = ["parallel"]} ins(%1 : tensor<2xf32>) outs(%4 : tensor<2xf32>) {
  ^bb0(%in: f32, %out: f32):
    %11 = math.absf %in : f32
    linalg.yield %11 : f32
  } -> tensor<2xf32>
  %6 = iree_tensor_ext.compute_barrier.end %5 : tensor<2xf32> -> tensor<2xf32>
  %7 = linalg.generic {indexing_maps = [affine_map<(d0) -> (d0)>, affine_map<(d0) -> (d0)>], iterator_types = ["parallel"]} ins(%3 : tensor<2xf32>) outs(%4 : tensor<2xf32>) {
  ^bb0(%in: f32, %out: f32):
    %11 = math.absf %in : f32
    linalg.yield %11 : f32
  } -> tensor<2xf32>
  %8 = iree_tensor_ext.compute_barrier.end %7 : tensor<2xf32> -> tensor<2xf32>
  %9 = hal.tensor.export %6 "output0" : tensor<2xf32> -> !hal.buffer_view
  %10 = hal.tensor.export %8 "output1" : tensor<2xf32> -> !hal.buffer_view
  util.return %9, %10 : !hal.buffer_view, !hal.buffer_view
}

// -----// IR Dump After CSE (cse) //----- //
util.func public @multiple_results(%arg0: !hal.buffer_view, %arg1: !hal.buffer_view) -> (!hal.buffer_view, !hal.buffer_view) attributes {iree.abi.stub, iree.reflection = {iree.abi.declaration = "sync func @multiple_results(%input0: tensor<2xf32>, %input1: tensor<2xf32>) -> (%output0: tensor<2xf32>, %output1: tensor<2xf32>)"}} {
  %0 = hal.tensor.import %arg0 "input0" : !hal.buffer_view -> tensor<2xf32>
  %1 = iree_tensor_ext.compute_barrier.start %0 : tensor<2xf32> -> tensor<2xf32>
  %2 = hal.tensor.import %arg1 "input1" : !hal.buffer_view -> tensor<2xf32>
  %3 = iree_tensor_ext.compute_barrier.start %2 : tensor<2xf32> -> tensor<2xf32>
  %4 = tensor.empty() : tensor<2xf32>
  %5 = linalg.generic {indexing_maps = [affine_map<(d0) -> (d0)>, affine_map<(d0) -> (d0)>], iterator_types = ["parallel"]} ins(%1 : tensor<2xf32>) outs(%4 : tensor<2xf32>) {
  ^bb0(%in: f32, %out: f32):
    %11 = math.absf %in : f32
    linalg.yield %11 : f32
  } -> tensor<2xf32>
  %6 = iree_tensor_ext.compute_barrier.end %5 : tensor<2xf32> -> tensor<2xf32>
  %7 = linalg.generic {indexing_maps = [affine_map<(d0) -> (d0)>, affine_map<(d0) -> (d0)>], iterator_types = ["parallel"]} ins(%3 : tensor<2xf32>) outs(%4 : tensor<2xf32>) {
  ^bb0(%in: f32, %out: f32):
    %11 = math.absf %in : f32
    linalg.yield %11 : f32
  } -> tensor<2xf32>
  %8 = iree_tensor_ext.compute_barrier.end %7 : tensor<2xf32> -> tensor<2xf32>
  %9 = hal.tensor.export %6 "output0" : tensor<2xf32> -> !hal.buffer_view
  %10 = hal.tensor.export %8 "output1" : tensor<2xf32> -> !hal.buffer_view
  util.return %9, %10 : !hal.buffer_view, !hal.buffer_view
}

// -----// IR Dump After FormScalarDispatchesPass (iree-dispatch-creation-form-scalar-dispatches) //----- //
util.func public @multiple_results(%arg0: !hal.buffer_view, %arg1: !hal.buffer_view) -> (!hal.buffer_view, !hal.buffer_view) attributes {iree.abi.stub, iree.reflection = {iree.abi.declaration = "sync func @multiple_results(%input0: tensor<2xf32>, %input1: tensor<2xf32>) -> (%output0: tensor<2xf32>, %output1: tensor<2xf32>)"}} {
  %0 = hal.tensor.import %arg0 "input0" : !hal.buffer_view -> tensor<2xf32>
  %1 = iree_tensor_ext.compute_barrier.start %0 : tensor<2xf32> -> tensor<2xf32>
  %2 = hal.tensor.import %arg1 "input1" : !hal.buffer_view -> tensor<2xf32>
  %3 = iree_tensor_ext.compute_barrier.start %2 : tensor<2xf32> -> tensor<2xf32>
  %4 = tensor.empty() : tensor<2xf32>
  %5 = linalg.generic {indexing_maps = [affine_map<(d0) -> (d0)>, affine_map<(d0) -> (d0)>], iterator_types = ["parallel"]} ins(%1 : tensor<2xf32>) outs(%4 : tensor<2xf32>) {
  ^bb0(%in: f32, %out: f32):
    %11 = math.absf %in : f32
    linalg.yield %11 : f32
  } -> tensor<2xf32>
  %6 = iree_tensor_ext.compute_barrier.end %5 : tensor<2xf32> -> tensor<2xf32>
  %7 = linalg.generic {indexing_maps = [affine_map<(d0) -> (d0)>, affine_map<(d0) -> (d0)>], iterator_types = ["parallel"]} ins(%3 : tensor<2xf32>) outs(%4 : tensor<2xf32>) {
  ^bb0(%in: f32, %out: f32):
    %11 = math.absf %in : f32
    linalg.yield %11 : f32
  } -> tensor<2xf32>
  %8 = iree_tensor_ext.compute_barrier.end %7 : tensor<2xf32> -> tensor<2xf32>
  %9 = hal.tensor.export %6 "output0" : tensor<2xf32> -> !hal.buffer_view
  %10 = hal.tensor.export %8 "output1" : tensor<2xf32> -> !hal.buffer_view
  util.return %9, %10 : !hal.buffer_view, !hal.buffer_view
}

// -----// IR Dump After FormDispatchRegionsPass (iree-dispatch-creation-form-dispatch-regions) //----- //
util.func public @multiple_results(%arg0: !hal.buffer_view, %arg1: !hal.buffer_view) -> (!hal.buffer_view, !hal.buffer_view) attributes {iree.abi.stub, iree.reflection = {iree.abi.declaration = "sync func @multiple_results(%input0: tensor<2xf32>, %input1: tensor<2xf32>) -> (%output0: tensor<2xf32>, %output1: tensor<2xf32>)"}} {
  %0 = hal.tensor.import %arg0 "input0" : !hal.buffer_view -> tensor<2xf32>
  %1 = iree_tensor_ext.compute_barrier.start %0 : tensor<2xf32> -> tensor<2xf32>
  %2 = hal.tensor.import %arg1 "input1" : !hal.buffer_view -> tensor<2xf32>
  %3 = iree_tensor_ext.compute_barrier.start %2 : tensor<2xf32> -> tensor<2xf32>
  %4 = tensor.empty() : tensor<2xf32>
  %5 = flow.dispatch.region -> (tensor<2xf32>) {
    %11 = linalg.generic {indexing_maps = [affine_map<(d0) -> (d0)>, affine_map<(d0) -> (d0)>], iterator_types = ["parallel"]} ins(%1 : tensor<2xf32>) outs(%4 : tensor<2xf32>) {
    ^bb0(%in: f32, %out: f32):
      %12 = math.absf %in : f32
      linalg.yield %12 : f32
    } -> tensor<2xf32>
    flow.return %11 : tensor<2xf32>
  }
  %6 = iree_tensor_ext.compute_barrier.end %5 : tensor<2xf32> -> tensor<2xf32>
  %7 = flow.dispatch.region -> (tensor<2xf32>) {
    %11 = linalg.generic {indexing_maps = [affine_map<(d0) -> (d0)>, affine_map<(d0) -> (d0)>], iterator_types = ["parallel"]} ins(%3 : tensor<2xf32>) outs(%4 : tensor<2xf32>) {
    ^bb0(%in: f32, %out: f32):
      %12 = math.absf %in : f32
      linalg.yield %12 : f32
    } -> tensor<2xf32>
    flow.return %11 : tensor<2xf32>
  }
  %8 = iree_tensor_ext.compute_barrier.end %7 : tensor<2xf32> -> tensor<2xf32>
  %9 = hal.tensor.export %6 "output0" : tensor<2xf32> -> !hal.buffer_view
  %10 = hal.tensor.export %8 "output1" : tensor<2xf32> -> !hal.buffer_view
  util.return %9, %10 : !hal.buffer_view, !hal.buffer_view
}

// -----// IR Dump After ElementwiseOpFusionPass (iree-dispatch-creation-elementwise-op-fusion) //----- //
util.func public @multiple_results(%arg0: !hal.buffer_view, %arg1: !hal.buffer_view) -> (!hal.buffer_view, !hal.buffer_view) attributes {iree.abi.stub, iree.reflection = {iree.abi.declaration = "sync func @multiple_results(%input0: tensor<2xf32>, %input1: tensor<2xf32>) -> (%output0: tensor<2xf32>, %output1: tensor<2xf32>)"}} {
  %0 = hal.tensor.import %arg0 "input0" : !hal.buffer_view -> tensor<2xf32>
  %1 = iree_tensor_ext.compute_barrier.start %0 : tensor<2xf32> -> tensor<2xf32>
  %2 = hal.tensor.import %arg1 "input1" : !hal.buffer_view -> tensor<2xf32>
  %3 = iree_tensor_ext.compute_barrier.start %2 : tensor<2xf32> -> tensor<2xf32>
  %4 = tensor.empty() : tensor<2xf32>
  %5 = flow.dispatch.region -> (tensor<2xf32>) {
    %11 = linalg.generic {indexing_maps = [affine_map<(d0) -> (d0)>, affine_map<(d0) -> (d0)>], iterator_types = ["parallel"]} ins(%1 : tensor<2xf32>) outs(%4 : tensor<2xf32>) {
    ^bb0(%in: f32, %out: f32):
      %12 = math.absf %in : f32
      linalg.yield %12 : f32
    } -> tensor<2xf32>
    flow.return %11 : tensor<2xf32>
  }
  %6 = iree_tensor_ext.compute_barrier.end %5 : tensor<2xf32> -> tensor<2xf32>
  %7 = flow.dispatch.region -> (tensor<2xf32>) {
    %11 = linalg.generic {indexing_maps = [affine_map<(d0) -> (d0)>, affine_map<(d0) -> (d0)>], iterator_types = ["parallel"]} ins(%3 : tensor<2xf32>) outs(%4 : tensor<2xf32>) {
    ^bb0(%in: f32, %out: f32):
      %12 = math.absf %in : f32
      linalg.yield %12 : f32
    } -> tensor<2xf32>
    flow.return %11 : tensor<2xf32>
  }
  %8 = iree_tensor_ext.compute_barrier.end %7 : tensor<2xf32> -> tensor<2xf32>
  %9 = hal.tensor.export %6 "output0" : tensor<2xf32> -> !hal.buffer_view
  %10 = hal.tensor.export %8 "output1" : tensor<2xf32> -> !hal.buffer_view
  util.return %9, %10 : !hal.buffer_view, !hal.buffer_view
}

// -----// IR Dump After FuseMultiUseElementwiseProducerPass (iree-dispatch-creation-fuse-multi-use-elementwise-producer) //----- //
util.func public @multiple_results(%arg0: !hal.buffer_view, %arg1: !hal.buffer_view) -> (!hal.buffer_view, !hal.buffer_view) attributes {iree.abi.stub, iree.reflection = {iree.abi.declaration = "sync func @multiple_results(%input0: tensor<2xf32>, %input1: tensor<2xf32>) -> (%output0: tensor<2xf32>, %output1: tensor<2xf32>)"}} {
  %0 = hal.tensor.import %arg0 "input0" : !hal.buffer_view -> tensor<2xf32>
  %1 = iree_tensor_ext.compute_barrier.start %0 : tensor<2xf32> -> tensor<2xf32>
  %2 = hal.tensor.import %arg1 "input1" : !hal.buffer_view -> tensor<2xf32>
  %3 = iree_tensor_ext.compute_barrier.start %2 : tensor<2xf32> -> tensor<2xf32>
  %4 = tensor.empty() : tensor<2xf32>
  %5 = flow.dispatch.region -> (tensor<2xf32>) {
    %11 = linalg.generic {indexing_maps = [affine_map<(d0) -> (d0)>, affine_map<(d0) -> (d0)>], iterator_types = ["parallel"]} ins(%1 : tensor<2xf32>) outs(%4 : tensor<2xf32>) {
    ^bb0(%in: f32, %out: f32):
      %12 = math.absf %in : f32
      linalg.yield %12 : f32
    } -> tensor<2xf32>
    flow.return %11 : tensor<2xf32>
  }
  %6 = iree_tensor_ext.compute_barrier.end %5 : tensor<2xf32> -> tensor<2xf32>
  %7 = flow.dispatch.region -> (tensor<2xf32>) {
    %11 = linalg.generic {indexing_maps = [affine_map<(d0) -> (d0)>, affine_map<(d0) -> (d0)>], iterator_types = ["parallel"]} ins(%3 : tensor<2xf32>) outs(%4 : tensor<2xf32>) {
    ^bb0(%in: f32, %out: f32):
      %12 = math.absf %in : f32
      linalg.yield %12 : f32
    } -> tensor<2xf32>
    flow.return %11 : tensor<2xf32>
  }
  %8 = iree_tensor_ext.compute_barrier.end %7 : tensor<2xf32> -> tensor<2xf32>
  %9 = hal.tensor.export %6 "output0" : tensor<2xf32> -> !hal.buffer_view
  %10 = hal.tensor.export %8 "output1" : tensor<2xf32> -> !hal.buffer_view
  util.return %9, %10 : !hal.buffer_view, !hal.buffer_view
}

// -----// IR Dump After CloneProducersIntoDispatchRegionsPass (iree-dispatch-creation-clone-producers-into-dispatch-regions) //----- //
util.func public @multiple_results(%arg0: !hal.buffer_view, %arg1: !hal.buffer_view) -> (!hal.buffer_view, !hal.buffer_view) attributes {iree.abi.stub, iree.reflection = {iree.abi.declaration = "sync func @multiple_results(%input0: tensor<2xf32>, %input1: tensor<2xf32>) -> (%output0: tensor<2xf32>, %output1: tensor<2xf32>)"}} {
  %0 = hal.tensor.import %arg0 "input0" : !hal.buffer_view -> tensor<2xf32>
…
    %_utf8_local_1A8FF0278D7661D8 = vm.const.ref.rodata @_utf8_local_1A8FF0278D7661D8 : !vm.buffer
    %8:2 = vm.call @hal.device.query.i64(%ref, %_utf8_hal_device_id_C6650FF277232B5A, %_utf8_local_1A8FF0278D7661D8) {nosideeffects} : (!vm.ref<!hal.device>, !vm.buffer, !vm.buffer) -> (i32, i64)
    %nz = vm.cmp.nz.i64 %8#1 : i64
    %9 = vm.select.i32 %8#0, %nz, %zero : i32
    vm.cond_br %9, ^bb3, ^bb4(%zero : i32)
  ^bb3:  // pred: ^bb2
    %_utf8_hal_executable_format_E03EECB63A2AAF52 = vm.const.ref.rodata @_utf8_hal_executable_format_E03EECB63A2AAF52 : !vm.buffer
    %_utf8_embedded_elf_arm_64_87C64FBD3BCE06F5 = vm.const.ref.rodata @_utf8_embedded_elf_arm_64_87C64FBD3BCE06F5 : !vm.buffer
    %10:2 = vm.call @hal.device.query.i64(%ref, %_utf8_hal_executable_format_E03EECB63A2AAF52, %_utf8_embedded_elf_arm_64_87C64FBD3BCE06F5) {nosideeffects} : (!vm.ref<!hal.device>, !vm.buffer, !vm.buffer) -> (i32, i64)
    %nz_3 = vm.cmp.nz.i64 %10#1 : i64
    %11 = vm.select.i32 %10#0, %nz_3, %zero : i32
    vm.br ^bb4(%11 : i32)
  ^bb4(%12: i32):  // 2 preds: ^bb2, ^bb3
    %eq = vm.cmp.eq.i64 %3, %zero_0 : i64
    %13 = vm.select.i64 %12, %c1_1, %zero_0 : i64
    %14 = vm.add.i64 %3, %13 : i64
    %15 = vm.and.i32 %12, %eq : i32
    %ref_4 = vm.select.ref %15, %ref, %null_2 : !vm.ref<!hal.device>
    %16 = vm.add.i64 %2, %c1_1 : i64
    vm.br ^bb1(%16, %14, %ref_4 : i64, i64, !vm.ref<!hal.device>)
  ^bb5:  // pred: ^bb1
    vm.cond_br %5, ^bb6, ^bb7
  ^bb6:  // pred: ^bb5
    vm.fail %c18, "HAL device `__device_0` not found or unavailable: #hal.device.target<\22local\22, [#hal.executable.target<\22llvm-cpu\22, \22embedded-elf-arm_64\22, {cpu = \22\22, cpu_features = \22+reserve-x18\22, data_layout = \22e-m:e-p270:32:32-p271:32:32-p272:64:64-i8:8:32-i16:16:32-i64:64-i128:128-n32:64-S128-Fn32\22, iree.encoding.resolver = #iree_cpu.cpu_encoding_resolver<>, max_stack_allocation_size = 32768 : i64, native_vector_size = 16 : i64, target_triple = \22arm64-unknown-unknown-eabi-elf\22}>]>"
  ^bb7:  // pred: ^bb5
    %_utf8_hal_executable_format_E03EECB63A2AAF52_5 = vm.const.ref.rodata @_utf8_hal_executable_format_E03EECB63A2AAF52 : !vm.buffer
    %_utf8_embedded_elf_arm_64_87C64FBD3BCE06F5_6 = vm.const.ref.rodata @_utf8_embedded_elf_arm_64_87C64FBD3BCE06F5 : !vm.buffer
    %17:2 = vm.call @hal.device.query.i64(%4, %_utf8_hal_executable_format_E03EECB63A2AAF52_5, %_utf8_embedded_elf_arm_64_87C64FBD3BCE06F5_6) {nosideeffects} : (!vm.ref<!hal.device>, !vm.buffer, !vm.buffer) -> (i32, i64)
    %nz_7 = vm.cmp.nz.i64 %17#1 : i64
    %18 = vm.select.i32 %17#0, %nz_7, %zero : i32
    %19 = vm.select.i64 %18, %zero_0, %c-1 : i64
    %eq_8 = vm.cmp.eq.i64 %19, %zero_0 : i64
    vm.global.store.ref %4, @__device_0 : !vm.ref<!hal.device>
    vm.cond_br %eq_8, ^bb8, ^bb9
  ^bb8:  // pred: ^bb7
    %multiple_results_dispatch_0_embedded_elf_arm_64 = vm.const.ref.rodata @multiple_results_dispatch_0_embedded_elf_arm_64 : !vm.buffer
    %ref_9 = vm.call @hal.executable.create(%4, %c-1, %_utf8_embedded_elf_arm_64_87C64FBD3BCE06F5_6, %multiple_results_dispatch_0_embedded_elf_arm_64, %null) {nosideeffects} : (!vm.ref<!hal.device>, i64, !vm.buffer, !vm.buffer, !vm.buffer) -> !vm.ref<!hal.executable>
    vm.global.store.ref %ref_9, @__device_0_executable_0_multiple_results_dispatch_0 : !vm.ref<!hal.executable>
    %ref_10 = vm.call @__multiple_results_memoize_apply() : () -> !vm.ref<!hal.command_buffer>
    vm.global.store.ref %ref_10, @__multiple_results_memoize_result_0_device_0 : !vm.ref<!hal.command_buffer>
    vm.return
  ^bb9:  // pred: ^bb7
    vm.fail %c14, "HAL device `__device_0` does not support any variant of executable `multiple_results_dispatch_0`; available formats: [embedded-elf-arm_64]"
  }
}

// -----// IR Dump After ConvertToYieldableCallsPass (iree-vm-convert-to-yieldable-calls) //----- //
vm.module public @module {
  vm.global.ref private mutable @__device_0 : !vm.ref<!hal.device>
  vm.global.ref private mutable @__device_0_executable_0_multiple_results_dispatch_0 : !vm.ref<!hal.executable>
  vm.global.ref private mutable @__multiple_results_memoize_result_0_device_0 : !vm.ref<!hal.command_buffer>
  vm.rodata private @_utf8_hal_device_id_C6650FF277232B5A {alignment = 1 : i64} "hal.device.id"
  vm.rodata private @_utf8_local_1A8FF0278D7661D8 {alignment = 1 : i64} "local*"
  vm.rodata private @_utf8_hal_executable_format_E03EECB63A2AAF52 {alignment = 1 : i64} "hal.executable.format"
  vm.rodata private @_utf8_embedded_elf_arm_64_87C64FBD3BCE06F5 {alignment = 1 : i64} "embedded-elf-arm_64"
  vm.rodata private @multiple_results_dispatch_0_embedded_elf_arm_64 {alignment = 16 : i64, mime_type = "application/x-elf"} dense<"…"> : vector<3656xi8>
  vm.func private @__multiple_results_memoize_apply() -> !vm.ref<!hal.command_buffer> attributes {inlining_policy = #util.inline.never, vm.unwind} {
    %c13 = vm.const.i32 13
    %c28 = vm.const.i32 28
    %c2 = vm.const.i32 2
    %null = vm.const.ref.zero : !vm.ref<!hal.buffer>
    %c1 = vm.const.i32 1
    %c3 = vm.const.i32 3
    %c64 = vm.const.i32 64
    %c128 = vm.const.i64 128
    %c8 = vm.const.i64 8
    %zero = vm.const.i64.zero
    %zero_0 = vm.const.i32.zero
    %c-1 = vm.const.i64 -1
    %__device_0 = vm.global.load.ref @__device_0 : !vm.ref<!hal.device>
    %__device_0_executable_0_multiple_results_dispatch_0 = vm.global.load.ref @__device_0_executable_0_multiple_results_dispatch_0 : !vm.ref<!hal.executable>
    %ref = vm.call @hal.command_buffer.create(%__device_0, %zero_0, %c3, %c-1, %c3) : (!vm.ref<!hal.device>, i32, i32, i64, i32) -> !vm.ref<!hal.command_buffer>
    vm.call.variadic @hal.command_buffer.dispatch(%ref, %__device_0_executable_0_multiple_results_dispatch_0, %zero_0, %c1, %c1, %c1, %zero, [%zero_0], [(%zero_0, %zero_0, %null, %zero, %c8), (%zero_0, %c2, %null, %zero, %c128)]) : (!vm.ref<!hal.command_buffer>, !vm.ref<!hal.executable>, i32, i32, i32, i32, i64, i32 ..., tuple<i32, i32, !vm.ref<!hal.buffer>, i64, i64> ...)
    vm.call.variadic @hal.command_buffer.dispatch(%ref, %__device_0_executable_0_multiple_results_dispatch_0, %zero_0, %c1, %c1, %c1, %zero, [%c64], [(%zero_0, %c1, %null, %zero, %c8), (%zero_0, %c2, %null, %zero, %c128)]) : (!vm.ref<!hal.command_buffer>, !vm.ref<!hal.executable>, i32, i32, i32, i32, i64, i32 ..., tuple<i32, i32, !vm.ref<!hal.buffer>, i64, i64> ...)
    vm.call @hal.command_buffer.execution_barrier(%ref, %c28, %c13, %zero) : (!vm.ref<!hal.command_buffer>, i32, i32, i64) -> ()
    vm.call @hal.command_buffer.finalize(%ref) : (!vm.ref<!hal.command_buffer>) -> ()
    vm.return %ref : !vm.ref<!hal.command_buffer>
  }
  vm.import private @hal.buffer.assert(%buffer : !vm.ref<!hal.buffer>, %message : !vm.buffer, %allocator : !vm.ref<!hal.allocator>, %minimum_length : i64, %memory_types : i32, %buffer_usage : i32)
  vm.import private @hal.buffer_view.create(%buffer : !vm.ref<!hal.buffer>, %source_offset : i64, %source_length : i64, %element_type : i32, %encoding_type : i32, %shape : i64 ...) -> !vm.ref<!hal.buffer_view> attributes {nosideeffects}
  vm.import private @hal.buffer_view.assert(%buffer_view : !vm.ref<!hal.buffer_view>, %message : !vm.buffer, %element_type : i32, %encoding_type : i32, %shape : i64 ...)
  vm.import private @hal.buffer_view.buffer(%buffer_view : !vm.ref<!hal.buffer_view>) -> !vm.ref<!hal.buffer> attributes {nosideeffects}
  vm.import private @hal.command_buffer.create(%device : !vm.ref<!hal.device>, %modes : i32, %command_categories : i32, %queue_affinity : i64, %binding_capacity : i32) -> !vm.ref<!hal.command_buffer> attributes {minimum_version = 6 : i32}
  vm.import private @hal.command_buffer.finalize(%command_buffer : !vm.ref<!hal.command_buffer>)
  vm.import private @hal.command_buffer.execution_barrier(%command_buffer : !vm.ref<!hal.command_buffer>, %source_stage_mask : i32, %target_stage_mask : i32, %flags : i64)
  vm.import private @hal.command_buffer.dispatch(%command_buffer : !vm.ref<!hal.command_buffer>, %executable : !vm.ref<!hal.executable>, %entry_point : i32, %workgroup_x : i32, %workgroup_y : i32, %workgroup_z : i32, %flags : i64, %constants : i32 ..., %bindings : tuple<i32, i32, !vm.ref<!hal.buffer>, i64, i64> ...)
  vm.import private @hal.device.allocator(%device : !vm.ref<!hal.device>) -> !vm.ref<!hal.allocator> attributes {nosideeffects}
  vm.import private @hal.device.query.i64(%device : !vm.ref<!hal.device>, %category : !vm.buffer, %key : !vm.buffer) -> (i32, i64) attributes {nosideeffects}
  vm.import private @hal.device.queue.alloca(%device : !vm.ref<!hal.device>, %queue_affinity : i64, %wait_fence : !vm.ref<!hal.fence>, %signal_fence : !vm.ref<!hal.fence>, %pool : i64, %memory_types : i32, %buffer_usage : i32, %allocation_size : i64, %flags : i64) -> !vm.ref<!hal.buffer>
  vm.import private @hal.device.queue.execute.indirect(%device : !vm.ref<!hal.device>, %queue_affinity : i64, %wait_fence : !vm.ref<!hal.fence>, %signal_fence : !vm.ref<!hal.fence>, %command_buffer : !vm.ref<!hal.command_buffer>, %flags : i64, %binding_table : tuple<!vm.ref<!hal.buffer>, i64, i64> ...)
  vm.import private @hal.devices.count() -> i32 attributes {nosideeffects}
  vm.import private @hal.devices.get(%index : i32) -> !vm.ref<!hal.device> attributes {nosideeffects}
  vm.import private @hal.executable.create(%device : !vm.ref<!hal.device>, %queue_affinity : i64, %executable_format : !vm.buffer, %executable_data : !vm.buffer, %constants : !vm.buffer) -> !vm.ref<!hal.executable> attributes {nosideeffects}
  vm.import private @hal.fence.create(%device : !vm.ref<!hal.device>, %flags : i64) -> !vm.ref<!hal.fence>
  vm.import private @hal.fence.await(%timeout_millis : i32, %flags : i64, %fences : !vm.ref<!hal.fence> ...) -> i32 attributes {vm.yield}
  vm.rodata private @_utf8_input0_DCE99660CEB3F6B {alignment = 1 : i64} "input0"
  vm.rodata private @_utf8_tensor_FC1814BC4A58F22A {alignment = 1 : i64} "tensor"
  vm.rodata private @_utf8_input1_B898B726583C85DA {alignment = 1 : i64} "input1"
  vm.func private @multiple_results(%arg0: !vm.ref<!hal.buffer_view>, %arg1: !vm.ref<!hal.buffer_view>) -> (!vm.ref<!hal.buffer_view>, !vm.ref<!hal.buffer_view>) attributes {iree.reflection = {iree.abi.declaration = "sync func @multiple_results(%input0: tensor<2xf32>, %input1: tensor<2xf32>) -> (%output0: tensor<2xf32>, %output1: tensor<2xf32>)"}, vm.unwind, vm.yield} {
    %c16 = vm.const.i32 16
    %c1 = vm.const.i32 1
    %c553648160 = vm.const.i32 553648160
    %c3075 = vm.const.i32 3075
    %c48 = vm.const.i32 48
    %c2 = vm.const.i64 2
    %c8 = vm.const.i64 8
    %c64 = vm.const.i64 64
    %c128 = vm.const.i64 128
    %zero = vm.const.i64.zero
    %c-1 = vm.const.i64 -1
    %null = vm.const.ref.zero : !vm.ref<!hal.fence>
    %c-1_0 = vm.const.i32 -1
    %__device_0 = vm.global.load.ref @__device_0 : !vm.ref<!hal.device>
    %__multiple_results_memoize_result_0_device_0 = vm.global.load.ref @__multiple_results_memoize_result_0_device_0 : !vm.ref<!hal.command_buffer>
    %_utf8_input0_DCE99660CEB3F6B = vm.const.ref.rodata @_utf8_input0_DCE99660CEB3F6B : !vm.buffer
    vm.call.variadic @hal.buffer_view.assert(%arg0, %_utf8_input0_DCE99660CEB3F6B, %c553648160, %c1, [%c2]) : (!vm.ref<!hal.buffer_view>, !vm.buffer, i32, i32, i64 ...)
    %ref = vm.call @hal.buffer_view.buffer(%arg0) {nosideeffects} : (!vm.ref<!hal.buffer_view>) -> !vm.ref<!hal.buffer>
    %ref_1 = vm.call @hal.device.allocator(%__device_0) {nosideeffects} : (!vm.ref<!hal.device>) -> !vm.ref<!hal.allocator>
    %_utf8_tensor_FC1814BC4A58F22A = vm.const.ref.rodata @_utf8_tensor_FC1814BC4A58F22A : !vm.buffer
    vm.call @hal.buffer.assert(%ref, %_utf8_tensor_FC1814BC4A58F22A, %ref_1, %c8, %c16, %c3075) : (!vm.ref<!hal.buffer>, !vm.buffer, !vm.ref<!hal.allocator>, i64, i32, i32) -> ()
    %_utf8_input1_B898B726583C85DA = vm.const.ref.rodata @_utf8_input1_B898B726583C85DA : !vm.buffer
    vm.call.variadic @hal.buffer_view.assert(%arg1, %_utf8_input1_B898B726583C85DA, %c553648160, %c1, [%c2]) : (!vm.ref<!hal.buffer_view>, !vm.buffer, i32, i32, i64 ...)
    %ref_2 = vm.call @hal.buffer_view.buffer(%arg1) {nosideeffects} : (!vm.ref<!hal.buffer_view>) -> !vm.ref<!hal.buffer>
    vm.call @hal.buffer.assert(%ref_2, %_utf8_tensor_FC1814BC4A58F22A, %ref_1, %c8, %c16, %c3075) : (!vm.ref<!hal.buffer>, !vm.buffer, !vm.ref<!hal.allocator>, i64, i32, i32) -> ()
    %ref_3 = vm.call @hal.fence.create(%__device_0, %zero) : (!vm.ref<!hal.device>, i64) -> !vm.ref<!hal.fence>
    %ref_4 = vm.call @hal.device.queue.alloca(%__device_0, %c-1, %null, %ref_3, %zero, %c48, %c3075, %c128, %zero) : (!vm.ref<!hal.device>, i64, !vm.ref<!hal.fence>, !vm.ref<!hal.fence>, i64, i32, i32, i64, i64) -> !vm.ref<!hal.buffer>
    %ref_5 = vm.call @hal.fence.create(%__device_0, %zero) : (!vm.ref<!hal.device>, i64) -> !vm.ref<!hal.fence>
    vm.call.variadic @hal.device.queue.execute.indirect(%__device_0, %c-1, %ref_3, %ref_5, %__multiple_results_memoize_result_0_device_0, %zero, [(%ref, %zero, %c8), (%ref_2, %zero, %c8), (%ref_4, %zero, %c128)]) : (!vm.ref<!hal.device>, i64, !vm.ref<!hal.fence>, !vm.ref<!hal.fence>, !vm.ref<!hal.command_buffer>, i64, tuple<!vm.ref<!hal.buffer>, i64, i64> ...)
    vm.call.variadic.yieldable @hal.fence.await(%c-1_0, %zero, %ref_5) {segment_sizes = dense<[-1, -1, 1]> : vector<3xi16>, segment_types = [i32, i64, !vm.ref<!hal.fence>]} : (i32, i64, !vm.ref<!hal.fence>) -> ^bb1 (i32)
  ^bb1(%0: i32):  // pred: ^bb0
    vm.cond_br %0, ^bb3, ^bb2
  ^bb2:  // pred: ^bb1
    %ref_6 = vm.call.variadic @hal.buffer_view.create(%ref_4, %zero, %c8, %c553648160, %c1, [%c2]) {nosideeffects} : (!vm.ref<!hal.buffer>, i64, i64, i32, i32, i64 ...) -> !vm.ref<!hal.buffer_view>
    %ref_7 = vm.call.variadic @hal.buffer_view.create(%ref_4, %c64, %c8, %c553648160, %c1, [%c2]) {nosideeffects} : (!vm.ref<!hal.buffer>, i64, i64, i32, i32, i64 ...) -> !vm.ref<!hal.buffer_view>
    vm.return %ref_6, %ref_7 : !vm.ref<!hal.buffer_view>, !vm.ref<!hal.buffer_view>
  ^bb3:  // pred: ^bb1
    vm.fail %0, "failed to wait on timepoint"
  }
  vm.export @multiple_results attributes {iree.abi.stub, iree.reflection = {iree.abi.declaration = "sync func @multiple_results(%input0: tensor<2xf32>, %input1: tensor<2xf32>) -> (%output0: tensor<2xf32>, %output1: tensor<2xf32>)"}}
  vm.export @__init
  vm.func private @__init() attributes {vm.unwind} {
    %c1 = vm.const.i32 1
    %null = vm.const.ref.zero : !vm.buffer
    %c14 = vm.const.i32 14
    %c-1 = vm.const.i64 -1
    %c18 = vm.const.i32 18
    %zero = vm.const.i32.zero
    %zero_0 = vm.const.i64.zero
    %c1_1 = vm.const.i64 1
    %null_2 = vm.const.ref.zero : !vm.ref<!hal.device>
    %0 = vm.call @hal.devices.count() {nosideeffects} : () -> i32
    %1 = vm.ext.i32.i64.s %0 : i32 -> i64
    vm.br ^bb1(%zero_0, %zero_0, %null_2 : i64, i64, !vm.ref<!hal.device>)
  ^bb1(%2: i64, %3: i64, %4: !vm.ref<!hal.device>):  // 2 preds: ^bb0, ^bb4
    %rnz = vm.cmp.nz.ref %4 : !vm.ref<!hal.device>
    %5 = vm.xor.i32 %rnz, %c1 : i32
    %slt = vm.cmp.lt.i64.s %2, %1 : i64
    %6 = vm.and.i32 %5, %slt : i32
    vm.cond_br %6, ^bb2, ^bb5
  ^bb2:  // pred: ^bb1
    %7 = vm.trunc.i64.i32 %2 : i64 -> i32
    %ref = vm.call @hal.devices.get(%7) {nosideeffects} : (i32) -> !vm.ref<!hal.device>
    %_utf8_hal_device_id_C6650FF277232B5A = vm.const.ref.rodata @_utf8_hal_device_id_C6650FF277232B5A : !vm.buffer
    %_utf8_local_1A8FF0278D7661D8 = vm.const.ref.rodata @_utf8_local_1A8FF0278D7661D8 : !vm.buffer
    %8:2 = vm.call @hal.device.query.i64(%ref, %_utf8_hal_device_id_C6650FF277232B5A, %_utf8_local_1A8FF0278D7661D8) {nosideeffects} : (!vm.ref<!hal.device>, !vm.buffer, !vm.buffer) -> (i32, i64)
    %nz = vm.cmp.nz.i64 %8#1 : i64
    %9 = vm.select.i32 %8#0, %nz, %zero : i32
    vm.cond_br %9, ^bb3, ^bb4(%zero : i32)
  ^bb3:  // pred: ^bb2
    %_utf8_hal_executable_format_E03EECB63A2AAF52 = vm.const.ref.rodata @_utf8_hal_executable_format_E03EECB63A2AAF52 : !vm.buffer
    %_utf8_embedded_elf_arm_64_87C64FBD3BCE06F5 = vm.const.ref.rodata @_utf8_embedded_elf_arm_64_87C64FBD3BCE06F5 : !vm.buffer
    %10:2 = vm.call @hal.device.query.i64(%ref, %_utf8_hal_executable_format_E03EECB63A2AAF52, %_utf8_embedded_elf_arm_64_87C64FBD3BCE06F5) {nosideeffects} : (!vm.ref<!hal.device>, !vm.buffer, !vm.buffer) -> (i32, i64)
    %nz_3 = vm.cmp.nz.i64 %10#1 : i64
    %11 = vm.select.i32 %10#0, %nz_3, %zero : i32
    vm.br ^bb4(%11 : i32)
  ^bb4(%12: i32):  // 2 preds: ^bb2, ^bb3
    %eq = vm.cmp.eq.i64 %3, %zero_0 : i64
    %13 = vm.select.i64 %12, %c1_1, %zero_0 : i64
    %14 = vm.add.i64 %3, %13 : i64
    %15 = vm.and.i32 %12, %eq : i32
    %ref_4 = vm.select.ref %15, %ref, %null_2 : !vm.ref<!hal.device>
    %16 = vm.add.i64 %2, %c1_1 : i64
    vm.br ^bb1(%16, %14, %ref_4 : i64, i64, !vm.ref<!hal.device>)
  ^bb5:  // pred: ^bb1
    vm.cond_br %5, ^bb6, ^bb7
  ^bb6:  // pred: ^bb5
    vm.fail %c18, "HAL device `__device_0` not found or unavailable: #hal.device.target<\22local\22, [#hal.executable.target<\22llvm-cpu\22, \22embedded-elf-arm_64\22, {cpu = \22\22, cpu_features = \22+reserve-x18\22, data_layout = \22e-m:e-p270:32:32-p271:32:32-p272:64:64-i8:8:32-i16:16:32-i64:64-i128:128-n32:64-S128-Fn32\22, iree.encoding.resolver = #iree_cpu.cpu_encoding_resolver<>, max_stack_allocation_size = 32768 : i64, native_vector_size = 16 : i64, target_triple = \22arm64-unknown-unknown-eabi-elf\22}>]>"
  ^bb7:  // pred: ^bb5
    %_utf8_hal_executable_format_E03EECB63A2AAF52_5 = vm.const.ref.rodata @_utf8_hal_executable_format_E03EECB63A2AAF52 : !vm.buffer
    %_utf8_embedded_elf_arm_64_87C64FBD3BCE06F5_6 = vm.const.ref.rodata @_utf8_embedded_elf_arm_64_87C64FBD3BCE06F5 : !vm.buffer
    %17:2 = vm.call @hal.device.query.i64(%4, %_utf8_hal_executable_format_E03EECB63A2AAF52_5, %_utf8_embedded_elf_arm_64_87C64FBD3BCE06F5_6) {nosideeffects} : (!vm.ref<!hal.device>, !vm.buffer, !vm.buffer) -> (i32, i64)
    %nz_7 = vm.cmp.nz.i64 %17#1 : i64
    %18 = vm.select.i32 %17#0, %nz_7, %zero : i32
    %19 = vm.select.i64 %18, %zero_0, %c-1 : i64
    %eq_8 = vm.cmp.eq.i64 %19, %zero_0 : i64
    vm.global.store.ref %4, @__device_0 : !vm.ref<!hal.device>
    vm.cond_br %eq_8, ^bb8, ^bb9
  ^bb8:  // pred: ^bb7
    %multiple_results_dispatch_0_embedded_elf_arm_64 = vm.const.ref.rodata @multiple_results_dispatch_0_embedded_elf_arm_64 : !vm.buffer
    %ref_9 = vm.call @hal.executable.create(%4, %c-1, %_utf8_embedded_elf_arm_64_87C64FBD3BCE06F5_6, %multiple_results_dispatch_0_embedded_elf_arm_64, %null) {nosideeffects} : (!vm.ref<!hal.device>, i64, !vm.buffer, !vm.buffer, !vm.buffer) -> !vm.ref<!hal.executable>
    vm.global.store.ref %ref_9, @__device_0_executable_0_multiple_results_dispatch_0 : !vm.ref<!hal.executable>
    %ref_10 = vm.call @__multiple_results_memoize_apply() : () -> !vm.ref<!hal.command_buffer>
    vm.global.store.ref %ref_10, @__multiple_results_memoize_result_0_device_0 : !vm.ref<!hal.command_buffer>
    vm.return
  ^bb9:  // pred: ^bb7
    vm.fail %c14, "HAL device `__device_0` does not support any variant of executable `multiple_results_dispatch_0`; available formats: [embedded-elf-arm_64]"
  }
}

// -----// IR Dump After DropOptimizationBarriersPass (iree-vm-drop-optimization-barriers) //----- //
vm.module public @module {
  vm.global.ref private mutable @__device_0 : !vm.ref<!hal.device>
  vm.global.ref private mutable @__device_0_executable_0_multiple_results_dispatch_0 : !vm.ref<!hal.executable>
  vm.global.ref private mutable @__multiple_results_memoize_result_0_device_0 : !vm.ref<!hal.command_buffer>
  vm.rodata private @_utf8_hal_device_id_C6650FF277232B5A {alignment = 1 : i64} "hal.device.id"
  vm.rodata private @_utf8_local_1A8FF0278D7661D8 {alignment = 1 : i64} "local*"
  vm.rodata private @_utf8_hal_executable_format_E03EECB63A2AAF52 {alignment = 1 : i64} "hal.executable.format"
  vm.rodata private @_utf8_embedded_elf_arm_64_87C64FBD3BCE06F5 {alignment = 1 : i64} "embedded-elf-arm_64"
  vm.rodata private @multiple_results_dispatch_0_embedded_elf_arm_64 {alignment = 16 : i64, mime_type = "application/x-elf"} dense<"…"> : vector<3656xi8>
  vm.func private @__multiple_results_memoize_apply() -> !vm.ref<!hal.command_buffer> attributes {inlining_policy = #util.inline.never, vm.unwind} {
    %c13 = vm.const.i32 13
    %c28 = vm.const.i32 28
    %c2 = vm.const.i32 2
    %null = vm.const.ref.zero : !vm.ref<!hal.buffer>
    %c1 = vm.const.i32 1
    %c3 = vm.const.i32 3
    %c64 = vm.const.i32 64
    %c128 = vm.const.i64 128
    %c8 = vm.const.i64 8
    %zero = vm.const.i64.zero
    %zero_0 = vm.const.i32.zero
    %c-1 = vm.const.i64 -1
    %__device_0 = vm.global.load.ref @__device_0 : !vm.ref<!hal.device>
    %__device_0_executable_0_multiple_results_dispatch_0 = vm.global.load.ref @__device_0_executable_0_multiple_results_dispatch_0 : !vm.ref<!hal.executable>
    %ref = vm.call @hal.command_buffer.create(%__device_0, %zero_0, %c3, %c-1, %c3) : (!vm.ref<!hal.device>, i32, i32, i64, i32) -> !vm.ref<!hal.command_buffer>
    vm.call.variadic @hal.command_buffer.dispatch(%ref, %__device_0_executable_0_multiple_results_dispatch_0, %zero_0, %c1, %c1, %c1, %zero, [%zero_0], [(%zero_0, %zero_0, %null, %zero, %c8), (%zero_0, %c2, %null, %zero, %c128)]) : (!vm.ref<!hal.command_buffer>, !vm.ref<!hal.executable>, i32, i32, i32, i32, i64, i32 ..., tuple<i32, i32, !vm.ref<!hal.buffer>, i64, i64> ...)
    vm.call.variadic @hal.command_buffer.dispatch(%ref, %__device_0_executable_0_multiple_results_dispatch_0, %zero_0, %c1, %c1, %c1, %zero, [%c64], [(%zero_0, %c1, %null, %zero, %c8), (%zero_0, %c2, %null, %zero, %c128)]) : (!vm.ref<!hal.command_buffer>, !vm.ref<!hal.executable>, i32, i32, i32, i32, i64, i32 ..., tuple<i32, i32, !vm.ref<!hal.buffer>, i64, i64> ...)
    vm.call @hal.command_buffer.execution_barrier(%ref, %c28, %c13, %zero) : (!vm.ref<!hal.command_buffer>, i32, i32, i64) -> ()
    vm.call @hal.command_buffer.finalize(%ref) : (!vm.ref<!hal.command_buffer>) -> ()
    vm.return %ref : !vm.ref<!hal.command_buffer>
  }
  vm.import private @hal.buffer.assert(%buffer : !vm.ref<!hal.buffer>, %message : !vm.buffer, %allocator : !vm.ref<!hal.allocator>, %minimum_length : i64, %memory_types : i32, %buffer_usage : i32)
  vm.import private @hal.buffer_view.create(%buffer : !vm.ref<!hal.buffer>, %source_offset : i64, %source_length : i64, %element_type : i32, %encoding_type : i32, %shape : i64 ...) -> !vm.ref<!hal.buffer_view> attributes {nosideeffects}
  vm.import private @hal.buffer_view.assert(%buffer_view : !vm.ref<!hal.buffer_view>, %message : !vm.buffer, %element_type : i32, %encoding_type : i32, %shape : i64 ...)
  vm.import private @hal.buffer_view.buffer(%buffer_view : !vm.ref<!hal.buffer_view>) -> !vm.ref<!hal.buffer> attributes {nosideeffects}
  vm.import private @hal.command_buffer.create(%device : !vm.ref<!hal.device>, %modes : i32, %command_categories : i32, %queue_affinity : i64, %binding_capacity : i32) -> !vm.ref<!hal.command_buffer> attributes {minimum_version = 6 : i32}
  vm.import private @hal.command_buffer.finalize(%command_buffer : !vm.ref<!hal.command_buffer>)
  vm.import private @hal.command_buffer.execution_barrier(%command_buffer : !vm.ref<!hal.command_buffer>, %source_stage_mask : i32, %target_stage_mask : i32, %flags : i64)
  vm.import private @hal.command_buffer.dispatch(%command_buffer : !vm.ref<!hal.command_buffer>, %executable : !vm.ref<!hal.executable>, %entry_point : i32, %workgroup_x : i32, %workgroup_y : i32, %workgroup_z : i32, %flags : i64, %constants : i32 ..., %bindings : tuple<i32, i32, !vm.ref<!hal.buffer>, i64, i64> ...)
  vm.import private @hal.device.allocator(%device : !vm.ref<!hal.device>) -> !vm.ref<!hal.allocator> attributes {nosideeffects}
  vm.import private @hal.device.query.i64(%device : !vm.ref<!hal.device>, %category : !vm.buffer, %key : !vm.buffer) -> (i32, i64) attributes {nosideeffects}
  vm.import private @hal.device.queue.alloca(%device : !vm.ref<!hal.device>, %queue_affinity : i64, %wait_fence : !vm.ref<!hal.fence>, %signal_fence : !vm.ref<!hal.fence>, %pool : i64, %memory_types : i32, %buffer_usage : i32, %allocation_size : i64, %flags : i64) -> !vm.ref<!hal.buffer>
  vm.import private @hal.device.queue.execute.indirect(%device : !vm.ref<!hal.device>, %queue_affinity : i64, %wait_fence : !vm.ref<!hal.fence>, %signal_fence : !vm.ref<!hal.fence>, %command_buffer : !vm.ref<!hal.command_buffer>, %flags : i64, %binding_table : tuple<!vm.ref<!hal.buffer>, i64, i64> ...)
  vm.import private @hal.devices.count() -> i32 attributes {nosideeffects}
  vm.import private @hal.devices.get(%index : i32) -> !vm.ref<!hal.device> attributes {nosideeffects}
  vm.import private @hal.executable.create(%device : !vm.ref<!hal.device>, %queue_affinity : i64, %executable_format : !vm.buffer, %executable_data : !vm.buffer, %constants : !vm.buffer) -> !vm.ref<!hal.executable> attributes {nosideeffects}
  vm.import private @hal.fence.create(%device : !vm.ref<!hal.device>, %flags : i64) -> !vm.ref<!hal.fence>
  vm.import private @hal.fence.await(%timeout_millis : i32, %flags : i64, %fences : !vm.ref<!hal.fence> ...) -> i32 attributes {vm.yield}
  vm.rodata private @_utf8_input0_DCE99660CEB3F6B {alignment = 1 : i64} "input0"
  vm.rodata private @_utf8_tensor_FC1814BC4A58F22A {alignment = 1 : i64} "tensor"
  vm.rodata private @_utf8_input1_B898B726583C85DA {alignment = 1 : i64} "input1"
  vm.func private @multiple_results(%arg0: !vm.ref<!hal.buffer_view>, %arg1: !vm.ref<!hal.buffer_view>) -> (!vm.ref<!hal.buffer_view>, !vm.ref<!hal.buffer_view>) attributes {iree.reflection = {iree.abi.declaration = "sync func @multiple_results(%input0: tensor<2xf32>, %input1: tensor<2xf32>) -> (%output0: tensor<2xf32>, %output1: tensor<2xf32>)"}, vm.unwind, vm.yield} {
    %c16 = vm.const.i32 16
    %c1 = vm.const.i32 1
    %c553648160 = vm.const.i32 553648160
    %c3075 = vm.const.i32 3075
    %c48 = vm.const.i32 48
    %c2 = vm.const.i64 2
    %c8 = vm.const.i64 8
    %c64 = vm.const.i64 64
    %c128 = vm.const.i64 128
    %zero = vm.const.i64.zero
    %c-1 = vm.const.i64 -1
    %null = vm.const.ref.zero : !vm.ref<!hal.fence>
    %c-1_0 = vm.const.i32 -1
    %__device_0 = vm.global.load.ref @__device_0 : !vm.ref<!hal.device>
    %__multiple_results_memoize_result_0_device_0 = vm.global.load.ref @__multiple_results_memoize_result_0_device_0 : !vm.ref<!hal.command_buffer>
    %_utf8_input0_DCE99660CEB3F6B = vm.const.ref.rodata @_utf8_input0_DCE99660CEB3F6B : !vm.buffer
    vm.call.variadic @hal.buffer_view.assert(%arg0, %_utf8_input0_DCE99660CEB3F6B, %c553648160, %c1, [%c2]) : (!vm.ref<!hal.buffer_view>, !vm.buffer, i32, i32, i64 ...)
    %ref = vm.call @hal.buffer_view.buffer(%arg0) {nosideeffects} : (!vm.ref<!hal.buffer_view>) -> !vm.ref<!hal.buffer>
    %ref_1 = vm.call @hal.device.allocator(%__device_0) {nosideeffects} : (!vm.ref<!hal.device>) -> !vm.ref<!hal.allocator>
    %_utf8_tensor_FC1814BC4A58F22A = vm.const.ref.rodata @_utf8_tensor_FC1814BC4A58F22A : !vm.buffer
    vm.call @hal.buffer.assert(%ref, %_utf8_tensor_FC1814BC4A58F22A, %ref_1, %c8, %c16, %c3075) : (!vm.ref<!hal.buffer>, !vm.buffer, !vm.ref<!hal.allocator>, i64, i32, i32) -> ()
    %_utf8_input1_B898B726583C85DA = vm.const.ref.rodata @_utf8_input1_B898B726583C85DA : !vm.buffer
    vm.call.variadic @hal.buffer_view.assert(%arg1, %_utf8_input1_B898B726583C85DA, %c553648160, %c1, [%c2]) : (!vm.ref<!hal.buffer_view>, !vm.buffer, i32, i32, i64 ...)
    %ref_2 = vm.call @hal.buffer_view.buffer(%arg1) {nosideeffects} : (!vm.ref<!hal.buffer_view>) -> !vm.ref<!hal.buffer>
    vm.call @hal.buffer.assert(%ref_2, %_utf8_tensor_FC1814BC4A58F22A, %ref_1, %c8, %c16, %c3075) : (!vm.ref<!hal.buffer>, !vm.buffer, !vm.ref<!hal.allocator>, i64, i32, i32) -> ()
    %ref_3 = vm.call @hal.fence.create(%__device_0, %zero) : (!vm.ref<!hal.device>, i64) -> !vm.ref<!hal.fence>
    %ref_4 = vm.call @hal.device.queue.alloca(%__device_0, %c-1, %null, %ref_3, %zero, %c48, %c3075, %c128, %zero) : (!vm.ref<!hal.device>, i64, !vm.ref<!hal.fence>, !vm.ref<!hal.fence>, i64, i32, i32, i64, i64) -> !vm.ref<!hal.buffer>
    %ref_5 = vm.call @hal.fence.create(%__device_0, %zero) : (!vm.ref<!hal.device>, i64) -> !vm.ref<!hal.fence>
    vm.call.variadic @hal.device.queue.execute.indirect(%__device_0, %c-1, %ref_3, %ref_5, %__multiple_results_memoize_result_0_device_0, %zero, [(%ref, %zero, %c8), (%ref_2, %zero, %c8), (%ref_4, %zero, %c128)]) : (!vm.ref<!hal.device>, i64, !vm.ref<!hal.fence>, !vm.ref<!hal.fence>, !vm.ref<!hal.command_buffer>, i64, tuple<!vm.ref<!hal.buffer>, i64, i64> ...)
    vm.call.variadic.yieldable @hal.fence.await(%c-1_0, %zero, %ref_5) {segment_sizes = dense<[-1, -1, 1]> : vector<3xi16>, segment_types = [i32, i64, !vm.ref<!hal.fence>]} : (i32, i64, !vm.ref<!hal.fence>) -> ^bb1 (i32)
  ^bb1(%0: i32):  // pred: ^bb0
    vm.cond_br %0, ^bb3, ^bb2
  ^bb2:  // pred: ^bb1
    %ref_6 = vm.call.variadic @hal.buffer_view.create(%ref_4, %zero, %c8, %c553648160, %c1, [%c2]) {nosideeffects} : (!vm.ref<!hal.buffer>, i64, i64, i32, i32, i64 ...) -> !vm.ref<!hal.buffer_view>
    %ref_7 = vm.call.variadic @hal.buffer_view.create(%ref_4, %c64, %c8, %c553648160, %c1, [%c2]) {nosideeffects} : (!vm.ref<!hal.buffer>, i64, i64, i32, i32, i64 ...) -> !vm.ref<!hal.buffer_view>
    vm.return %ref_6, %ref_7 : !vm.ref<!hal.buffer_view>, !vm.ref<!hal.buffer_view>
  ^bb3:  // pred: ^bb1
    vm.fail %0, "failed to wait on timepoint"
  }
  vm.export @multiple_results attributes {iree.abi.stub, iree.reflection = {iree.abi.declaration = "sync func @multiple_results(%input0: tensor<2xf32>, %input1: tensor<2xf32>) -> (%output0: tensor<2xf32>, %output1: tensor<2xf32>)"}}
  vm.export @__init
  vm.func private @__init() attributes {vm.unwind} {
    %c1 = vm.const.i32 1
    %null = vm.const.ref.zero : !vm.buffer
    %c14 = vm.const.i32 14
    %c-1 = vm.const.i64 -1
    %c18 = vm.const.i32 18
    %zero = vm.const.i32.zero
    %zero_0 = vm.const.i64.zero
    %c1_1 = vm.const.i64 1
    %null_2 = vm.const.ref.zero : !vm.ref<!hal.device>
    %0 = vm.call @hal.devices.count() {nosideeffects} : () -> i32
    %1 = vm.ext.i32.i64.s %0 : i32 -> i64
    vm.br ^bb1(%zero_0, %zero_0, %null_2 : i64, i64, !vm.ref<!hal.device>)
  ^bb1(%2: i64, %3: i64, %4: !vm.ref<!hal.device>):  // 2 preds: ^bb0, ^bb4
    %rnz = vm.cmp.nz.ref %4 : !vm.ref<!hal.device>
    %5 = vm.xor.i32 %rnz, %c1 : i32
    %slt = vm.cmp.lt.i64.s %2, %1 : i64
    %6 = vm.and.i32 %5, %slt : i32
    vm.cond_br %6, ^bb2, ^bb5
  ^bb2:  // pred: ^bb1
    %7 = vm.trunc.i64.i32 %2 : i64 -> i32
    %ref = vm.call @hal.devices.get(%7) {nosideeffects} : (i32) -> !vm.ref<!hal.device>
    %_utf8_hal_device_id_C6650FF277232B5A = vm.const.ref.rodata @_utf8_hal_device_id_C6650FF277232B5A : !vm.buffer
    %_utf8_local_1A8FF0278D7661D8 = vm.const.ref.rodata @_utf8_local_1A8FF0278D7661D8 : !vm.buffer
    %8:2 = vm.call @hal.device.query.i64(%ref, %_utf8_hal_device_id_C6650FF277232B5A, %_utf8_local_1A8FF0278D7661D8) {nosideeffects} : (!vm.ref<!hal.device>, !vm.buffer, !vm.buffer) -> (i32, i64)
    %nz = vm.cmp.nz.i64 %8#1 : i64
    %9 = vm.select.i32 %8#0, %nz, %zero : i32
    vm.cond_br %9, ^bb3, ^bb4(%zero : i32)
  ^bb3:  // pred: ^bb2
    %_utf8_hal_executable_format_E03EECB63A2AAF52 = vm.const.ref.rodata @_utf8_hal_executable_format_E03EECB63A2AAF52 : !vm.buffer
    %_utf8_embedded_elf_arm_64_87C64FBD3BCE06F5 = vm.const.ref.rodata @_utf8_embedded_elf_arm_64_87C64FBD3BCE06F5 : !vm.buffer
    %10:2 = vm.call @hal.device.query.i64(%ref, %_utf8_hal_executable_format_E03EECB63A2AAF52, %_utf8_embedded_elf_arm_64_87C64FBD3BCE06F5) {nosideeffects} : (!vm.ref<!hal.device>, !vm.buffer, !vm.buffer) -> (i32, i64)
    %nz_3 = vm.cmp.nz.i64 %10#1 : i64
    %11 = vm.select.i32 %10#0, %nz_3, %zero : i32
    vm.br ^bb4(%11 : i32)
  ^bb4(%12: i32):  // 2 preds: ^bb2, ^bb3
    %eq = vm.cmp.eq.i64 %3, %zero_0 : i64
    %13 = vm.select.i64 %12, %c1_1, %zero_0 : i64
    %14 = vm.add.i64 %3, %13 : i64
    %15 = vm.and.i32 %12, %eq : i32
    %ref_4 = vm.select.ref %15, %ref, %null_2 : !vm.ref<!hal.device>
    %16 = vm.add.i64 %2, %c1_1 : i64
    vm.br ^bb1(%16, %14, %ref_4 : i64, i64, !vm.ref<!hal.device>)
  ^bb5:  // pred: ^bb1
    vm.cond_br %5, ^bb6, ^bb7
  ^bb6:  // pred: ^bb5
    vm.fail %c18, "HAL device `__device_0` not found or unavailable: #hal.device.target<\22local\22, [#hal.executable.target<\22llvm-cpu\22, \22embedded-elf-arm_64\22, {cpu = \22\22, cpu_features = \22+reserve-x18\22, data_layout = \22e-m:e-p270:32:32-p271:32:32-p272:64:64-i8:8:32-i16:16:32-i64:64-i128:128-n32:64-S128-Fn32\22, iree.encoding.resolver = #iree_cpu.cpu_encoding_resolver<>, max_stack_allocation_size = 32768 : i64, native_vector_size = 16 : i64, target_triple = \22arm64-unknown-unknown-eabi-elf\22}>]>"
  ^bb7:  // pred: ^bb5
    %_utf8_hal_executable_format_E03EECB63A2AAF52_5 = vm.const.ref.rodata @_utf8_hal_executable_format_E03EECB63A2AAF52 : !vm.buffer
    %_utf8_embedded_elf_arm_64_87C64FBD3BCE06F5_6 = vm.const.ref.rodata @_utf8_embedded_elf_arm_64_87C64FBD3BCE06F5 : !vm.buffer
    %17:2 = vm.call @hal.device.query.i64(%4, %_utf8_hal_executable_format_E03EECB63A2AAF52_5, %_utf8_embedded_elf_arm_64_87C64FBD3BCE06F5_6) {nosideeffects} : (!vm.ref<!hal.device>, !vm.buffer, !vm.buffer) -> (i32, i64)
    %nz_7 = vm.cmp.nz.i64 %17#1 : i64
    %18 = vm.select.i32 %17#0, %nz_7, %zero : i32
    %19 = vm.select.i64 %18, %zero_0, %c-1 : i64
    %eq_8 = vm.cmp.eq.i64 %19, %zero_0 : i64
    vm.global.store.ref %4, @__device_0 : !vm.ref<!hal.device>
    vm.cond_br %eq_8, ^bb8, ^bb9
  ^bb8:  // pred: ^bb7
    %multiple_results_dispatch_0_embedded_elf_arm_64 = vm.const.ref.rodata @multiple_results_dispatch_0_embedded_elf_arm_64 : !vm.buffer
    %ref_9 = vm.call @hal.executable.create(%4, %c-1, %_utf8_embedded_elf_arm_64_87C64FBD3BCE06F5_6, %multiple_results_dispatch_0_embedded_elf_arm_64, %null) {nosideeffects} : (!vm.ref<!hal.device>, i64, !vm.buffer, !vm.buffer, !vm.buffer) -> !vm.ref<!hal.executable>
    vm.global.store.ref %ref_9, @__device_0_executable_0_multiple_results_dispatch_0 : !vm.ref<!hal.executable>
    %ref_10 = vm.call @__multiple_results_memoize_apply() : () -> !vm.ref<!hal.command_buffer>
    vm.global.store.ref %ref_10, @__multiple_results_memoize_result_0_device_0 : !vm.ref<!hal.command_buffer>
    vm.return
  ^bb9:  // pred: ^bb7
    vm.fail %c14, "HAL device `__device_0` does not support any variant of executable `multiple_results_dispatch_0`; available formats: [embedded-elf-arm_64]"
  }
}

// -----// IR Dump After MaterializeRefDiscardsPass (iree-vm-materialize-ref-discards) //----- //
vm.module public @module {
  vm.global.ref private mutable @__device_0 : !vm.ref<!hal.device>
  vm.global.ref private mutable @__device_0_executable_0_multiple_results_dispatch_0 : !vm.ref<!hal.executable>
  vm.global.ref private mutable @__multiple_results_memoize_result_0_device_0 : !vm.ref<!hal.command_buffer>
  vm.rodata private @_utf8_hal_device_id_C6650FF277232B5A {alignment = 1 : i64} "hal.device.id"
  vm.rodata private @_utf8_local_1A8FF0278D7661D8 {alignment = 1 : i64} "local*"
  vm.rodata private @_utf8_hal_executable_format_E03EECB63A2AAF52 {alignment = 1 : i64} "hal.executable.format"
  vm.rodata private @_utf8_embedded_elf_arm_64_87C64FBD3BCE06F5 {alignment = 1 : i64} "embedded-elf-arm_64"
  vm.rodata private @multiple_results_dispatch_0_embedded_elf_arm_64 {alignment = 16 : i64, mime_type = "application/x-elf"} dense<"…"> : vector<3656xi8>
  vm.func private @__multiple_results_memoize_apply() -> !vm.ref<!hal.command_buffer> attributes {inlining_policy = #util.inline.never, vm.unwind} {
    %c13 = vm.const.i32 13
    %c28 = vm.const.i32 28
    %c2 = vm.const.i32 2
    %null = vm.const.ref.zero : !vm.ref<!hal.buffer>
    %c1 = vm.const.i32 1
    %c3 = vm.const.i32 3
    %c64 = vm.const.i32 64
    %c128 = vm.const.i64 128
    %c8 = vm.const.i64 8
    %zero = vm.const.i64.zero
    %zero_0 = vm.const.i32.zero
    %c-1 = vm.const.i64 -1
    %__device_0 = vm.global.load.ref @__device_0 : !vm.ref<!hal.device>
    %__device_0_executable_0_multiple_results_dispatch_0 = vm.global.load.ref @__device_0_executable_0_multiple_results_dispatch_0 : !vm.ref<!hal.executable>
    %ref = vm.call @hal.command_buffer.create(%__device_0, %zero_0, %c3, %c-1, %c3) : (!vm.ref<!hal.device>, i32, i32, i64, i32) -> !vm.ref<!hal.command_buffer>
    vm.call.variadic @hal.command_buffer.dispatch(%ref, %__device_0_executable_0_multiple_results_dispatch_0, %zero_0, %c1, %c1, %c1, %zero, [%zero_0], [(%zero_0, %zero_0, %null, %zero, %c8), (%zero_0, %c2, %null, %zero, %c128)]) : (!vm.ref<!hal.command_buffer>, !vm.ref<!hal.executable>, i32, i32, i32, i32, i64, i32 ..., tuple<i32, i32, !vm.ref<!hal.buffer>, i64, i64> ...)
    vm.call.variadic @hal.command_buffer.dispatch(%ref, %__device_0_executable_0_multiple_results_dispatch_0, %zero_0, %c1, %c1, %c1, %zero, [%c64], [(%zero_0, %c1, %null, %zero, %c8), (%zero_0, %c2, %null, %zero, %c128)]) : (!vm.ref<!hal.command_buffer>, !vm.ref<!hal.executable>, i32, i32, i32, i32, i64, i32 ..., tuple<i32, i32, !vm.ref<!hal.buffer>, i64, i64> ...)
    vm.call @hal.command_buffer.execution_barrier(%ref, %c28, %c13, %zero) : (!vm.ref<!hal.command_buffer>, i32, i32, i64) -> ()
    vm.call @hal.command_buffer.finalize(%ref) : (!vm.ref<!hal.command_buffer>) -> ()
    vm.return %ref : !vm.ref<!hal.command_buffer>
  }
  vm.import private @hal.buffer.assert(%buffer : !vm.ref<!hal.buffer>, %message : !vm.buffer, %allocator : !vm.ref<!hal.allocator>, %minimum_length : i64, %memory_types : i32, %buffer_usage : i32)
  vm.import private @hal.buffer_view.create(%buffer : !vm.ref<!hal.buffer>, %source_offset : i64, %source_length : i64, %element_type : i32, %encoding_type : i32, %shape : i64 ...) -> !vm.ref<!hal.buffer_view> attributes {nosideeffects}
  vm.import private @hal.buffer_view.assert(%buffer_view : !vm.ref<!hal.buffer_view>, %message : !vm.buffer, %element_type : i32, %encoding_type : i32, %shape : i64 ...)
  vm.import private @hal.buffer_view.buffer(%buffer_view : !vm.ref<!hal.buffer_view>) -> !vm.ref<!hal.buffer> attributes {nosideeffects}
  vm.import private @hal.command_buffer.create(%device : !vm.ref<!hal.device>, %modes : i32, %command_categories : i32, %queue_affinity : i64, %binding_capacity : i32) -> !vm.ref<!hal.command_buffer> attributes {minimum_version = 6 : i32}
  vm.import private @hal.command_buffer.finalize(%command_buffer : !vm.ref<!hal.command_buffer>)
  vm.import private @hal.command_buffer.execution_barrier(%command_buffer : !vm.ref<!hal.command_buffer>, %source_stage_mask : i32, %target_stage_mask : i32, %flags : i64)
  vm.import private @hal.command_buffer.dispatch(%command_buffer : !vm.ref<!hal.command_buffer>, %executable : !vm.ref<!hal.executable>, %entry_point : i32, %workgroup_x : i32, %workgroup_y : i32, %workgroup_z : i32, %flags : i64, %constants : i32 ..., %bindings : tuple<i32, i32, !vm.ref<!hal.buffer>, i64, i64> ...)
  vm.import private @hal.device.allocator(%device : !vm.ref<!hal.device>) -> !vm.ref<!hal.allocator> attributes {nosideeffects}
  vm.import private @hal.device.query.i64(%device : !vm.ref<!hal.device>, %category : !vm.buffer, %key : !vm.buffer) -> (i32, i64) attributes {nosideeffects}
  vm.import private @hal.device.queue.alloca(%device : !vm.ref<!hal.device>, %queue_affinity : i64, %wait_fence : !vm.ref<!hal.fence>, %signal_fence : !vm.ref<!hal.fence>, %pool : i64, %memory_types : i32, %buffer_usage : i32, %allocation_size : i64, %flags : i64) -> !vm.ref<!hal.buffer>
  vm.import private @hal.device.queue.execute.indirect(%device : !vm.ref<!hal.device>, %queue_affinity : i64, %wait_fence : !vm.ref<!hal.fence>, %signal_fence : !vm.ref<!hal.fence>, %command_buffer : !vm.ref<!hal.command_buffer>, %flags : i64, %binding_table : tuple<!vm.ref<!hal.buffer>, i64, i64> ...)
  vm.import private @hal.devices.count() -> i32 attributes {nosideeffects}
  vm.import private @hal.devices.get(%index : i32) -> !vm.ref<!hal.device> attributes {nosideeffects}
  vm.import private @hal.executable.create(%device : !vm.ref<!hal.device>, %queue_affinity : i64, %executable_format : !vm.buffer, %executable_data : !vm.buffer, %constants : !vm.buffer) -> !vm.ref<!hal.executable> attributes {nosideeffects}
  vm.import private @hal.fence.create(%device : !vm.ref<!hal.device>, %flags : i64) -> !vm.ref<!hal.fence>
  vm.import private @hal.fence.await(%timeout_millis : i32, %flags : i64, %fences : !vm.ref<!hal.fence> ...) -> i32 attributes {vm.yield}
  vm.rodata private @_utf8_input0_DCE99660CEB3F6B {alignment = 1 : i64} "input0"
  vm.rodata private @_utf8_tensor_FC1814BC4A58F22A {alignment = 1 : i64} "tensor"
  vm.rodata private @_utf8_input1_B898B726583C85DA {alignment = 1 : i64} "input1"
  vm.func private @multiple_results(%arg0: !vm.ref<!hal.buffer_view>, %arg1: !vm.ref<!hal.buffer_view>) -> (!vm.ref<!hal.buffer_view>, !vm.ref<!hal.buffer_view>) attributes {iree.reflection = {iree.abi.declaration = "sync func @multiple_results(%input0: tensor<2xf32>, %input1: tensor<2xf32>) -> (%output0: tensor<2xf32>, %output1: tensor<2xf32>)"}, vm.unwind, vm.yield} {
    %c16 = vm.const.i32 16
    %c1 = vm.const.i32 1
    %c553648160 = vm.const.i32 553648160
    %c3075 = vm.const.i32 3075
    %c48 = vm.const.i32 48
    %c2 = vm.const.i64 2
    %c8 = vm.const.i64 8
    %c64 = vm.const.i64 64
    %c128 = vm.const.i64 128
    %zero = vm.const.i64.zero
    %c-1 = vm.const.i64 -1
    %null = vm.const.ref.zero : !vm.ref<!hal.fence>
    %c-1_0 = vm.const.i32 -1
    %__device_0 = vm.global.load.ref @__device_0 : !vm.ref<!hal.device>
    %__multiple_results_memoize_result_0_device_0 = vm.global.load.ref @__multiple_results_memoize_result_0_device_0 : !vm.ref<!hal.command_buffer>
    %_utf8_input0_DCE99660CEB3F6B = vm.const.ref.rodata @_utf8_input0_DCE99660CEB3F6B : !vm.buffer
    vm.call.variadic @hal.buffer_view.assert(%arg0, %_utf8_input0_DCE99660CEB3F6B, %c553648160, %c1, [%c2]) : (!vm.ref<!hal.buffer_view>, !vm.buffer, i32, i32, i64 ...)
    %ref = vm.call @hal.buffer_view.buffer(%arg0) {nosideeffects} : (!vm.ref<!hal.buffer_view>) -> !vm.ref<!hal.buffer>
    %ref_1 = vm.call @hal.device.allocator(%__device_0) {nosideeffects} : (!vm.ref<!hal.device>) -> !vm.ref<!hal.allocator>
    %_utf8_tensor_FC1814BC4A58F22A = vm.const.ref.rodata @_utf8_tensor_FC1814BC4A58F22A : !vm.buffer
    vm.call @hal.buffer.assert(%ref, %_utf8_tensor_FC1814BC4A58F22A, %ref_1, %c8, %c16, %c3075) : (!vm.ref<!hal.buffer>, !vm.buffer, !vm.ref<!hal.allocator>, i64, i32, i32) -> ()
    %_utf8_input1_B898B726583C85DA = vm.const.ref.rodata @_utf8_input1_B898B726583C85DA : !vm.buffer
    vm.call.variadic @hal.buffer_view.assert(%arg1, %_utf8_input1_B898B726583C85DA, %c553648160, %c1, [%c2]) : (!vm.ref<!hal.buffer_view>, !vm.buffer, i32, i32, i64 ...)
    %ref_2 = vm.call @hal.buffer_view.buffer(%arg1) {nosideeffects} : (!vm.ref<!hal.buffer_view>) -> !vm.ref<!hal.buffer>
    vm.call @hal.buffer.assert(%ref_2, %_utf8_tensor_FC1814BC4A58F22A, %ref_1, %c8, %c16, %c3075) : (!vm.ref<!hal.buffer>, !vm.buffer, !vm.ref<!hal.allocator>, i64, i32, i32) -> ()
    %ref_3 = vm.call @hal.fence.create(%__device_0, %zero) : (!vm.ref<!hal.device>, i64) -> !vm.ref<!hal.fence>
    %ref_4 = vm.call @hal.device.queue.alloca(%__device_0, %c-1, %null, %ref_3, %zero, %c48, %c3075, %c128, %zero) : (!vm.ref<!hal.device>, i64, !vm.ref<!hal.fence>, !vm.ref<!hal.fence>, i64, i32, i32, i64, i64) -> !vm.ref<!hal.buffer>
    %ref_5 = vm.call @hal.fence.create(%__device_0, %zero) : (!vm.ref<!hal.device>, i64) -> !vm.ref<!hal.fence>
    vm.call.variadic @hal.device.queue.execute.indirect(%__device_0, %c-1, %ref_3, %ref_5, %__multiple_results_memoize_result_0_device_0, %zero, [(%ref, %zero, %c8), (%ref_2, %zero, %c8), (%ref_4, %zero, %c128)]) : (!vm.ref<!hal.device>, i64, !vm.ref<!hal.fence>, !vm.ref<!hal.fence>, !vm.ref<!hal.command_buffer>, i64, tuple<!vm.ref<!hal.buffer>, i64, i64> ...)
    vm.call.variadic.yieldable @hal.fence.await(%c-1_0, %zero, %ref_5) {segment_sizes = dense<[-1, -1, 1]> : vector<3xi16>, segment_types = [i32, i64, !vm.ref<!hal.fence>]} : (i32, i64, !vm.ref<!hal.fence>) -> ^bb1 (i32)
  ^bb1(%0: i32):  // pred: ^bb0
    vm.cond_br %0, ^bb3, ^bb2
  ^bb2:  // pred: ^bb1
    %ref_6 = vm.call.variadic @hal.buffer_view.create(%ref_4, %zero, %c8, %c553648160, %c1, [%c2]) {nosideeffects} : (!vm.ref<!hal.buffer>, i64, i64, i32, i32, i64 ...) -> !vm.ref<!hal.buffer_view>
    %ref_7 = vm.call.variadic @hal.buffer_view.create(%ref_4, %c64, %c8, %c553648160, %c1, [%c2]) {nosideeffects} : (!vm.ref<!hal.buffer>, i64, i64, i32, i32, i64 ...) -> !vm.ref<!hal.buffer_view>
    vm.return %ref_6, %ref_7 : !vm.ref<!hal.buffer_view>, !vm.ref<!hal.buffer_view>
  ^bb3:  // pred: ^bb1
    vm.discard.refs %ref_4 : !vm.ref<!hal.buffer>
    vm.fail %0, "failed to wait on timepoint"
  }
  vm.export @multiple_results attributes {iree.abi.stub, iree.reflection = {iree.abi.declaration = "sync func @multiple_results(%input0: tensor<2xf32>, %input1: tensor<2xf32>) -> (%output0: tensor<2xf32>, %output1: tensor<2xf32>)"}}
  vm.export @__init
  vm.func private @__init() attributes {vm.unwind} {
    %c1 = vm.const.i32 1
    %null = vm.const.ref.zero : !vm.buffer
    %c14 = vm.const.i32 14
    %c-1 = vm.const.i64 -1
    %c18 = vm.const.i32 18
    %zero = vm.const.i32.zero
    %zero_0 = vm.const.i64.zero
    %c1_1 = vm.const.i64 1
    %null_2 = vm.const.ref.zero : !vm.ref<!hal.device>
    %0 = vm.call @hal.devices.count() {nosideeffects} : () -> i32
    %1 = vm.ext.i32.i64.s %0 : i32 -> i64
    vm.br ^bb1(%zero_0, %zero_0, %null_2 : i64, i64, !vm.ref<!hal.device>)
  ^bb1(%2: i64, %3: i64, %4: !vm.ref<!hal.device>):  // 2 preds: ^bb0, ^bb4
    %rnz = vm.cmp.nz.ref %4 : !vm.ref<!hal.device>
    %5 = vm.xor.i32 %rnz, %c1 : i32
    %slt = vm.cmp.lt.i64.s %2, %1 : i64
    %6 = vm.and.i32 %5, %slt : i32
    vm.cond_br %6, ^bb2, ^bb5
  ^bb2:  // pred: ^bb1
    vm.discard.refs %4 : !vm.ref<!hal.device>
    %7 = vm.trunc.i64.i32 %2 : i64 -> i32
    %ref = vm.call @hal.devices.get(%7) {nosideeffects} : (i32) -> !vm.ref<!hal.device>
    %_utf8_hal_device_id_C6650FF277232B5A = vm.const.ref.rodata @_utf8_hal_device_id_C6650FF277232B5A : !vm.buffer
    %_utf8_local_1A8FF0278D7661D8 = vm.const.ref.rodata @_utf8_local_1A8FF0278D7661D8 : !vm.buffer
    %8:2 = vm.call @hal.device.query.i64(%ref, %_utf8_hal_device_id_C6650FF277232B5A, %_utf8_local_1A8FF0278D7661D8) {nosideeffects} : (!vm.ref<!hal.device>, !vm.buffer, !vm.buffer) -> (i32, i64)
    %nz = vm.cmp.nz.i64 %8#1 : i64
    %9 = vm.select.i32 %8#0, %nz, %zero : i32
    vm.cond_br %9, ^bb3, ^bb4(%zero : i32)
  ^bb3:  // pred: ^bb2
    %_utf8_hal_executable_format_E03EECB63A2AAF52 = vm.const.ref.rodata @_utf8_hal_executable_format_E03EECB63A2AAF52 : !vm.buffer
    %_utf8_embedded_elf_arm_64_87C64FBD3BCE06F5 = vm.const.ref.rodata @_utf8_embedded_elf_arm_64_87C64FBD3BCE06F5 : !vm.buffer
    %10:2 = vm.call @hal.device.query.i64(%ref, %_utf8_hal_executable_format_E03EECB63A2AAF52, %_utf8_embedded_elf_arm_64_87C64FBD3BCE06F5) {nosideeffects} : (!vm.ref<!hal.device>, !vm.buffer, !vm.buffer) -> (i32, i64)
    %nz_3 = vm.cmp.nz.i64 %10#1 : i64
    %11 = vm.select.i32 %10#0, %nz_3, %zero : i32
    vm.br ^bb4(%11 : i32)
  ^bb4(%12: i32):  // 2 preds: ^bb2, ^bb3
    %eq = vm.cmp.eq.i64 %3, %zero_0 : i64
    %13 = vm.select.i64 %12, %c1_1, %zero_0 : i64
    %14 = vm.add.i64 %3, %13 : i64
    %15 = vm.and.i32 %12, %eq : i32
    %ref_4 = vm.select.ref %15, %ref, %null_2 : !vm.ref<!hal.device>
    %16 = vm.add.i64 %2, %c1_1 : i64
    vm.br ^bb1(%16, %14, %ref_4 : i64, i64, !vm.ref<!hal.device>)
  ^bb5:  // pred: ^bb1
    vm.discard.refs %null_2 : !vm.ref<!hal.device>
    vm.cond_br %5, ^bb6, ^bb7
  ^bb6:  // pred: ^bb5
    vm.discard.refs %null, %4 : !vm.buffer, !vm.ref<!hal.device>
    vm.fail %c18, "HAL device `__device_0` not found or unavailable: #hal.device.target<\22local\22, [#hal.executable.target<\22llvm-cpu\22, \22embedded-elf-arm_64\22, {cpu = \22\22, cpu_features = \22+reserve-x18\22, data_layout = \22e-m:e-p270:32:32-p271:32:32-p272:64:64-i8:8:32-i16:16:32-i64:64-i128:128-n32:64-S128-Fn32\22, iree.encoding.resolver = #iree_cpu.cpu_encoding_resolver<>, max_stack_allocation_size = 32768 : i64, native_vector_size = 16 : i64, target_triple = \22arm64-unknown-unknown-eabi-elf\22}>]>"
  ^bb7:  // pred: ^bb5
    %_utf8_hal_executable_format_E03EECB63A2AAF52_5 = vm.const.ref.rodata @_utf8_hal_executable_format_E03EECB63A2AAF52 : !vm.buffer
    %_utf8_embedded_elf_arm_64_87C64FBD3BCE06F5_6 = vm.const.ref.rodata @_utf8_embedded_elf_arm_64_87C64FBD3BCE06F5 : !vm.buffer
    %17:2 = vm.call @hal.device.query.i64(%4, %_utf8_hal_executable_format_E03EECB63A2AAF52_5, %_utf8_embedded_elf_arm_64_87C64FBD3BCE06F5_6) {nosideeffects} : (!vm.ref<!hal.device>, !vm.buffer, !vm.buffer) -> (i32, i64)
    %nz_7 = vm.cmp.nz.i64 %17#1 : i64
    %18 = vm.select.i32 %17#0, %nz_7, %zero : i32
    %19 = vm.select.i64 %18, %zero_0, %c-1 : i64
    %eq_8 = vm.cmp.eq.i64 %19, %zero_0 : i64
    vm.global.store.ref %4, @__device_0 : !vm.ref<!hal.device>
    vm.cond_br %eq_8, ^bb8, ^bb9
  ^bb8:  // pred: ^bb7
    %multiple_results_dispatch_0_embedded_elf_arm_64 = vm.const.ref.rodata @multiple_results_dispatch_0_embedded_elf_arm_64 : !vm.buffer
    %ref_9 = vm.call @hal.executable.create(%4, %c-1, %_utf8_embedded_elf_arm_64_87C64FBD3BCE06F5_6, %multiple_results_dispatch_0_embedded_elf_arm_64, %null) {nosideeffects} : (!vm.ref<!hal.device>, i64, !vm.buffer, !vm.buffer, !vm.buffer) -> !vm.ref<!hal.executable>
    vm.global.store.ref %ref_9, @__device_0_executable_0_multiple_results_dispatch_0 : !vm.ref<!hal.executable>
    %ref_10 = vm.call @__multiple_results_memoize_apply() : () -> !vm.ref<!hal.command_buffer>
    vm.global.store.ref %ref_10, @__multiple_results_memoize_result_0_device_0 : !vm.ref<!hal.command_buffer>
    vm.return
  ^bb9:  // pred: ^bb7
    vm.discard.refs %null, %4, %_utf8_embedded_elf_arm_64_87C64FBD3BCE06F5_6 : !vm.buffer, !vm.ref<!hal.device>, !vm.buffer
    vm.fail %c14, "HAL device `__device_0` does not support any variant of executable `multiple_results_dispatch_0`; available formats: [embedded-elf-arm_64]"
  }
}

