module {
  func.func @main_graph(%arg0: !torch.vtensor<[?,10],f32>) -> !torch.vtensor<[?,2],f32> attributes {torch.onnx_meta.ir_version = 10 : si64, torch.onnx_meta.opset_version = 18 : si64, torch.onnx_meta.producer_name = "pytorch", torch.onnx_meta.producer_version = "2.9.1+cu128"} {
    %0 = torch.operator "onnx.Constant"() {torch.onnx.value = dense_resource<_fc1.weight> : tensor<32x10xf32>} : () -> !torch.vtensor<[32,10],f32> 
    %1 = torch.operator "onnx.Constant"() {torch.onnx.value = dense_resource<_fc1.bias> : tensor<32xf32>} : () -> !torch.vtensor<[32],f32> 
    %2 = torch.operator "onnx.Constant"() {torch.onnx.value = dense_resource<_fc2.bias> : tensor<32xf32>} : () -> !torch.vtensor<[32],f32> 
    %3 = torch.operator "onnx.Constant"() {torch.onnx.value = dense_resource<_fc3.weight> : tensor<2x32xf32>} : () -> !torch.vtensor<[2,32],f32> 
    %4 = torch.operator "onnx.Constant"() {torch.onnx.value = dense_resource<_fc3.bias> : tensor<2xf32>} : () -> !torch.vtensor<[2],f32> 
    %5 = torch.operator "onnx.Constant"() {torch.onnx.value = dense_resource<_fc2.weight> : tensor<32x32xf32>} : () -> !torch.vtensor<[32,32],f32> 
    %none = torch.constant.none
    %6 = torch.operator "onnx.Gemm"(%arg0, %0, %1) {torch.onnx.alpha = 1.000000e+00 : f32, torch.onnx.beta = 1.000000e+00 : f32, torch.onnx.transA = 0 : si64, torch.onnx.transB = 1 : si64} : (!torch.vtensor<[?,10],f32>, !torch.vtensor<[32,10],f32>, !torch.vtensor<[32],f32>) -> !torch.vtensor<[?,32],f32> 
    %7 = torch.operator "onnx.Relu"(%6) : (!torch.vtensor<[?,32],f32>) -> !torch.vtensor<[?,32],f32> 
    %8 = torch.operator "onnx.Gemm"(%7, %5, %2) {torch.onnx.alpha = 1.000000e+00 : f32, torch.onnx.beta = 1.000000e+00 : f32, torch.onnx.transA = 0 : si64, torch.onnx.transB = 1 : si64} : (!torch.vtensor<[?,32],f32>, !torch.vtensor<[32,32],f32>, !torch.vtensor<[32],f32>) -> !torch.vtensor<[?,32],f32> 
    %9 = torch.operator "onnx.Relu"(%8) : (!torch.vtensor<[?,32],f32>) -> !torch.vtensor<[?,32],f32> 
    %10 = torch.operator "onnx.Gemm"(%9, %3, %4) {torch.onnx.alpha = 1.000000e+00 : f32, torch.onnx.beta = 1.000000e+00 : f32, torch.onnx.transA = 0 : si64, torch.onnx.transB = 1 : si64} : (!torch.vtensor<[?,32],f32>, !torch.vtensor<[2,32],f32>, !torch.vtensor<[2],f32>) -> !torch.vtensor<[?,2],f32> 
    return %10 : !torch.vtensor<[?,2],f32>
  }
}

{-#
  dialect_resources: {
    builtin: {
      _fc1.weight: "…",
      _fc1.bias: "…",
      _fc2.bias: "…",
      _fc3.weight: "…",
      _fc3.bias: "0x08000000709D193E23F9E5BD",
      _fc2.weight: "…"
    }
  }
#-}

